course/week3/fashion_project/checkpoints/augment.ckpt (torch, 160739 bytes, 12 tensors)

model.0.weight f4 [16, 784]
-0.0045551285 -0.03383287 -0.014048343 -0.011522833 -0.010232228 0.046906337 0.0015736767 0.026806604
-0.025999129 -0.029547952 -0.018051885 0.006113072 -0.023489693 0.0077260733 -0.027564667 -0.04935064
0.0036798902 -0.03684603 -0.035875197 -0.0074289297 -0.034247342 -0.04394207 -0.039268456 -0.026149815
-0.0040886262 -0.046216697 -0.0057965955 -0.017719973 -0.027539225 0.0017802276 -0.02369747 -0.059578445
-0.0066801375 0.0004394015 0.0035519162 0.014973776 -0.0077733025 -0.0151900975 0.051087804 -0.037282195
-0.032542728 -0.012149207 -0.029069176 -0.0014308668 -0.017783763 -0.0015079167 -0.009569802 -0.019088564
0.008646586 0.01070607 -0.021869173 -0.04102234 -0.0011260876 -0.011320551 -0.0042855125 0.0027013845
0.010944122 0.0017569856 -0.027965738 -0.02460812 -0.02324094 -0.008738454 0.017996801 0.035604145
0.007948535 -0.01709622 -0.009778161 -0.000255907 -0.00048563676 -0.01135895 -0.027473405 0.006201791
-0.028363574 -0.003485546 0.007513229 -0.054794002 -0.0052944166 -0.039142255 -0.05357701 -0.030574637
0.0022443228 0.005315651 0.044971008 0.033176385 0.0088139055 -0.050252587 -0.019551387 -0.022263357
-0.049591307 0.04829564 0.011477035 -0.034096286 -0.058727536 -0.025556294 0.0076737897 -0.006392895
-0.0020263346 -0.055496093 -0.009035088 -0.02342915 -0.026457269 -0.030130137 -0.010231697 -0.041781493
-0.018135516 -0.0182477 -0.0548165 -0.009775324 0.0022263478 0.005000953 0.031495262 0.008190776
0.0073226136 -0.00051851175 0.010522812 -0.050902613 -0.0031581116 0.033860013 -0.007014078 -0.023352604
-0.029631907 0.0016839254 0.0024664297 -0.057570387 -0.057439007 -0.024371063 -0.010556064 -0.010489587
-0.014551275 -0.013895299 -0.022758001 -0.026181849 0.0016017291 -0.004649514 0.0029172152 -0.016832825
-0.012970178 0.047194034 -0.006775466 0.020317722 -0.04299095 -0.032533985 -0.035429988 -0.037549865
-0.028349502 0.05908257 -0.009070839 -0.0427093 -0.029919956 0.006210589 -0.010345822 -0.02896445
-0.0280844 0.0037691484 -0.017766865 -0.058844354 -0.019225055 -0.046985395 -0.051760405 -0.017279906
-0.02933272 -0.0027268787 0.0086802235 0.0011727512 -0.059084166 -0.044008054 -0.048615225 0.0533152
-0.0030760143 -0.018066697 0.0076415595 -0.031323716 0.050434165 0.05263595 -0.039491273 -0.05397317
-0.026582925 -0.0063792015 0.0029667085 -0.017172044 -0.005770002 -0.015686475 -0.0058418964 0.0066711307
-0.008388595 -0.04064756 -0.03801021 -0.013343726 -0.034200013 0.004721576 -0.015929304 0.00734937
0.03266902 0.0015534044 0.020182028 -0.029726008 -0.020461604 -0.04566235 -0.010751997 -0.05381152
0.0012152474 0.033593804 0.001309017 -0.046952892 -0.010523524 -0.045570284 -0.021236818 -0.038498245
0.0028502056 -0.0030613134 -0.0067115533 0.0033813121 -0.01603443 -0.015446545 -0.0505395 -0.05668648
-0.017507028 -0.017147494 -0.0012591375 -0.04857646 0.040989686 -0.011525592 0.055776943 0.0023958413
0.04831394 0.05375256 0.04820781 -0.0077626794 0.0054572285 0.028413646 -0.031733453 -0.039739493
-0.029431567 0.0053543476 -0.008230073 -0.041867156 -0.009480564 0.0076916367 -0.051408112 -0.003721653
-0.051955663 -0.058345515 -0.043000087 -0.015013198 -0.03034898 0.0044997423 -0.0191366 0.0076083867
0.006731868 0.049703326 0.058029175 0.0044000386 0.015018926 0.008470945 0.016349034 0.052221257
00000000: 3043 95bb 5694 0abd 052b 66bc 44ca 3cbc
00000010: 13a5 27bc dc20 403d d443 ce3a 8699 db3c
00000020: 20fc d4bc 8c0e f2bc 8ce1 93bc 2a50 c83b
00000030: 756d c0bc 002b fd3b 4ccf e1bc e623 4abd
00000040: 502a 713b ddeb 16bd dff1 12bd 616e f3bb
00000050: f146 0cbd 9afc 33bd f6d7 20bd 2338 d6bc
00000060: e2f9 85bb b84d 3dbd 5ef1 bdbb 7a29 91bc
00000070: f199 e1bc 8756 e93a 3221 c2bc 8708 74bd
00000080: 0ee5 dabb 795f e639 44c7 683b 9254 753c
00000090: 30b7 febb e3df 78bc 7241 513d 37b5 18bd
000000a0: 864b 05bd 780d 47bc 7b22 eebc ec8b bbba
000000b0: 41af 91bc 4aa5 c5ba a9ca 1cbc 9f5f 9cbc
000000c0: 69aa 0d3c 8368 2f3c fb26 b3bc 0b07 28bd
000000d0: 3b99 93ba d579 39bc 7c6d 8cbb b609 313b
000000e0: fa4e 333c a74a e63a 6718 e5bc f896 c9bc
000000f0: c963 bebc bc2b 0fbc 076e 933c a7d5 113d
00000100: 923a 023c 5f0d 8cbc 9434 20bc 422b 86b9
00000110: 109d feb9 e41a 3abc e80f e1bc 6538 cb3b
00000120: ba5a e8bc c26d 64bb 8831 f63b ad6f 60bd
00000130: c97c adbb a153 20bd 9173 5bbd a977 fabc
00000140: 7d15 133b ea2e ae3b 8533 383d f6e3 073d
00000150: 3368 103c a8d5 4dbd 3b2a a0bc a561 b6bc
00000160: 4120 4bbd a6d1 453d 2c0a 3c3c 8ca8 0bbd
00000170: 498c 70bd 6f5b d1bc 6a74 fb3b 7d7b d1bb
00000180: 41cc 04bb df4f 63bd e807 14bc 7dee bfbc
00000190: eabc d8bc 7ad3 f6bc d9a2 27bc 1223 2bbd
000001a0: ef90 94bc 337c 95bc 4487 60bd ae28 20bc
000001b0: ebe7 113b 09df a33b 2d01 013d 9b32 063c
000001c0: 89f2 ef3b bcec 07ba df67 2c3c 427f 50bd
000001d0: 52f8 4ebb ccb0 0a3d 5ad6 e5bb f64d bfbc
000001e0: 9dbe f2bc 29b7 dc3a d3a3 213b edce 6bbd
000001f0: 2a45 6bbd d3a5 c7bc 57f3 2cbc 84dc 2bbc
00000200: 7968 6ebc 1ca9 63bc fd6e babc 517b d6bc
00000210: 1cf1 d13a f35a 98bb c02e 3f3b fee4 89bc
00000220: df80 54bc 884e 413d ba04 debb 5a71 a63c
00000230: 4717 30bd 5b42 05bd 091f 11bd e3cd 19bd
00000240: 373d e8bc 9100 723d db9d 14bc f2ef 2ebd
00000250: b21a f5bc 3282 cb3b 8681 29bc db46 edbc
00000260: 4111 e6bc d103 773b d18b 91bc c706 71bd
00000270: dd7d 9dbc c273 40bd b802 54bd 978e 8dbc
00000280: 2c4b f0bc 6fb5 32bb 7f37 0e3c 00b7 993a
00000290: 3d02 72bd ca41 34bd c220 47bd 0a61 5a3d
000002a0: f596 49bb 9c00 94bc 0c66 fa3b 4c4d 00bd
000002b0: 0e94 4e3d cb98 573d 9ac1 21bd f912 5dbd
000002c0: 6fc4 d9bc 9f08 d1bb 1c6d 423b 63ac 8cbc
000002d0: 4912 bdbb ec80 80bc 616d bfbb 8099 da3b
000002e0: 5170 09bc 0e7e 26bd 98b0 1bbd a59f 5abc
000002f0: 5015 0cbd 73b7 9a3b 2c7e 82bc fcd2 f03b
00000300: f3cf 053d 9a9b cb3a c854 a53c f583 f3bc
00000310: 189f a7bc 7208 3bbd 2529 30bc 7869 5cbd
00000320: f048 9f3a a899 093d 5293 ab3a ad51 40bd
00000330: dc6a 2cbc e8a7 3abd d6f8 adbc 56b0 1dbd
00000340: 84ca 3a3b 51a0 48bb 97ec dbbb 0199 5d3b
00000350: a35a 83bc 8113 7dbc 8202 4fbd 1530 68bd
00000360: e66a 8fbc e778 8cbc a509 a5ba 1cf8 46bd
00000370: cde4 273d d6d5 3cbc 5d76 643d 8c03 1d3b
00000380: d7e4 453d a52b 5c3d 8d75 453d 135e febb
00000390: 8dd2 b23b bcc3 e83c f0fa 01bd e1c5 22bd
000003a0: 781a f1bc 8673 af3b 6ed7 06bc e57c 2bbd
000003b0: 5e54 1bbc 200a fc3b 5091 52bd fae6 73bb
000003c0: 76cf 54bd b5fb 6ebd dc20 30bd ebf9 75bc
000003d0: 6d9e f8bc 9372 933b 5cc4 9cbc c64f f93b
000003e0: 0097 dc3b b795 4b3d 00b0 6d3d 332e 903b
000003f0: f111 763c b8c9 0a3c 69ee 853c f5e5 553d

model.0.bias f4 [16]
-0.055263087 -1.1206917 -1.0320259 -0.36224774 0.0065748226 -0.085189365 -0.45457724 -0.2903368
-0.017053807 0.20304315 -0.00849256 0.66526145 -0.06462381 2.5996923 -0.01890199 3.0183084
00000000: 8c5b 62bd d372 8fbf 6d19 84bf 8978 b9be
00000010: 9c71 d73b c377 aebd 59be e8be 06a7 94be
00000020: 6db4 8bbc 8bea 4f3e 6124 0bbc 934e 2a3f
00000030: 7d59 84bd 5c61 2640 59d8 9abc f72b 4140

model.2.weight f4 [10, 16]
-0.00049433555 0.15229395 0.18274912 -0.2964085 -0.05863549 -0.13363889 0.18438263 -0.9062735
-0.019842232 0.025796039 -0.09414794 -0.20164339 -0.12159524 -0.5962016 0.02123712 -0.17536087
-0.102264516 -0.57541275 0.63144094 -0.5339963 -0.03769384 -0.05413292 -0.09935599 -0.97296554
0.20860423 0.39427003 0.15941106 0.25763467 -0.2140758 -0.8963239 -0.26281792 0.27523258
-0.16712792 0.1644337 0.05650972 -0.47374195 0.10328695 -0.10804449 0.013599394 -1.0421072
-0.15164031 -0.17125274 0.05011038 0.29974744 -0.031439047 -0.7732502 0.19363935 0.22507417
0.21465369 0.08350838 -0.0718227 -0.36331522 -0.20011328 0.005687155 -0.05244731 -0.9829155
-0.22172348 0.107595295 -0.25699174 -0.10586488 -0.085686766 -0.78373975 -0.081042506 0.40877813
-0.047197863 0.21914512 0.12823328 -0.33839956 -0.10722877 -0.13621598 0.19666643 -1.1000236
-0.102024764 -0.40731353 -0.10493744 0.210161 0.13819633 -0.7775845 -0.15335914 0.22595064
0.14093673 -0.68719286 -0.13694523 0.039752465 -0.20903976 -0.055373743 0.030911136 -0.22459576
0.05397811 0.023003248 -0.19738495 0.29361004 -0.18449213 0.06920382 0.035721064 -0.49205485
0.06803715 0.23660247 0.08386917 -0.33683503 -0.09499107 -0.08289387 0.17049265 -1.0879638
0.115556605 -0.23079643 0.20718543 0.07800202 -0.17727478 -0.74753356 0.18662818 -0.029985322
-0.25515896 -0.64865476 -0.29321408 0.31052855 -0.113756865 0.14753067 0.08840754 0.09201791
0.124213636 -0.28144097 -0.1753433 -0.33001485 -0.17773725 0.283322 -0.049456187 -1.4689124
0.06287064 -0.028626332 0.24206834 0.08302516 0.13682048 -0.1650498 0.3595525 -0.6875545
-0.1714993 -0.17276607 0.011143442 0.1863313 0.061218373 -0.1959715 -0.09285295 -0.17215744
-0.004574086 -0.36206162 -0.49309996 0.3565259 -0.083098546 0.17772602 -0.000958666 0.08596985
-0.1310091 0.060844153 -0.108847685 0.03335766 -0.015570059 0.23653743 -0.15808257 -0.9531843
00000000: 4c96 01ba f2f2 1b3e 9622 3b3e dbc2 97be
00000010: c42b 70bd a2d8 08be cdce 3c3e 8a01 68bf
00000020: 2d8c a2bc 3752 d33c a3d0 c0bd 9b7b 4ebe
00000030: ed06 f9bd aba0 18bf 78f9 ad3c cd91 33be
00000040: 0f70 d1bd 404e 13bf 1da6 213f fbb3 08bf
00000050: db64 1abd 7bba 5dbd 277b cbbd 4514 79bf
00000060: 599c 553e c3dd c93e a73c 233e b1e8 833e
00000070: b036 5bbe 7c75 65bf 1290 86be 49eb 8c3e
00000080: 9523 2bbe 4f61 283e bc76 673d 4e8e f2be
00000090: 1c88 d33d 6e46 ddbd fecf 5e3c c563 85bf
000000a0: 9947 1bbe e15c 2fbe 8b40 4d3d 7f78 993e
000000b0: 3bc6 00bd baf3 45bf 6549 463e d879 663e
000000c0: 2dce 5b3e 7106 ab3d c817 93bd 7404 babe
000000d0: 7fea 4cbe 505b ba3b fed2 56bd 5aa0 7bbf
000000e0: 7b0b 63be ec5a dc3d 6c94 83be b0cf d8bd
000000f0: 8b7c afbd 2ba3 48bf 9df9 a5bd 5e4b d13e
00000100: 8c52 41bd 9467 603e 964f 033e b542 adbe
00000110: c29a dbbd 347c 0bbe ed62 493e 93cd 8cbf
00000120: 5cf2 d0bd 668b d0be 71e9 d6bd 7234 573e
00000130: 5783 0d3e c70f 47bf 2e0a 1dbe 9b5f 673e
00000140: b851 103e dfeb 2fbf 5f3b 0cbe 7bd3 223d
00000150: 850e 56be 94cf 62bd 5a39 fd3c 6efc 65be
00000160: 2718 5d3d 4f71 bc3c 481f 4abe 0e54 963e
00000170: 81eb 3cbe bbba 8d3d 4050 123d 9dee fbbe
00000180: 1057 8b3d eb47 723e 99c3 ab3d a475 acbe
00000190: ae8a c2bd 43c4 a9bd a095 2e3e 6642 8bbf
000001a0: f1a8 ec3d e655 6cbe 6b28 543e 86bf 9f3d
000001b0: 8587 35be 5c5e 3fbf 751b 3f3e c7a3 f5bc
000001c0: 32a4 82be 3d0e 26bf 2820 96be 99fd 9e3e
000001d0: 5cf9 e8bd 4812 173e 030f b53d e373 bc3d
000001e0: b863 fe3d 0819 90be 328d 33be b5f7 a8be
000001f0: c100 36be 950f 913e 9292 4abd 5205 bcbf
00000200: 52c2 803d c581 eabc c3e0 773e 1809 aa3d
00000210: ab1a 0c3e d102 29be 4417 b83e 9203 30bf
00000220: 839d 2fbe 97e9 30be fc92 363c a2cd 3e3e
00000230: 1ec0 7a3d c1ac 48be b029 bebd 0a4a 30be
00000240: 37e2 95bb 2460 b9be 9977 fcbe 908a b63e
00000250: 922f aabd cffd 353e fc4e 7bba f610 b03d
00000260: 4027 06be b837 793d 89eb debd 0ba2 083d
00000270: 9019 7fbc de36 723e 66e0 21be e303 74bf

model.2.bias f4 [10]
0.8594255 -0.8915705 -0.33063072 -0.7027045 -0.99750274 2.6167984 1.0259656 1.4158887
-1.364893 -2.3388004
00000000: 4f03 5c3f f73d 64bf 6e48 a9be 71e4 33bf
00000010: 575c 7fbf a079 2740 d752 833f d73b b53f
00000020: d0b4 aebf e8ae 15c0

exp_avg f4 [16, 784]
6e-45 6e-45 6e-45 6e-45 -6e-45 -6e-45 -6e-45 -6e-45
6e-45 6e-45 6e-45 6e-45 6e-45 6e-45 6e-45 6e-45
6e-45 6e-45 6e-45 6e-45 6e-45 6e-45 6e-45 6e-45
6e-45 6e-45 6e-45 6e-45 6e-45 6e-45 6e-45 6e-45
-6e-45 -6e-45 -6e-45 -6e-45 -6e-45 6e-45 -6e-45 6e-45
6e-45 6e-45 6e-45 6e-45 6e-45 6e-45 -6e-45 6e-45
6e-45 6e-45 6e-45 6e-45 6e-45 6e-45 6e-45 6e-45
6e-45 6e-45 6e-45 6e-45 6e-45 -6e-45 -6e-45 -6e-45
-6e-45 6e-45 6e-45 6e-45 6e-45 6e-45 6e-45 6e-45
6e-45 6e-45 6e-45 6e-45 6e-45 6e-45 6e-45 6e-45
6e-45 -6e-45 -6e-45 -6e-45 6e-45 6e-45 6e-45 6e-45
6e-45 -6e-45 -6e-45 6e-45 6e-45 6e-45 6e-45 6e-45
6e-45 6e-45 6e-45 6e-45 6e-45 6e-45 6e-45 6e-45
6e-45 6e-45 6e-45 6e-45 6e-45 -6e-45 -6e-45 -6e-45
6e-45 6e-45 6e-45 6e-45 -6e-45 -6e-45 6e-45 6e-45
6e-45 6e-45 6e-45 6e-45 6e-45 6e-45 6e-45 6e-45
6e-45 6e-45 6e-45 6e-45 6e-45 6e-45 6e-45 6e-45
6e-45 -6e-45 -6e-45 -6e-45 6e-45 6e-45 6e-45 6e-45
6e-45 -6e-45 6e-45 6e-45 6e-45 6e-45 6e-45 6e-45
6e-45 6e-45 6e-45 6e-45 6e-45 6e-45 6e-45 6e-45
6e-45 6e-45 6e-45 6e-45 6e-45 6e-45 6e-45 -6e-45
6e-45 6e-45 6e-45 6e-45 -6e-45 -6e-45 6e-45 6e-45
6e-45 6e-45 6e-45 6e-45 6e-45 6e-45 6e-45 6e-45
6e-45 6e-45 6e-45 6e-45 6e-45 6e-45 6e-45 6e-45
-6e-45 -6e-45 -6e-45 6e-45 6e-45 6e-45 6e-45 6e-45
6e-45 -6e-45 6e-45 6e-45 6e-45 6e-45 6e-45 6e-45
6e-45 6e-45 6e-45 6e-45 6e-45 6e-45 6e-45 6e-45
6e-45 6e-45 6e-45 6e-45 -6e-45 -6e-45 -6e-45 -6e-45
-6e-45 -6e-45 -6e-45 -6e-45 -6e-45 -6e-45 6e-45 6e-45
6e-45 6e-45 6e-45 6e-45 6e-45 6e-45 6e-45 6e-45
6e-45 6e-45 6e-45 6e-45 6e-45 6e-45 6e-45 6e-45
-6e-45 -6e-45 -6e-45 -6e-45 -6e-45 -6e-45 -6e-45 -6e-45
00000000: 0400 0000 0400 0000 0400 0000 0400 0000
00000010: 0400 0080 0400 0080 0400 0080 0400 0080
00000020: 0400 0000 0400 0000 0400 0000 0400 0000
00000030: 0400 0000 0400 0000 0400 0000 0400 0000
00000040: 0400 0000 0400 0000 0400 0000 0400 0000
00000050: 0400 0000 0400 0000 0400 0000 0400 0000
00000060: 0400 0000 0400 0000 0400 0000 0400 0000
00000070: 0400 0000 0400 0000 0400 0000 0400 0000
00000080: 0400 0080 0400 0080 0400 0080 0400 0080
00000090: 0400 0080 0400 0000 0400 0080 0400 0000
000000a0: 0400 0000 0400 0000 0400 0000 0400 0000
000000b0: 0400 0000 0400 0000 0400 0080 0400 0000
000000c0: 0400 0000 0400 0000 0400 0000 0400 0000
000000d0: 0400 0000 0400 0000 0400 0000 0400 0000
000000e0: 0400 0000 0400 0000 0400 0000 0400 0000
000000f0: 0400 0000 0400 0080 0400 0080 0400 0080
00000100: 0400 0080 0400 0000 0400 0000 0400 0000
00000110: 0400 0000 0400 0000 0400 0000 0400 0000
00000120: 0400 0000 0400 0000 0400 0000 0400 0000
00000130: 0400 0000 0400 0000 0400 0000 0400 0000
00000140: 0400 0000 0400 0080 0400 0080 0400 0080
00000150: 0400 0000 0400 0000 0400 0000 0400 0000
00000160: 0400 0000 0400 0080 0400 0080 0400 0000
00000170: 0400 0000 0400 0000 0400 0000 0400 0000
00000180: 0400 0000 0400 0000 0400 0000 0400 0000
00000190: 0400 0000 0400 0000 0400 0000 0400 0000
000001a0: 0400 0000 0400 0000 0400 0000 0400 0000
000001b0: 0400 0000 0400 0080 0400 0080 0400 0080
000001c0: 0400 0000 0400 0000 0400 0000 0400 0000
000001d0: 0400 0080 0400 0080 0400 0000 0400 0000
000001e0: 0400 0000 0400 0000 0400 0000 0400 0000
000001f0: 0400 0000 0400 0000 0400 0000 0400 0000
00000200: 0400 0000 0400 0000 0400 0000 0400 0000
00000210: 0400 0000 0400 0000 0400 0000 0400 0000
00000220: 0400 0000 0400 0080 0400 0080 0400 0080
00000230: 0400 0000 0400 0000 0400 0000 0400 0000
00000240: 0400 0000 0400 0080 0400 0000 0400 0000
00000250: 0400 0000 0400 0000 0400 0000 0400 0000
00000260: 0400 0000 0400 0000 0400 0000 0400 0000
00000270: 0400 0000 0400 0000 0400 0000 0400 0000
00000280: 0400 0000 0400 0000 0400 0000 0400 0000
00000290: 0400 0000 0400 0000 0400 0000 0400 0080
000002a0: 0400 0000 0400 0000 0400 0000 0400 0000
000002b0: 0400 0080 0400 0080 0400 0000 0400 0000
000002c0: 0400 0000 0400 0000 0400 0000 0400 0000
000002d0: 0400 0000 0400 0000 0400 0000 0400 0000
000002e0: 0400 0000 0400 0000 0400 0000 0400 0000
000002f0: 0400 0000 0400 0000 0400 0000 0400 0000
00000300: 0400 0080 0400 0080 0400 0080 0400 0000
00000310: 0400 0000 0400 0000 0400 0000 0400 0000
00000320: 0400 0000 0400 0080 0400 0000 0400 0000
00000330: 0400 0000 0400 0000 0400 0000 0400 0000
00000340: 0400 0000 0400 0000 0400 0000 0400 0000
00000350: 0400 0000 0400 0000 0400 0000 0400 0000
00000360: 0400 0000 0400 0000 0400 0000 0400 0000
00000370: 0400 0080 0400 0080 0400 0080 0400 0080
00000380: 0400 0080 0400 0080 0400 0080 0400 0080
00000390: 0400 0080 0400 0080 0400 0000 0400 0000
000003a0: 0400 0000 0400 0000 0400 0000 0400 0000
000003b0: 0400 0000 0400 0000 0400 0000 0400 0000
000003c0: 0400 0000 0400 0000 0400 0000 0400 0000
000003d0: 0400 0000 0400 0000 0400 0000 0400 0000
000003e0: 0400 0080 0400 0080 0400 0080 0400 0080
000003f0: 0400 0080 0400 0080 0400 0080 0400 0080

exp_avg_sq f4 [16, 784]
5.954114e-18 1.28052e-17 1.492298e-17 4.733414e-18 4.2325075e-17 9.7098735e-17 1.7866645e-17 5.9990124e-18
2.1261733e-16 3.3949536e-15 1.078838e-14 3.451364e-15 8.537973e-15 1.6933495e-14 1.3311991e-14 5.8500555e-15
2.800481e-15 1.6101155e-15 5.8816198e-15 1.3527171e-14 1.54443e-14 7.736703e-15 1.768703e-15 1.2130249e-16
4.6180627e-17 5.868142e-17 6.203356e-18 5.954114e-18 3.454548e-17 1.7618776e-16 5.1995366e-16 3.6800148e-16
1.031199e-17 1.7545613e-16 6.8526845e-17 1.3777025e-16 2.5638306e-16 6.043582e-16 2.0511199e-17 5.09355e-16
7.320823e-15 7.794169e-15 6.846709e-15 3.0660858e-15 3.827743e-16 1.69716e-16 5.209978e-16 1.2102869e-14
3.3118683e-14 1.2694853e-14 2.5571607e-15 2.7844953e-16 2.220185e-16 1.889395e-17 6.84408e-18 5.954114e-18
3.6229743e-16 1.0484176e-15 3.052945e-15 2.177845e-15 1.1234714e-16 7.2758595e-16 1.8017032e-15 1.1496925e-15
2.3766788e-17 4.0497306e-15 2.3875485e-15 5.8433415e-15 1.5504264e-14 1.6781749e-14 1.4315358e-14 1.43263e-14
7.4891875e-15 3.5419676e-15 2.1296386e-15 4.9551654e-14 6.972138e-14 2.7747683e-14 7.354797e-15 4.1723583e-16
3.423753e-17 2.3284373e-17 1.4789009e-18 8.796954e-19 8.0229505e-16 2.191493e-15 6.1800007e-15 2.9159183e-15
1.3713981e-16 2.6244845e-16 5.279566e-16 2.4118797e-16 3.945562e-15 1.9495573e-14 4.9851006e-15 1.4160008e-14
1.7938472e-14 1.6157596e-14 1.5763988e-14 1.9178488e-14 9.893767e-15 4.0840973e-15 2.9926424e-15 5.5201872e-14
8.2056134e-14 3.8882516e-14 1.4221326e-14 2.0415895e-15 1.3324497e-16 1.5841358e-16 3.68943e-17 2.2215775e-17
1.2265903e-16 9.247041e-16 4.392257e-15 2.3761258e-15 1.68752e-17 1.8136651e-16 5.193587e-16 9.53954e-15
1.4405325e-14 2.776567e-14 9.2335485e-15 1.8867403e-14 2.1629083e-14 1.7951144e-14 1.3969544e-14 2.0557778e-14
1.5072799e-14 6.1098286e-15 2.6589122e-15 4.2759633e-14 7.33626e-14 4.0187803e-14 1.6819487e-14 3.7453773e-15
3.9550366e-16 9.1835074e-17 5.114548e-17 4.357422e-17 6.838571e-16 3.775617e-16 1.6844074e-15 1.7025522e-15
3.556119e-20 3.9990212e-16 1.1028611e-15 1.0572368e-14 1.687395e-14 2.531925e-14 1.0247684e-14 2.3173551e-14
2.7016541e-14 2.3278046e-14 2.2908552e-14 2.8121103e-14 2.1950603e-14 5.144582e-15 1.5577093e-15 3.5133134e-14
5.8108385e-14 4.507867e-14 1.6791608e-14 4.0225065e-15 4.8844176e-16 3.9067757e-17 2.4803418e-17 1.2155712e-19
2.288247e-17 2.4229682e-16 8.5683995e-16 9.127351e-16 1.06368205e-17 7.932086e-16 8.525033e-16 1.28962215e-14
1.9774746e-14 2.7273773e-14 1.5352413e-14 2.8916692e-14 3.1195214e-14 2.5118035e-14 2.1685024e-14 1.854317e-14
1.78451e-14 7.06811e-15 4.474916e-15 3.0036354e-14 3.8217097e-14 2.8319742e-14 1.7764893e-14 2.2762346e-15
4.0303095e-17 1.4257661e-16 8.4598643e-20 4.0508513e-21 1.03488765e-17 2.621357e-16 4.045771e-16 4.314683e-16
4.3736104e-18 8.934342e-16 8.244656e-16 1.5011152e-14 2.0799118e-14 2.7251876e-14 1.4277921e-14 2.5991174e-14
2.220014e-14 1.8250904e-14 1.9713662e-14 1.4034439e-14 2.6002541e-14 9.549577e-15 4.011318e-15 4.1390695e-14
4.322471e-14 3.8534673e-14 1.227498e-14 1.2699329e-15 5.915465e-16 9.04129e-16 1.4773454e-16 5.800778e-17
4.9257156e-17 4.999456e-17 6.249458e-17 9.4127926e-17 7.929515e-16 1.976125e-15 5.6311253e-16 1.6467183e-14
2.2208011e-14 2.3157298e-14 1.514363e-14 1.9464102e-14 1.6618383e-14 1.4491221e-14 3.4401106e-15 9.24716e-15
2.7069589e-14 1.35607264e-14 1.26005765e-14 3.1295164e-14 4.7331178e-14 3.839858e-14 1.6820035e-14 3.921951e-15
2.4104517e-16 3.597578e-15 1.6521116e-15 1.7605597e-15 1.7437633e-15 1.8786617e-15 2.9451609e-15 1.7495975e-15
00000000: 04ab db22 d936 6c23 e4a3 8923 d5a1 ae22
00000010: a130 4324 fae4 df24 6cca a423 1253 dd22
00000020: 8f21 7525 d7a1 7427 9f58 4228 6eb2 7827
00000030: 73ce 1928 fb85 9828 b9ce 6f28 3dc5 d227
00000040: c2cb 4927 c70a e826 5ee8 d327 11af 7328
00000050: 221c 8b28 3f5f 0b28 a0e5 fe26 2dda 0b25
00000060: 76f8 5424 654f 8724 0add e422 04ab db22
00000070: 1b50 1f24 7321 4b25 cfdd 1526 6f23 d425
00000080: ff38 3e23 8249 4a25 1c03 9e24 9ad6 1e25
00000090: 76cb 9325 c431 2e26 b32e bd23 c4cf 1226
000000a0: 56e1 0328 4368 0c28 bfad f627 4def 5c27
000000b0: 84a7 dc25 52ab 4325 da2a 1626 a206 5a28
000000c0: 3e27 1529 adb0 6428 4a43 3827 e683 a025
000000d0: 4cf8 7f25 1444 ae23 8280 fc22 04ab db22
000000e0: aad9 d025 c817 9726 e5fc 5b27 26ee 1c27
000000f0: 0687 0125 5eb6 5126 8fd3 0127 2bb0 a526
00000100: be35 db23 2ce8 9127 7f0a 2c27 5087 d227
00000110: 66a6 8b28 1428 9728 f8f0 8028 330a 8128
00000120: c8e9 0628 c539 7f27 e674 1927 2b29 5f29
00000130: a4ff 9c29 cded f928 047e 0428 2485 f025
00000140: 8be4 1d24 acc2 d623 4c3f da21 f4d1 8121
00000150: ed3e 6726 e9e9 1d27 72a8 de27 331d 5227
00000160: 871c 1e25 8e4a 9725 522c 1826 1009 8b25
00000170: 6327 8e27 bb99 af28 709b b327 8315 7f28
00000180: 4d93 a128 e188 9128 48fd 8d28 95be ac28
00000190: f23a 3228 2625 9327 82a4 5727 6d9b 7829
000001a0: 24c6 b829 7d1c 2f29 2518 8028 ae1c 1327
000001b0: f99e 1925 70a3 3625 1a25 2a24 84e7 cc23
000001c0: 8e6a 0d25 8f43 8526 6c3f 9e27 c937 2b27
000001d0: 70a5 9b23 f219 5125 e8b1 1526 5dd9 2b28
000001e0: 6bc0 8128 4717 fa28 3a56 2628 45f1 a928
000001f0: 45d1 c228 85b0 a128 27a7 7b28 022b b928
00000200: 82c3 8728 3921 dc27 4698 3f27 8092 4029
00000210: a932 a529 62fd 3429 197f 9728 02f1 8627
00000220: 0afe e325 dcc1 d324 eddd 6b24 5cf3 4824
00000230: bf1b 4526 46a6 d925 aabf f226 175d f526
00000240: d7ee 271f 2387 e625 65f0 9e26 7174 3e28
00000250: aefc 9728 370e e428 1a9b 3828 92ba d028
00000260: e757 f328 85ab d128 8657 ce28 d94a fd28
00000270: a5b6 c528 655a b927 547d e026 bf39 1e29
00000280: 34d9 8229 2b04 4b29 d03e 9728 13ed 9027
00000290: a4c8 0c26 112b 3424 6ac5 e423 6382 0f20
000002a0: b40d d323 b3ac 8b25 a1f7 7626 fb89 8326
000002b0: f736 4423 77a0 6426 a4b7 7526 5351 6828
000002c0: 761d b228 0aa9 f528 4148 8a28 ad3a 0229
000002d0: a27d 0c29 3f3e e228 4352 c328 a405 a728
000002e0: 00bc a028 cfa7 fe27 d139 a127 8f45 0729
000002f0: 501d 2c29 e114 ff28 0e03 a028 1e05 2427
00000300: 7fdd 3924 3061 2425 bec0 c71f 6e09 991d
00000310: 30e7 3e23 671c 9725 0b39 e925 7cb9 f825
00000320: 955b a122 e7c1 8026 d3a2 6d26 5c35 8728
00000330: 8057 bb28 8c76 f528 a59a 8028 911b ea28
00000340: 0af6 c728 b863 a428 9c90 b128 6dd2 7c28
00000350: c735 ea28 a707 2c28 e185 9027 3968 3a29
00000360: b3aa 4229 748b 2d29 5b20 5d28 4104 b726
00000370: 6d80 2a26 794c 8226 8a53 2a25 c0c1 8524
00000380: 9628 6324 298f 6624 4a1a 9024 520b d924
00000390: 7e8d 6426 1265 0e27 5f4e 2226 bd52 9428
000003a0: 3008 c828 1895 d028 d566 8828 2a51 af28
000003b0: 62af 9528 7b86 8228 d7e2 7727 0095 2628
000003c0: 39d2 f328 d049 7428 e7fd 6228 def0 0c29
000003d0: 2229 5529 8cee 2c29 5c80 9728 9d4d 8d27
000003e0: fdf3 8a25 cd9d 8127 2918 ee26 30b9 fd26
000003f0: 834d fb26 315f 0727 a138 5427 c124 fc26

exp_avg f4 [16]
6e-45 0.0033379532 -0.0058045737 -0.00037869872 6e-45 6e-45 0.00018271919 -0.00014277842
6e-45 -0.0031322823 6e-45 -0.0017943713 6e-45 -0.0013372494 6e-45 0.002923675
00000000: 0400 0000 90c1 5a3b 4b34 bebb 158c c6b9
00000010: 0400 0000 0400 0000 4f98 3f39 cab6 15b9
00000020: 0400 0000 fa46 4dbb 0400 0000 1c31 ebba
00000030: 0400 0000 a546 afba 0400 0000 219b 3f3b

exp_avg_sq f4 [16]
3.0235688e-14 0.00076553255 0.00042309117 0.00022662911 1.943291e-14 9.434298e-14 6.0838134e-05 0.00013362884
1.1997296e-12 0.00042816138 2.2937864e-13 0.00042322042 3.1372515e-12 0.000106535364 3.4481427e-13 0.00071296684
00000000: 602b 0829 05ae 483a 56d2 dd39 4aa3 6d39
00000010: 3d09 af28 0671 d429 732c 7f38 b81e 0c39
00000020: d0d8 a82b d97a e039 f220 812a afe3 dd39
00000030: b3c3 5c2c bd6b df38 f91c c22a 65e6 3a3a

exp_avg f4 [10, 16]
6e-45 -0.10554995 -0.064837486 -0.037099224 6e-45 6e-45 0.014098011 -0.034122583
6e-45 -0.07263937 6e-45 0.013435961 -6e-45 -0.002610707 6e-45 -0.004075987
-6e-45 -0.014793766 -0.024514593 -0.011466629 6e-45 6e-45 -0.056192722 -0.0006307035
6e-45 -0.073642544 6e-45 0.011704579 6e-45 0.00300039 6e-45 -0.049033687
-6e-45 0.23226415 0.07138039 0.012343505 6e-45 6e-45 0.058565024 0.0017822728
6e-45 -0.021680916 6e-45 0.12865485 -6e-45 0.00075807504 6e-45 0.013931947
6e-45 0.065449886 0.041481897 0.03870604 6e-45 6e-45 0.041406274 0.009020781
-6e-45 0.07748387 6e-45 0.024070881 6e-45 0.005595727 6e-45 0.06979149
-6e-45 -0.24764621 -0.067618854 0.007043419 6e-45 6e-45 -0.00220748 -0.005434701
6e-45 0.008806097 6e-45 -0.2339082 -6e-45 0.0009363968 -6e-45 -0.004252776
6e-45 -0.02598595 0.009372268 -0.0060867085 -6e-45 -6e-45 0.0068027033 -0.00063158205
6e-45 -0.018253459 -6e-45 -0.0050747087 -6e-45 0.011569829 -6e-45 -0.002261087
-6e-45 0.06923839 0.042902075 0.010927081 6e-45 6e-45 -0.044871103 0.01407416
6e-45 0.06422224 6e-45 0.035040557 -6e-45 -0.0011475616 6e-45 -0.004514243
6e-45 0.0012209486 0.014307828 -0.008148379 -6e-45 6e-45 0.002136602 0.0378594
6e-45 0.0060136765 -6e-45 0.016230287 6e-45 -0.028778141 6e-45 -0.0041252584
-6e-45 -0.006475218 -0.021533914 -0.002878798 6e-45 6e-45 -0.015546716 -0.03226998
-6e-45 0.016070796 6e-45 0.0076417304 6e-45 -0.0017944163 -6e-45 0.016454292
-6e-45 0.032277696 -0.00093960157 -0.0033402806 6e-45 6e-45 -0.0041905786 0.010352957
6e-45 0.013619632 6e-45 0.0022040938 6e-45 0.012470446 -6e-45 -0.03191469
00000000: 0400 0000 922a d8bd 84c9 84bd 5bf5 17bd
00000010: 0400 0000 0400 0000 58fb 663c 1fc4 0bbd
00000020: 0400 0000 f3c3 94bd 0400 0000 8122 5c3c
00000030: 0400 0080 6518 2bbb 0400 0000 db8f 85bb
00000040: 0400 0080 8d61 72bc d4d2 c8bc 87de 3bbc
00000050: 0400 0000 0400 0000 572a 66bd cc55 25ba
00000060: 0400 0000 e7d1 96bd 0400 0000 90c4 3f3c
00000070: 0400 0000 31a2 443b 0400 0000 8cd7 48bd
00000080: 0400 0080 a7d6 6d3e e22f 923d 6a3c 4a3c
00000090: 0400 0000 0400 0000 e1e1 6f3d 279b e93a
000000a0: 0400 0000 2d9c b1bc 0400 0000 19be 033e
000000b0: 0400 0080 8eb9 463a 0400 0000 d242 643c
000000c0: 0400 0000 970a 863d ece8 293d 398a 1e3d
000000d0: 0400 0000 0400 0000 a099 293d e6cb 133c
000000e0: 0400 0080 ddaf 9e3d 0400 0000 4c30 c53c
000000f0: 0400 0000 5c5c b73b 0400 0000 d7ee 8e3d
00000100: 0400 0080 f896 7dbe c17b 8abd 7bcc e63b
00000110: 0400 0000 0400 0000 5eab 10bb 9415 b2bb
00000120: 0400 0000 7347 103c 0400 0000 a285 6fbe
00000130: 0400 0080 8778 753a 0400 0080 df5a 8bbb
00000140: 0400 0000 7de0 d4bc 248e 193c 0373 c7bb
00000150: 0400 0080 0400 0080 36e9 de3b c190 25ba
00000160: 0400 0000 4788 95bc 0400 0080 be49 a6bb
00000170: 0400 0080 618f 3d3c 0400 0080 bf2e 14bb
00000180: 0400 0080 dbcc 8d3d 16ba 2f3d 8007 333c
00000190: 0400 0000 0400 0000 c3ca 37bd 4e97 663c
000001a0: 0400 0000 f386 833d 0400 0000 b086 0f3d
000001b0: 0400 0080 c769 96ba 0400 0000 37ec 93bb
000001c0: 0400 0000 3d08 a03a 616b 6a3c c780 05bc
000001d0: 0400 0080 0400 0000 3c06 0c3b 7512 1b3d
000001e0: 0400 0000 600e c53b 0400 0080 61f5 843c
000001f0: 0400 0000 23c0 ebbc 0400 0000 2d2d 87bb
00000200: 0400 0080 112e d4bb e467 b0bc 37aa 3cbb
00000210: 0400 0000 0400 0000 a7b7 7ebc 872d 04bd
00000220: 0400 0080 e7a6 833c 0400 0000 7b67 fa3b
00000230: 0400 0000 9f32 ebba 0400 0080 27cb 863c
00000240: 0400 0080 9e35 043d 984f 76ba 9ce8 5abb
00000250: 0400 0000 0400 0000 1f51 89bb 739f 293c
00000260: 0400 0000 e124 5f3c 0400 0000 8f72 103b
00000270: 0400 0000 d750 4c3c 0400 0080 fab8 02bd

exp_avg_sq f4 [10, 16]
6.96702e-14 0.36333647 0.111471035 0.034696545 1.3325949e-17 7.89642e-15 0.023557967 0.007676632
2.5399574e-12 0.15197562 4.2880375e-17 0.04819034 1.3698466e-11 0.0036894144 3.7666505e-14 0.033788804
1.363437e-13 0.071019836 0.038678356 0.01326986 2.0060126e-17 1.4051393e-13 0.0042805094 0.0014275344
9.395149e-12 0.087346055 6.5972465e-17 0.011662477 3.7510403e-12 0.00046473063 1.7127896e-14 0.04378158
3.9517834e-14 0.86701417 0.19378251 0.03298725 9.470351e-18 1.8718992e-15 0.020015452 0.0026890426
2.1319033e-13 0.107833356 3.320227e-17 0.31463218 2.2599693e-11 0.0012571871 2.262268e-14 0.0621463
6.664239e-14 0.20479211 0.08261442 0.029951576 9.920392e-18 1.3949999e-14 0.013337904 0.0023219632
1.6783857e-11 0.14157556 3.7722338e-17 0.008332338 2.3301559e-11 0.0008028168 5.795291e-14 0.10498695
3.650459e-14 0.8187701 0.23952843 0.037955895 1.4995651e-17 1.4302929e-14 0.035974078 0.0023043116
3.9703942e-13 0.049352173 5.248676e-17 0.2381501 1.3456821e-11 0.0014640501 4.3228953e-14 0.110579275
2.73076e-13 0.05415421 0.036868095 0.11630328 1.3124628e-18 1.3613908e-13 0.0061505004 0.06612719
2.8122661e-14 0.022753552 9.662248e-16 0.06411899 4.5696463e-12 0.066746846 3.716867e-13 0.003160471
1.665518e-13 0.9365325 0.23505121 0.051068526 1.8952139e-17 4.6581486e-14 0.03582233 0.0028127492
8.507754e-13 0.15513606 6.238977e-17 0.25667727 2.575136e-11 0.001990614 2.6670052e-14 0.05347717
1.9262296e-13 0.047973104 0.038126968 0.1465998 8.230998e-16 1.02124784e-13 0.0008701134 0.10461468
5.052721e-15 0.004731951 5.9576867e-16 0.027558096 4.0690064e-12 0.07605526 2.6319631e-14 0.0012428267
1.4190657e-15 0.16932598 0.058348197 0.10467131 1.4442342e-17 1.33005e-14 0.023769716 0.011276251
1.1918515e-12 0.039231677 5.1595655e-17 0.11274811 2.6854715e-11 0.024370786 7.7739424e-14 0.009321906
7.7662655e-14 0.075921185 0.0330478 0.16448572 1.19220235e-17 6.516944e-14 0.0044881054 0.12987077
1.058466e-14 0.023082256 4.3445915e-17 0.058174305 8.6359765e-12 0.06266981 1.3570743e-13 0.0011701946
00000000: 23e2 9c29 3d07 ba3e ed4a e43d f71d 0e3d
00000010: 04d2 7523 cf3f 0e28 a3fc c03c 428c fb3b
00000020: cebb 322c 7f9f 1b3e 36c0 4524 3c63 453d
00000030: 68fc 702d 1aca 713b 86a2 2929 2166 0a3d
00000040: 6582 192a d972 913d 326d 1e3d d469 593c
00000050: a205 b923 6234 1e2a 8443 8c3b 1b1c bb3a
00000060: fd47 252d 7de2 b23d 451f 9824 f913 3f3c
00000070: 5efa 832c 17a7 f339 3d46 9a28 5054 333d
00000080: f6f8 3129 a4f4 5d3f ec6e 463e a31d 073d
00000090: 78b2 2e23 72e2 0627 72f7 a33c a63a 303b
000000a0: ee07 702a bcd7 dc3d 521e 1924 7817 a13e
000000b0: fcc9 c62d 33c8 a43a 59c4 cb28 1e8d 7e3d
000000c0: b910 9629 06b5 513e c031 a93d 025d f53c
000000d0: baff 3623 044d 7b28 3987 5a3c 142c 183b
000000e0: e3a1 932d 2ff9 103e adf6 2d24 5c84 083c
000000f0: 72f6 cc2d 2074 523a 947f 8229 6603 d73d
00000100: ed66 2429 eb9a 513f f146 753e a477 1b3d
00000110: 7b4f 8a23 4fd4 8028 8e59 133d ef03 173b
00000120: 6983 df2a 8125 4a3d 6e0d 7224 9fdd 733e
00000130: 22bc 6c2d 5fe5 bf3a 97af 4229 6377 e23d
00000140: 66ba 992a ced0 5d3d 0003 173d 6a30 ee3d
00000150: 71af c121 6b47 192a 238a c93b b16d 873d
00000160: 714e fd28 a865 ba3c 673f 8b26 d150 833d
00000170: b7c7 a02c 92b2 883d b33d d12a e81f 4f3b
00000180: 4a85 3b2a 98c0 6f3f 44b1 703e 3b2d 513d
00000190: 79cd ae23 ccc8 5129 6fba 123d 1a56 383b
000001a0: d478 6f2b fddb 1e3e 6bdc 8f24 346b 833e
000001b0: e882 e22d f674 023b f438 f028 e10a 5b3d
000001c0: cadf 582a 727f 443d 062b 1c3d 421e 163e
000001d0: 0c3e 6d26 eef6 e529 5218 643a 3940 d63d
000001e0: 200b b627 7b0e 9b3b f8b7 2b26 84c1 e13c
000001f0: 5a2a 8f2c dcc2 9b3d f010 ed28 58e6 a23a
00000200: 4982 cc26 ca63 2d3e 85fe 6e3d e95d d63d
00000210: 0435 8523 bb99 6f28 b5b8 c23c 06c0 383c
00000220: fabc a72b 65b1 203d 66f1 6d24 7be8 e63d
00000230: 7137 ec2d 3ea5 c73c ba0d af29 e8ba 183c
00000240: 79e1 ae29 917c 9b3d 215d 073d f26e 283e
00000250: 2aec 5b23 a0bf 9229 f510 933b d8fc 043e
00000260: 21ad 3e28 0017 bd3c e25b 4824 2e48 6e3d
00000270: fbec 172d 0859 803d 01cb 182a 3761 993a

exp_avg f4 [10]
-0.009806494 -0.004160209 0.0030610214 0.006254347 -0.010755411 0.00035870835 0.011954195 -0.0042074085
0.0036695064 0.0036317483
00000000: 6bab 20bc 5d52 88bb 6b9b 483b 44f1 cc3b
00000010: 7737 30bc 0511 bc39 87db 433c 4dde 89bb
00000020: 1a7c 703b a002 6e3b

exp_avg_sq f4 [10]
0.0015040494 0.0007618955 0.0021754412 0.0014335747 0.0022289935 0.001108667 0.002774325 0.0008997776
0.0008107719 0.0007586231
00000000: 8623 c53a f1b9 473a d991 0e3b c9e6 bb3a
00000010: 4e14 123b b150 913a 73d1 353b 0ddf 6b3a
00000020: fb89 543a 56de 463a
