course/week3/fashion_project/checkpoints/entropy.ckpt (torch, 160739 bytes, 12 tensors)

model.0.weight f4 [16, 784]
0	0x3defd82d	0.11711154
1	0xbe21abad	-0.15788145
2	0xbdcef866	-0.10105972
3	0xbee38093	-0.44434032
4	0xbf4f22b6	-0.8091234
5	0xbf5b2d51	-0.8561602
6	0xbf7f4445	-0.99713546
7	0xbecb1a95	-0.39668718
8	0x3ca3f547	0.020014418
9	0x3e6cda3f	0.2313013
10	0x3f2d78ca	0.67762434
11	0x3f425430	0.7590971
12	0x3d458eff	0.048232075
13	0xbf6c4373	-0.9229042
14	0xbf9c1f27	-1.2197007
15	0xbf56cecb	-0.8390929
16	0xbdeb2a6c	-0.11482701
17	0x3eb831c6	0.35975474
18	0x3f0cb073	0.5495674
19	0x3d99e41a	0.0751421
20	0xbf1d7bd6	-0.61517084
21	0xbf1628b8	-0.5865588
22	0xbeb49602	-0.35270697
23	0xbea1b85e	-0.31585974
24	0xbd8f6052	-0.070007935
25	0xbe7324b9	-0.23744477
26	0x3dc30e34	0.095241934
27	0xbdb9f6a5	-0.09080247
28	0x3d1866cc	0.03720741
29	0xbe97c2bc	-0.29640758
30	0x3da393f8	0.07987207
31	0xbeda98ba	-0.42694646
32	0xbf319e2c	-0.69381976
33	0xbeebf4e7	-0.46085283
34	0x3dd061cd	0.10174904
35	0x3f1d4229	0.6142908
36	0x3eec5bf4	0.46163905
37	0x3ec11071	0.37707856
38	0x3df0c3c1	0.11756087
39	0x3ee4e021	0.44702247
40	0x3e1fe609	0.15615095
41	0xbd30c7bc	-0.04315923
42	0x3e489072	0.19586352
43	0x3c26cacd	0.010180187
44	0x3d8f2cda	0.06990977
45	0x3c9e59fc	0.019330017
46	0xbd34243b	-0.043979865
47	0x3d6c246e	0.05765193
48	0x3eb8e05b	0.3610867
49	0x3b1bffb2	0.002380353
50	0xbdd979b9	-0.1061892
51	0xbeffeaee	-0.49983925
52	0xbee33176	-0.44373673
53	0xbeacb36e	-0.33730644
54	0xbdc486da	-0.095960334
55	0xbf3e372d	-0.7430294
56	0xbec0adb9	-0.3763254
57	0xbec2955d	-0.3800458
58	0xbdd3c25d	-0.10339806
59	0xbe286a61	-0.1644683
60	0xbea3fbaf	-0.32027957
61	0x3efdb710	0.49553728
62	0x3f69899a	0.9122559
63	0x3ead9ad1	0.33907178
64	0xbdcb2898	-0.09919852
65	0xbe55beef	-0.20873617
66	0xbe52d9af	-0.20590852
67	0xbd79a0cb	-0.06094436
68	0xbecea694	-0.40361464
69	0xbeb72c0c	-0.35775793
70	0xbc07f2eb	-0.008297662
71	0xbeed8f32	-0.46398312
72	0xbed0812e	-0.40723556
73	0xbeadcfad	-0.33947507
74	0xbe2ec986	-0.17069063
75	0xbd0f309a	-0.03495846
76	0x3ed16f4c	0.40905225
77	0x3f1c8ce4	0.6115248
78	0x3f34ef5b	0.7067773
79	0x3f015c50	0.5053148
80	0xbe988760	-0.29790783
81	0xbf671969	-0.9027315
82	0xbd2d59f4	-0.042322114
83	0xbf1a3ac9	-0.6024595
84	0xbf2ef7ca	-0.68346846
85	0xbe0cbd05	-0.1374398
86	0xbebfaa2a	-0.37434512
87	0xbe389588	-0.18025792
88	0x3f0a9ed2	0.5414859
89	0x3f7eccde	0.9953135
90	0x3eb3d1b9	0.35120943
91	0xbef07d1a	-0.46970445
92	0xbefe0270	-0.49611235
93	0xbf0855fc	-0.532562
94	0xbcc68c00	-0.02423668
95	0xbe5d12ac	-0.21589154
96	0x3ed9335f	0.42422006
97	0xbebcc5cb	-0.36869654
98	0xbf7db1e8	-0.9909959
99	0xbe940653	-0.28911075
100	0xbea3d397	-0.31997368
101	0xbe6eef88	-0.23333561
102	0xbeb42d4a	-0.35190803
103	0xbcb83f56	-0.022491138
104	0x3e038a4b	0.12845723
105	0x3e9d6cbc	0.3074702
106	0x3f433606	0.7625431
107	0x3f370b16	0.7150129
108	0x3d5fecf8	0.05466935
109	0xbf147852	-0.57996094
110	0x3ce812bb	0.028329244
111	0x3efaf28a	0.49013168
112	0xbeb5bcb3	-0.3549553
113	0xbe351bd9	-0.17686404
114	0xbdb66555	-0.08906046
115	0x3f3c0841	0.73450094
116	0x3f089c12	0.53363144
117	0x3e48dcd3	0.19615488
118	0xbebc1389	-0.36733654
119	0xbf4e172a	-0.80504096
120	0xbf3c17ff	-0.73474115
121	0xbe66092b	-0.22464435
122	0xbe840894	-0.25787795
123	0xbf094276	-0.53617036
124	0xbcc77927	-0.024349762
125	0xbe92f517	-0.28702614
126	0xbf26ed0c	-0.65205455
127	0xbe19da8e	-0.15024778
128	0xbed82460	-0.42215252
129	0xbf0b166a	-0.54331076
130	0xbe14b3ca	-0.14521709
131	0xbec00508	-0.3750384
132	0xbec09841	-0.3761616
133	0x3d92bfa7	0.07165461
134	0x3ed1944c	0.40933454
135	0x3ea474e4	0.3212043
136	0xbe501162	-0.20319131
137	0xbded04e5	-0.11573199
138	0x3e6abdba	0.22923937
139	0xbeb46924	-0.35236466
140	0xbec52c61	-0.3851042
141	0xbdeb82bf	-0.11499547
142	0x3f75c2e7	0.9600052
143	0x3f1fa809	0.62365776
144	0x3d0bd0bf	0.034134623
145	0x3e15028d	0.14551754
146	0xbd7ce11f	-0.06173813
147	0xbebee2c3	-0.3728238
148	0xbf5a0fd4	-0.851804
149	0xbf2f4e05	-0.68478423
150	0xbefa573a	-0.48894674
151	0xbeebdd02	-0.46067053
152	0xbd93cff1	-0.07217396
153	0xbe922ebc	-0.2855128
154	0xbf042a9a	-0.51627505
155	0xbe3e6f31	-0.18597104
156	0xbed1e89f	-0.40997788
157	0xbee0b284	-0.43886197
158	0xbe71817f	-0.23584555
159	0xbe31c890	-0.17361665
160	0x3dda3299	0.10654182
161	0x3e26112b	0.16217487
162	0x3ec32696	0.38115376
163	0x3e56bd59	0.20970668
164	0x3d94a059	0.072571464
165	0x3ea03060	0.31286907
166	0x3d8ed4f4	0.06974211
167	0xbf4a2992	-0.7896968
168	0xbf408c92	-0.75214493
169	0xbf8e1906	-1.1101387
170	0xbeb936a9	-0.36174515
171	0x3e1cd06f	0.15313886
172	0xbc8347b3	-0.0160254
173	0xbe7d0f13	-0.24712782
174	0xbbaf452a	-0.005348821
175	0x3e9a83d9	0.30178717
176	0xbf32ffaf	-0.6992139
177	0xbf898e80	-1.0746613
178	0xbf0aac78	-0.54169416
179	0xbef9bfd4	-0.48779166
180	0xbea07743	-0.3134099
181	0xbe35841e	-0.1772618
182	0xbf429e24	-0.76022553
183	0x3dc4ed0b	0.09615525
184	0xbedc0859	-0.4297512
185	0xbf35328e	-0.70780265
186	0xbea023a0	-0.3127718
187	0xbea8d32a	-0.32973605
188	0x3d9baeb7	0.076016836
189	0x3eb80698	0.3594253
190	0x3e320c8e	0.17387602
191	0x3dd4317e	0.103610024
192	0x3dd15185	0.10220627
193	0xbcb76064	-0.02238483
194	0xbf02f21b	-0.51150674
195	0xbf96a390	-1.1768665
196	0xbf4a2bf7	-0.78973335
197	0xbf0b8670	-0.5450201
198	0x3dfd90b7	0.12381118
199	0x3e8b59a9	0.27216843
200	0xbe2893c2	-0.16462615
201	0xbf1cee2b	-0.61300915
202	0xbd33b80f	-0.043876704
203	0x3f073eab	0.5283
204	0xbdf79672	-0.12089242
205	0xbf5641a7	-0.8369393
206	0xbea63074	-0.32458842
207	0xbe7762eb	-0.24158828
208	0xbd946342	-0.072454944
209	0xbec382bb	-0.38185677
210	0xbe5de381	-0.21668817
211	0x3da3e6dc	0.08003017
212	0xbeadf9d2	-0.3397966
213	0xbeac01fe	-0.3359527
214	0xbee3e138	-0.44507766
215	0xbf2863a0	-0.65777016
216	0xbde8dc19	-0.11370105
217	0x3de08691	0.109631665
218	0x3caff05a	0.021476913
219	0x3e903d65	0.2817184
220	0x3df6d125	0.1205161
221	0xbe5d55d9	-0.2161478
222	0xbecb2464	-0.396762
223	0xbdf113e9	-0.11771376
224	0xbf16b0e2	-0.5886365
225	0xbc96a5c5	-0.018389592
226	0x3ee60872	0.44928318
227	0x3e750dfe	0.23931119
228	0xbe133e82	-0.14379314
229	0xbf4e949b	-0.80695504
230	0xbeeb0448	-0.45901704
231	0x3f389a3c	0.7211034
232	0xbe6dbf3d	-0.23217483
233	0xbe54e51a	-0.2079052
234	0x3cadac91	0.02120045
235	0xbe577a30	-0.21042705
236	0x3e0cd15e	0.13751742
237	0x3eefb935	0.4682099
238	0x3e847133	0.25867614
239	0x3ed88497	0.42288658
240	0xbdc17b80	-0.09447384
241	0xbe467c20	-0.19383287
242	0xbe0e2905	-0.13882835
243	0xbe5bce19	-0.21465339
244	0x3d97e415	0.0741655
245	0x3dd029ca	0.10164221
246	0xbddaf179	-0.106905885
247	0xbbd81146	-0.006593856
248	0x3d9dbf98	0.07702559
249	0x3d902677	0.070385866
250	0xbd15f4c3	-0.036610376
251	0x3ed78dbd	0.42100325
252	0xbf01c84d	-0.5069626
253	0xbee283de	-0.44241232
254	0xbe3b8662	-0.18312982
255	0x3f0b2735	0.543567

model.0.bias f4 [16]
0	0x400462ae	2.068523
1	0x3ed5bd10	0.41745806
2	0x3ee74562	0.45170122
3	0xbd62c211	-0.055360857
4	0x3e379b0e	0.17930242
5	0x3ee85a0d	0.45381203
6	0xbf0ba9f5	-0.5455621
7	0x3f6fee0e	0.9372262
8	0xbcf8006b	-0.030273637
9	0x3fa80fe0	1.3129845
10	0xbd2d7f7b	-0.042357903
11	0xbe3a0deb	-0.18169372
12	0x3f66b425	0.9011863
13	0x3ba4a32a	0.0050243335
14	0x3f407deb	0.75192136
15	0x3f7e4765	0.9932769

model.2.weight f4 [10, 16]
0	0xbebf5e1b	-0.37376484
1	0xbe8a20e5	-0.26978222
2	0x3e53e596	0.20693049
3	0x3d8e7c62	0.06957318
4	0x3de8cd42	0.11367275
5	0xbf0f08aa	-0.55872595
6	0x3d2c4063	0.04205359
7	0x3d6baf18	0.05754003
8	0xbe71ed04	-0.2362557
9	0xbe670f62	-0.22564462
10	0xbd9d0bbd	-0.076682545
11	0xbe4210b3	-0.18951683
12	0xbde2a920	-0.11067414
13	0xbddb6f0d	-0.10714541
14	0x3ddd04a8	0.10791904
15	0xbe54e921	-0.20792057
16	0xbf446188	-0.7671132
17	0xbee7be93	-0.45262584
18	0xbf2ac0b5	-0.667003
19	0xbe53b30a	-0.20673767
20	0xbec6e244	-0.38844502
21	0xbf03679b	-0.51329964
22	0xbc4aa656	-0.012368759
23	0xbf023e8c	-0.5087669
24	0x3daae5ec	0.08344635
25	0xbf0bb95a	-0.545797
26	0xba15af18	-0.000570999
27	0x3e3f29e9	0.18668331
28	0x3f02007f	0.50782007
29	0xbe5674ac	-0.20942944
30	0x3f0df096	0.5544523
31	0x3e813906	0.25238818
32	0x3e631a1a	0.22177926
33	0xbd12e498	-0.035862535
34	0x3cd6a92f	0.02620372
35	0x3e2cb191	0.16864611
36	0x3d97041c	0.07373831
37	0xbf5e87b4	-0.86925817
38	0x3ddb850f	0.10718738
39	0xbcddb4fe	-0.027063843
40	0x3e554efb	0.2083091
41	0xbecff096	-0.4061324
42	0x3e5b8836	0.21438679
43	0x3e7721e9	0.2413403
44	0xbeb2a98d	-0.34894982
45	0x3e4792dc	0.19489616
46	0xbf1b2b3d	-0.6061285
47	0x3e60d6ee	0.21956989
48	0xbf4fda90	-0.81192875
49	0xbea2e915	-0.31818452
50	0x3e74bc1e	0.23899886
51	0xbe84a9da	-0.25910836
52	0xbe7e6843	-0.2484446
53	0xbf2986dd	-0.6622141
54	0xbd10ede1	-0.03538311
55	0x3cb8cb49	0.022557871
56	0x3e3d00a1	0.18457271
57	0x3ec8ee14	0.3924414
58	0x3dfb504a	0.12271173
59	0xbd8f38b5	-0.06993238
60	0x3e5e6a1d	0.21720167
61	0x3b8b97e3	0.0042600497
62	0x3dfc154b	0.12308749
63	0x3e1597f9	0.14608754
64	0xbe1d4bf7	-0.1536101
65	0xbf14f86a	-0.5819155
66	0xbd8f95bd	-0.07010982
67	0x3e63bc2e	0.22239754
68	0x3db51d6d	0.08843503
69	0xbf552184	-0.83254266
70	0x3e576c88	0.21037495
71	0xbe7cbb12	-0.24680737
72	0xbd46d9bd	-0.048547495
73	0x3d6ddfe2	0.05807484
74	0x3df149c6	0.11781649
75	0x3e839eb9	0.25707033
76	0xbde35d1a	-0.11101742
77	0x3e0fabd9	0.14030398
78	0xbf2b21e8	-0.6684861
79	0x3d0b9cb0	0.034084976
80	0x3f39f274	0.7263558
81	0xbc94c084	-0.018158205
82	0x3ee575fb	0.44816574
83	0xbe30252c	-0.1720168
84	0x3d53c0a4	0.05169739
85	0x3df97122	0.121797815
86	0xbfa52860	-1.2902946
87	0x3ed2d801	0.41180423
88	0x3e484090	0.19555879
89	0x3eb9c657	0.36284134
90	0x3d0cedeb	0.034406584
91	0x3e2aaed3	0.16668253
92	0xbf3f1385	-0.7463916
93	0x3ca7a7a6	0.020465683
94	0xbeb54ea9	-0.35411575
95	0x3f0bbab6	0.54581773
96	0x3bd34636	0.006447579
97	0xbed004b7	-0.40628597
98	0x3de5f569	0.11228449
99	0x3e1ea560	0.15492773
100	0x3e68ea3b	0.22745602
101	0xbf5d630d	-0.86479264
102	0x3e147c76	0.14500603
103	0x3e0c2fb3	0.13690071
104	0xbdc0d964	-0.09416464
105	0xbd5a6fce	-0.05332928
106	0x3ced3436	0.02895556
107	0xbde7c94a	-0.1131769
108	0xbf01dc44	-0.50726724
109	0xbdefc779	-0.11707968
110	0xbd613a66	-0.054987334
111	0xbde35c91	-0.1110164
112	0xbea80c07	-0.32821676
113	0x3e8be026	0.2731945
114	0xbf15e1bb	-0.5854756
115	0xbe30b1c7	-0.17255317
116	0xbf01d60e	-0.50717247
117	0x3e7dc44a	0.2478191
118	0xbf848fc1	-1.035637
119	0xbd219a54	-0.03945382
120	0xbcc00aea	-0.023442704
121	0x3f06bb96	0.52629983
122	0x3e08e409	0.13368239
123	0xbf11d39d	-0.5696352
124	0xbf872488	-1.0558023
125	0x3de162d5	0.11005179
126	0xc0054222	-2.0821614
127	0xbeaaa5a4	-0.333295
128	0xbc2d9fb7	-0.010597161
129	0xbf1c6af6	-0.6110071
130	0x3e1107d7	0.14163147
131	0x3e01c8b9	0.12674226
132	0xbe89e04b	-0.26928934
133	0x3e33bc23	0.17552237
134	0xbdd48086	-0.103760764
135	0x3dc39655	0.09550158
136	0x3dc59ace	0.09648667
137	0xbcce1374	-0.02515576
138	0xbe60f572	-0.2196863
139	0x3ecece55	0.40391794
140	0xbe1b766c	-0.15181893
141	0x3e15457d	0.14577289
142	0xbf0e3c32	-0.555606
143	0xbf44aaca	-0.76823103
144	0xbf15a229	-0.5845056
145	0x3e5b2192	0.21399525
146	0xbe095587	-0.13411532
147	0x3e17aa38	0.14811027
148	0x3f473fb0	0.77831554
149	0x3eb913f8	0.36148047
150	0xbf465c2b	-0.7748439
151	0x3de11173	0.10989656
152	0x3dae0d9a	0.08498688
153	0xbe9ab4eb	-0.30216154
154	0xbd1241f7	-0.03570744
155	0xbeb908e3	-0.36139593
156	0xbf45b36f	-0.7722692
157	0xbe093f28	-0.13402998
158	0xbf33a3aa	-0.70171607
159	0xbe57831d	-0.2104611

model.2.bias f4 [10]
0	0x3f102771	0.5631018
1	0xbf4690a6	-0.77564466
2	0x3dcd9a5b	0.100392066
3	0x3f1c1e5d	0.6098383
4	0xbf3ffe7d	-0.74997693
5	0x3ee793f5	0.4523007
6	0x3f0fe4e3	0.5620863
7	0x3ef04177	0.46924946
8	0xbf988027	-1.1914109
9	0xbf832bc3	-1.024773

exp_avg f4 [16, 784]
0	0xb7fb49e2	-2.9955936e-05
1	0xb7fb49e2	-2.9955936e-05
2	0xb7fb49e2	-2.9955936e-05
3	0xb7fb49e2	-2.9955936e-05
4	0xb7fb49e2	-2.9955936e-05
5	0xb80b05ad	-3.314547e-05
6	0xb88611a4	-6.392904e-05
7	0xb8978d0c	-7.226513e-05
8	0x36138a6a	2.1985275e-06
9	0xb9318179	-0.00016928268
10	0x3a293435	0.0006454618
11	0x39b1d195	0.00033916222
12	0xb895fe18	-7.152202e-05
13	0xb8e03ea6	-0.000106928215
14	0x38c1f8de	9.249312e-05
15	0xba30afdd	-0.0006740073
16	0xba11c153	-0.00055601186
17	0xba36e60a	-0.00069770275
18	0xb9dcd47a	-0.00042119977
19	0xb97dafa1	-0.00024193387
20	0xb933f7b5	-0.00017163048
21	0xb8d2715f	-0.00010034697
22	0xb7fb47bd	-2.9954937e-05
23	0xb7fb49e2	-2.9955936e-05
24	0xb7fb49e2	-2.9955936e-05
25	0xb7fb49e2	-2.9955936e-05
26	0xb7fb49e2	-2.9955936e-05
27	0xb7fb49e2	-2.9955936e-05
28	0xb7fb49e2	-2.9955936e-05
29	0xb7fb49e2	-2.9955936e-05
30	0xb7fb49e2	-2.9955936e-05
31	0xb7fb49e2	-2.9955936e-05
32	0xb7fb49e2	-2.9955936e-05
33	0xb84bb046	-4.856314e-05
34	0xb9079196	-0.00012928838
35	0xb88cd0c5	-6.7146066e-05
36	0xb8f5f3d7	-0.00011727929
37	0x38f6785b	0.00011752612
38	0x3a20169d	0.0006106885
39	0x39949708	0.00028341287
40	0x39112db2	0.000138453
41	0xb9b2c459	-0.00034097096
42	0xb82eb08e	-4.1649262e-05
43	0x3a1209c1	0.00055709115
44	0xb91a9386	-0.00014741541
45	0xba4ab3a8	-0.00077324593
46	0xba335b8e	-0.0006841951
47	0xba4dd284	-0.00078514987
48	0xb80460dd	-3.1561463e-05
49	0xb94fcfde	-0.00019818495
50	0xb86880d1	-5.543308e-05
51	0xb7fb49e2	-2.9955936e-05
52	0xb7fb49e2	-2.9955936e-05
53	0xb7fb49e2	-2.9955936e-05
54	0xb7fb49e2	-2.9955936e-05
55	0xb7fb49e2	-2.9955936e-05
56	0xb7fb49e2	-2.9955936e-05
57	0xb7fb49e2	-2.9955936e-05
58	0xb7fcf568	-3.0155017e-05
59	0xb7f85f08	-2.9608156e-05
60	0xb8630050	-5.412131e-05
61	0xb8e83d02	-0.00011073986
62	0xb8a13e1b	-7.688646e-05
63	0xb8443335	-4.677773e-05
64	0x39ea0f7f	0.00044643503
65	0x3a0e0b6c	0.0005418572
66	0x3a1643ab	0.0005732129
67	0x392bc231	0.00016380173
68	0xb9928c35	-0.00027951752
69	0x3a7e1b90	0.0009693438
70	0xb9b1d88e	-0.00033921417
71	0xb9915aeb	-0.00027724294
72	0xb8b54cdf	-8.645071e-05
73	0xba2e9985	-0.00066604494
74	0xba8b6c39	-0.0010637111
75	0xb9d935d3	-0.00041429568
76	0xb95fcef6	-0.00021344036
77	0x397d6767	0.0002416648
78	0xb83117cf	-4.2222262e-05
79	0xb849852c	-4.804616e-05
80	0xb7cbc57a	-2.4291443e-05
81	0xb8048058	-3.1590782e-05
82	0xb7fb49e2	-2.9955936e-05
83	0xb80112a4	-3.0773357e-05
84	0xb7fb49e2	-2.9955936e-05
85	0xb7eba635	-2.809158e-05
86	0xb80ae6bb	-3.311665e-05
87	0xb89d9b7f	-7.515307e-05
88	0xb953c807	-0.00020197044
89	0xb93c57ba	-0.00017961758
90	0xb8ca91e4	-9.659285e-05
91	0x39f94dc0	0.0004755091
92	0x39eea60f	0.0004551862
93	0x3a70cf85	0.0009186196
94	0x3924eed9	0.00015729236
95	0x3a82d65c	0.0009982097
96	0x3a41de6f	0.0007395511
97	0x3a72fc38	0.0009269151
98	0x39c978b9	0.00038427653
99	0x3901d31d	0.00012381045
100	0x39c4dfeb	0.00037550865
101	0x391e3e92	0.00015091363
102	0xba2f59d4	-0.00066891056
103	0xba020472	-0.0004959769
104	0x38d2d147	0.00010052561
105	0xb81dcce7	-3.7622547e-05
106	0x39ec41cb	0.00045062447
107	0x389f15d3	7.585776e-05
108	0xb81e2236	-3.7701997e-05
109	0xb7e32776	-2.7078884e-05
110	0xb8048058	-3.1590782e-05
111	0xb7fb49e2	-2.9955936e-05
112	0x359bc4cf	1.1605679e-06
113	0x3761c031	1.3455793e-05
114	0xb87e20f7	-6.058902e-05
115	0xb85189cf	-4.9957827e-05
116	0xb9b41b9e	-0.00034352852
117	0x38542bbb	5.0585466e-05
118	0x3a1452d0	0.0005658092
119	0x3a1ed7c9	0.0006059376
120	0x3a396269	0.0007071854
121	0x3a360d54	0.0006944735
122	0x3a0b2260	0.00053075515
123	0x3a24dc3a	0.000628892
124	0x3a020da5	0.00049611396
125	0xb9f1cd36	-0.00046119996
126	0x3a8a3b53	0.0010546244
127	0x3a3c9d32	0.0007195055
128	0x383fa8d4	4.5695182e-05
129	0x3941546a	0.00018437361
130	0x38a674d0	7.937255e-05
131	0xb7dc0406	-2.6227917e-05
132	0x38eb1699	0.00011209882
133	0xb9542442	-0.00020231403
134	0x3a0ad3d7	0.0005295849
135	0x3a2e0523	0.00066383387
136	0x388d2447	6.730161e-05
137	0xb80d04fc	-3.362166e-05
138	0xb7f59195	-2.9274068e-05
139	0xb7ee6daf	-2.8422886e-05
140	0x35c95b55	1.5002248e-06
141	0xb7850dfc	-1.5861347e-05
142	0xb966858b	-0.00021984258
143	0xba516eeb	-0.00079892454
144	0x38421bdf	4.627916e-05
145	0x39a7ba64	0.00031991594
146	0x39efac75	0.00045714123
147	0x39fcd43c	0.00048223312
148	0x3aaa451a	0.0012990565
149	0x3a3f69c5	0.00073018327
150	0x3a0835a0	0.0005195979
151	0xb834ba6a	-4.3088956e-05
152	0xb9b5b32e	-0.0003465651
153	0xb982eafe	-0.00024970615
154	0x3a30bbcc	0.0006741851
155	0x3a379bd2	0.0007004115
156	0xb98cbb7a	-0.00026842562
157	0x38641087	5.437483e-05
158	0x3a14bbf6	0.00056737603
159	0x39933361	0.00028076305
160	0x397820a8	0.00023663288
161	0x379aa2c6	1.8434028e-05
162	0xb80b8e7f	-3.3272892e-05
163	0x3a0ced9b	0.0005375982
164	0x39ce85ca	0.00039391062
165	0xb91c3afb	-0.00014899291
166	0xb831cbe1	-4.2389966e-05
167	0xb7e568ec	-2.7347785e-05
168	0xb7712267	-1.4372729e-05
169	0x38cd4178	9.787356e-05
170	0xb9af72f1	-0.0003346424
171	0xb9363d46	-0.00017379699
172	0x3826f9b2	3.981003e-05
173	0x39c651fa	0.0003782658
174	0xb902c605	-0.00012471534
175	0x39b0c684	0.00033717242
176	0x3a8a4b2f	0.0010550971
177	0x3a29aafd	0.00064723176
178	0x39555b64	0.00020347309
179	0xb9c61530	-0.0003778129
180	0x3a05bb8a	0.0005101493
181	0x398f59e3	0.00027342056
182	0xb897bd7a	-7.235534e-05
183	0x38b7ef7a	8.770726e-05
184	0xb8546745	-5.0640916e-05
185	0x3a2f4b0d	0.00066869037
186	0x39653aae	0.00021861002
187	0x3a304cd4	0.00067253155
188	0x39f8ec26	0.0004747819
189	0x39f97b13	0.00047584678
190	0x39c29c41	0.00037118982
191	0x39d66dde	0.00040899118
192	0x393397b4	0.00017127284
193	0x38d928f2	0.00010354993
194	0x36617423	3.3595213e-06
195	0xb81a293c	-3.6754864e-05
196	0xb7ed9883	-2.832362e-05
197	0xb8a7e6a8	-8.0061436e-05
198	0xb93c6d7c	-0.00017969863
199	0xba1601da	-0.0005722322
200	0xba2ddd45	-0.0006632398
201	0xb9159464	-0.00014265027
202	0x38d0f68a	9.9641344e-05
203	0x3910676d	0.00013771439
204	0xb9d251dd	-0.00040115314
205	0x3a403857	0.0007332614
206	0xb814b12b	-3.545095e-05
207	0x37ee9cef	2.8444889e-05
208	0xb9b6a558	-0.00034836936
209	0x39eba839	0.00044948029
210	0x397229a0	0.00023094425
211	0x3a18077a	0.0005799454
212	0x3894dfc0	7.0988666e-05
213	0x3a5e50f6	0.0008480692
214	0x3a0316f0	0.00050006714
215	0x386529eb	5.4636894e-05
216	0x3902cabb	0.00012473289
217	0x3878d695	5.9327653e-05
218	0x3a12d55a	0.000560125
219	0x39abb4d6	0.00032750395
220	0xb9b0ce66	-0.00033723115
221	0x37c6a28a	2.3679127e-05
222	0x39882ef1	0.00025974915
223	0xb5424326	-7.2368346e-07
224	0xb8f59aea	-0.000117113654
225	0xb99a5123	-0.0002943362
226	0xb9008fc4	-0.00012260588
227	0xba1fbc6b	-0.0006093445
228	0xbab40e7c	-0.0013737227
229	0xb96135f2	-0.00021477768
230	0x38e3da20	0.000108648324
231	0xb98fea51	-0.00027449665
232	0x38b2c044	8.523514e-05
233	0x38aca239	8.2318154e-05
234	0xb9d979e2	-0.00041480275
235	0xba08f3af	-0.00052243
236	0xba52d662	-0.000804281
237	0xb8e0027f	-0.00010681617
238	0xb8b10bd3	-8.44222e-05
239	0x3a069ff5	0.000513553
240	0x3a0fb91f	0.0005482602
241	0x39b58dc1	0.00034628625
242	0x39e7ccb6	0.00044212275
243	0x3a5dc921	0.00084604515
244	0x39ee23b0	0.00045421487
245	0x3910d5a7	0.00013812502
246	0x38d71930	0.000102566904
247	0x38b5246d	8.6375374e-05
248	0x385d2b20	5.273067e-05
249	0x38fec543	0.00012148407
250	0x37fb57b0	2.9962364e-05
251	0xb85947ca	-5.180369e-05
252	0xb95c1048	-0.000209869
253	0xba1216b5	-0.00055728416
254	0xb9ee2551	-0.000454227
255	0xb9d05265	-0.0003973424

exp_avg_sq f4 [16, 784]
0	0x32990221	1.7812512e-08
1	0x32992475	1.7828123e-08
2	0x329983a0	1.78714e-08
3	0x32a8dea2	1.9659016e-08
4	0x32bb584b	2.1809816e-08
5	0x32df9eb9	2.6032795e-08
6	0x33f7c79f	1.1538145e-07
7	0x34431451	1.8168181e-07
8	0x351d0231	5.8490247e-07
9	0x3515f342	5.586081e-07
10	0x36293604	2.5214404e-06
11	0x364df6ef	3.0691115e-06
12	0x36320af4	2.6530442e-06
13	0x365ea975	3.3179215e-06
14	0x36623673	3.3708318e-06
15	0x36566d7f	3.195222e-06
16	0x3671917c	3.5996482e-06
17	0x367b3020	3.7429927e-06
18	0x35a77a11	1.2477996e-06
19	0x359cd889	1.1685926e-06
20	0x35ad53a8	1.2913852e-06
21	0x358716ba	1.0064898e-06
22	0x3585fc3b	9.982681e-07
23	0x3516d6ff	5.6192215e-07
24	0x343e2331	1.7707931e-07
25	0x33b66833	8.493989e-08
26	0x32e6f055	2.6884814e-08
27	0x3308448c	3.172731e-08
28	0x329903db	1.7813298e-08
29	0x329924e5	1.7828322e-08
30	0x329e5ed2	1.843674e-08
31	0x3302c1c6	3.044422e-08
32	0x33393aa5	4.3127006e-08
33	0x33d835b0	1.00680495e-07
34	0x34c12aa2	3.598007e-07
35	0x359e9d54	1.1817706e-06
36	0x364e197c	3.0711226e-06
37	0x368f4df7	4.2708084e-06
38	0x36d17f8e	6.2435347e-06
39	0x36e88d59	6.930594e-06
40	0x3716a2f7	8.97864e-06
41	0x3720d122	9.585436e-06
42	0x37191308	9.123942e-06
43	0x372d7988	1.03399e-05
44	0x37477a71	1.1889832e-05
45	0x375af244	1.3050219e-05
46	0x371a098d	9.181339e-06
47	0x3704865f	7.899099e-06
48	0x36d73137	6.4132287e-06
49	0x36a014ef	4.7708086e-06
50	0x3691c327	4.3440555e-06
51	0x36464c25	2.954862e-06
52	0x35ccb419	1.52516e-06
53	0x34ac6cdd	3.2116705e-07
54	0x33ef1c25	1.1134424e-07
55	0x331a449e	3.5918326e-08
56	0x329910d4	1.7819197e-08
57	0x3299b7a8	1.7895061e-08
58	0x32a7f944	1.9554712e-08
59	0x332fda55	4.0943934e-08
60	0x344b3cae	1.8927923e-07
61	0x3539a82a	6.916258e-07
62	0x35d517bf	1.5876648e-06
63	0x36638913	3.3905424e-06
64	0x36b2422b	5.3125164e-06
65	0x36d8406c	6.4448013e-06
66	0x36c5be89	5.8932387e-06
67	0x36f3df0e	7.2679313e-06
68	0x371288ff	8.734175e-06
69	0x3712a182	8.739882e-06
70	0x37218756	9.627858e-06
71	0x3755dbc8	1.2746961e-05
72	0x375bc1d3	1.3098545e-05
73	0x376218a1	1.3476384e-05
74	0x3763a967	1.3569696e-05
75	0x377b672b	1.49847865e-05
76	0x374bdf37	1.2151714e-05
77	0x372b3d39	1.0206649e-05
78	0x3716728f	8.9673695e-06
79	0x36e94b82	6.9527314e-06
80	0x36bf810c	5.7072666e-06
81	0x36142bce	2.2079216e-06
82	0x35714c95	8.989094e-07
83	0x32ef6934	2.7871103e-08
84	0x32998e30	1.7876204e-08
85	0x32a2285f	1.887764e-08
86	0x33470515	4.633792e-08
87	0x33e5fd04	1.0709667e-07
88	0x3554ca44	7.927049e-07
89	0x36115674	2.1657006e-06
90	0x368f5d6d	4.2726083e-06
91	0x369b2f34	4.624855e-06
92	0x36b4fafc	5.3936365e-06
93	0x36f424b8	7.2760413e-06
94	0x3711b61f	8.685077e-06
95	0x3713dda8	8.813491e-06
96	0x37159e99	8.9180185e-06
97	0x371e69dc	9.442181e-06
98	0x37408b90	1.1476586e-05
99	0x3765b175	1.3690781e-05
100	0x377e1506	1.5144475e-05
101	0x3783b077	1.569859e-05
102	0x37878986	1.6157293e-05
103	0x37854a5b	1.588946e-05
104	0x3783924c	1.5684542e-05
105	0x376cfdf9	1.4125829e-05
106	0x37686f1b	1.3854146e-05
107	0x374fa6be	1.2376984e-05
108	0x3718ef3f	9.11561e-06
109	0x368cfe8a	4.2019574e-06
110	0x35fa60d9	1.8654638e-06
111	0x34653ea6	2.1350078e-07
112	0x338f3c23	6.669895e-08
113	0x340444b7	1.2318456e-07
114	0x34693073	2.1717442e-07
115	0x35aa5bf1	1.2692745e-06
116	0x3670456b	3.5803193e-06
117	0x36fc03c8	7.5106254e-06
118	0x36e0818f	6.690803e-06
119	0x36c8831f	5.975729e-06
120	0x36e61bca	6.857769e-06
121	0x37012360	7.697236e-06
122	0x371febde	9.532056e-06
123	0x3717e465	9.053479e-06
124	0x37378c48	1.0940312e-05
125	0x3741dccc	1.1555105e-05
126	0x3778c625	1.4828086e-05
127	0x37883f7f	1.6242031e-05
128	0x378265ca	1.5544607e-05
129	0x37894233	1.6362499e-05
130	0x37a7bfba	1.9997231e-05
131	0x37aededc	2.0846193e-05
132	0x37be47dd	2.2683229e-05
133	0x37a83398	2.0051186e-05
134	0x37a09817	1.9144309e-05
135	0x37872749	1.6111548e-05
136	0x3753160d	1.2581714e-05
137	0x36d35c57	6.29904e-06
138	0x360bf811	2.0857008e-06
139	0x33c45716	9.142802e-08
140	0x338e63ac	6.6305205e-08
141	0x34bf0b3b	3.5584694e-07
142	0x3535ba22	6.7698613e-07
143	0x367d14fc	3.7712152e-06
144	0x375719ac	1.2820976e-05
145	0x37177c03	9.029175e-06
146	0x36e52ba9	6.8298145e-06
147	0x36fec7ff	7.5930725e-06
148	0x36dbd061	6.550967e-06
149	0x3719b022	9.16052e-06
150	0x372e7e56	1.0400623e-05
151	0x3732c786	1.0656082e-05
152	0x374f13dd	1.2342786e-05
153	0x3762e53e	1.3524024e-05
154	0x378539f9	1.5881831e-05
155	0x3792bdea	1.7492992e-05
156	0x37a174dc	1.9247113e-05
157	0x37a17924	1.9249106e-05
158	0x37ab51e2	2.0422918e-05
159	0x37c1d3d4	2.3106033e-05
160	0x37e1e860	2.6930298e-05
161	0x37dbd70b	2.6206972e-05
162	0x37c798c3	2.3793784e-05
163	0x37ab72d1	2.0438254e-05
164	0x37972d4a	1.8021692e-05
165	0x373e71d0	1.13513815e-05
166	0x364f4dbb	3.0890649e-06
167	0x33bac958	8.697924e-08
168	0x33176e1b	3.5257568e-08
169	0x34c7cd81	3.7216162e-07
170	0x36414c72	2.8803738e-06
171	0x36eef381	7.1213003e-06
172	0x378404c7	1.573785e-05
173	0x3754ea97	1.2690804e-05
174	0x373b226b	1.1154082e-05
175	0x371ac8a0	9.225827e-06
176	0x371dbcc9	9.401884e-06
177	0x372847d4	1.0030304e-05
178	0x372c093e	1.0254151e-05
179	0x37506fa5	1.242376e-05
180	0x374842e6	1.1936505e-05
181	0x37921a89	1.7416913e-05
182	0x37aec850	2.0835694e-05
183	0x37cb2309	2.42158e-05
184	0x37d9dee9	2.5972216e-05
185	0x37d98c3c	2.5933718e-05
186	0x37e27f72	2.7000646e-05
187	0x37e914cc	2.7785449e-05
188	0x37ec58ec	2.81748e-05
189	0x37ead8ac	2.799587e-05
190	0x37e9b776	2.7861195e-05
191	0x37d77e4c	2.5688809e-05
192	0x37bed4cc	2.2748856e-05
193	0x378a6fba	1.6502909e-05
194	0x36706cd4	3.5826133e-06
195	0x34b4839c	3.362337e-07
196	0x340bfd1a	1.3037462e-07
197	0x3522fdcf	6.0719043e-07
198	0x366a1edd	3.4886682e-06
199	0x373743b5	1.0923414e-05
200	0x3744763d	1.171004e-05
201	0x375bbd57	1.3097501e-05
202	0x373de393	1.1318264e-05
203	0x37631ed4	1.3537432e-05
204	0x375294ac	1.2551591e-05
205	0x374cf951	1.2217396e-05
206	0x37468b8e	1.1834212e-05
207	0x373fab8c	1.14244285e-05
208	0x3795d7e3	1.7862714e-05
209	0x37a1cf98	1.9289364e-05
210	0x37cc6d0e	2.4369478e-05
211	0x38019ed1	3.0903906e-05
212	0x3810ea99	3.455076e-05
213	0x3807e482	3.2399323e-05
214	0x380fc05c	3.4273005e-05
215	0x380b5944	3.3223318e-05
216	0x3811fec8	3.4807977e-05
217	0x380cfe61	3.361551e-05
218	0x38141e63	3.531425e-05
219	0x37fd293e	3.0179155e-05
220	0x37f8ccca	2.9659266e-05
221	0x37b4e8ab	2.1566017e-05
222	0x36c15c81	5.762617e-06
223	0x34aaa244	3.178303e-07
224	0x34dc4bba	4.1033292e-07
225	0x36081f88	2.0283933e-06
226	0x36d897b4	6.454962e-06
227	0x374bd63e	1.2149625e-05
228	0x375e0392	1.3233062e-05
229	0x377246cf	1.444081e-05
230	0x378049ed	1.5293213e-05
231	0x37932f34	1.7545746e-05
232	0x378fa421	1.7123357e-05
233	0x379b1b62	1.8490191e-05
234	0x378f8d92	1.7112852e-05
235	0x379a3337	1.838208e-05
236	0x37a21007	1.9319368e-05
237	0x37ec3111	2.815624e-05
238	0x38187f3c	3.635812e-05
239	0x382edc2b	4.168988e-05
240	0x383581f8	4.3274806e-05
241	0x3832df9a	4.2646752e-05
242	0x382add66	4.073735e-05
243	0x38349cd8	4.3061416e-05
244	0x38367880	4.3504406e-05
245	0x38289823	4.019601e-05
246	0x3822eb1e	3.884278e-05
247	0x3825fe08	3.957565e-05
248	0x381e5fe1	3.775943e-05
249	0x37f5874f	2.9269284e-05
250	0x374945ed	1.19968145e-05
251	0x358d9f19	1.0551622e-06
252	0x34c50527	3.6697858e-07
253	0x364822d6	2.98226e-06
254	0x375c6cf1	1.3138387e-05
255	0x3745c52a	1.1788021e-05

exp_avg f4 [16]
0	0xbb8f0177	-0.0043641883
1	0xbb42cafc	-0.002972304
2	0x3c3a91ae	0.011387272
3	0x00000004	6e-45
4	0xbb9ee9cf	-0.0048496495
5	0x3bfcc9f5	0.007714505
6	0xbc705cc9	-0.014670559
7	0x3a7d6316	0.0009665949
8	0x00000004	6e-45
9	0xbac252f4	-0.0014825747
10	0x00000004	6e-45
11	0xbb91cfc8	-0.0044498183
12	0xbae0d67b	-0.0017153764
13	0x00000004	6e-45
14	0x3b455a00	0.0030113459
15	0xbae7ebdb	-0.0017694192

exp_avg_sq f4 [16]
0	0x39a939af	0.0003227717
1	0x3929cfde	0.00016194533
2	0x3938bbd5	0.0001761758
3	0x31066913	1.9559294e-09
4	0x39f69625	0.00047032643
5	0x391ab1ea	0.00014752863
6	0x3a12edfb	0.000560492
7	0x3988a21e	0.00026060728
8	0x2f079c27	1.2333655e-10
9	0x399f63fc	0.00030401337
10	0x2ec7a8c4	9.079451e-11
11	0x39c0a7c8	0.000367461
12	0x399fb99c	0.00030465133
13	0x2fe943ff	4.2430767e-10
14	0x3959374f	0.00020715337
15	0x390044d2	0.00012232669

exp_avg f4 [10, 16]
0	0x3c6ea56d	0.014565808
1	0x3c19432d	0.009354395
2	0x3c859cb7	0.016310079
3	0x00000004	6e-45
4	0x3d8105fc	0.062999696
5	0x3b13feb7	0.0022582242
6	0x3dd45420	0.10367608
7	0xbc1b4fb1	-0.009479449
8	0x00000004	6e-45
9	0xbaa2e0db	-0.0012426631
10	0x80000004	-6e-45
11	0x3d2f91a1	0.042863492
12	0x3bfb58de	0.007670506
13	0x00000004	6e-45
14	0x3c6ad6ed	0.014333469
15	0x3a82071a	0.0009920329
16	0x3a8d399a	0.0010774613
17	0x3b844e42	0.0040376494
18	0x3a791175	0.00095011975
19	0x80000004	-6e-45
20	0xbd034d65	-0.03205623
21	0xbb3a0c94	-0.0028388845
22	0xbc19dc22	-0.009390863
23	0x39a55646	0.0003153553
24	0x00000004	6e-45
25	0xbb42e1c5	-0.002973662
26	0x00000004	6e-45
27	0xbbcded6f	-0.006284408
28	0xbd56a9dd	-0.052408088
29	0x80000004	-6e-45
30	0x3b988dd3	0.0046555786
31	0xb9f3ce8b	-0.00046502458
32	0xbb2fa8a1	-0.0026803392
33	0xbc2ded54	-0.010615665
34	0xbc74c678	-0.014939897
35	0x00000004	6e-45
36	0x3d5d21b8	0.053987235
37	0x3aaef747	0.0013348841
38	0x3d7aa421	0.06119168
39	0xbb21064e	-0.0024570408
40	0x00000004	6e-45
41	0x3c47226b	0.012154202
42	0x00000004	6e-45
43	0x3c03ff1d	0.008056429
44	0x3bbb6ff8	0.005720135
45	0x00000004	6e-45
46	0x3afeb9fd	0.0019434091
47	0xba0bb656	-0.00053295994
48	0x3b3bddf1	0.0028666223
49	0xbc15baac	-0.009138744
50	0xbc84f99f	-0.01623231
51	0x00000004	6e-45
52	0x3c58e3c0	0.013237894
53	0x3afc1393	0.0019231908
54	0x3cb96f0d	0.022635961
55	0x3b48ab1b	0.0030619565
56	0x00000004	6e-45
57	0xbca14a6a	-0.019688804
58	0x00000004	6e-45
59	0x3b92e9ab	0.004483422
60	0x3c85683c	0.016285054
61	0x80000004	-6e-45
62	0xbc0fe51d	-0.008782652
63	0xb95eda66	-0.0002125293
64	0xbc93c8dd	-0.018040115
65	0x3affa2aa	0.0019503434
66	0x3ab80634	0.0014039935
67	0x00000004	6e-45
68	0xbc9e8a37	-0.019353015
69	0xbbdf65b6	-0.006817545
70	0xbe0f51e6	-0.13996086
71	0x3b206889	0.002447637
72	0x00000004	6e-45
73	0xbc206526	-0.009789741
74	0x00000004	6e-45
75	0xbd9c0b9c	-0.07619402
76	0x3c899b35	0.016797641
77	0x80000004	-6e-45
78	0x3a815402	0.0009866955
79	0x39a58a40	0.00031574257
80	0xbb5a7c37	-0.0033338198
81	0x3b5aa8ae	0.00333647
82	0x3bc8a868	0.006123591
83	0x80000004	-6e-45
84	0xbae567da	-0.0017502264
85	0xbb66a960	-0.003519617
86	0x3bec630d	0.007213956
87	0xbb85704c	-0.0040722247
88	0x00000004	6e-45
89	0xbb236fc7	-0.002493845
90	0x00000004	6e-45
91	0x3b79ccf9	0.0038116558
92	0x3b555ac1	0.0032555314
93	0x00000004	6e-45
94	0x38c158e6	9.219516e-05
95	0xbb513d8a	-0.003192755
96	0xbb9b4bec	-0.004739275
97	0x3c8cd92c	0.0171934
98	0x3af45712	0.0018641672
99	0x00000004	6e-45
100	0xbd6aeb93	-0.057353567
101	0xbac38df5	-0.0014919626
102	0xbda49054	-0.08035341
103	0x3c145ca9	0.009055295
104	0x80000004	-6e-45
105	0xbc71ea9d	-0.014765409
106	0x00000004	6e-45
107	0x3b119b40	0.002221778
108	0xbbe8d011	-0.0071048816
109	0x80000004	-6e-45
110	0xbc52ed74	-0.012873996
111	0x3a3e5a4b	0.00072613795
112	0x3b85d32e	0.0040840125
113	0xbb53af62	-0.0032300581
114	0x3a9307e4	0.0011217562
115	0x80000004	-6e-45
116	0x3b5f7294	0.0034095393
117	0xbb483ec6	-0.0030554994
118	0x3b8b452a	0.0042501884
119	0x3b01f043	0.0019827045
120	0x80000004	-6e-45
121	0x3c99ffbf	0.018798707
122	0x80000004	-6e-45
123	0x3bc7f8df	0.006102666
124	0x3aff2b0a	0.0019467783
125	0x00000004	6e-45
126	0x39b6d9ce	0.00034876022
127	0x3b08ff0c	0.0020903973
128	0x3bc2825b	0.0059359497
129	0xb9cc04bd	-0.00038913442
130	0x3b606c7e	0.0034244354
131	0x00000004	6e-45
132	0x3c12d967	0.008962966
133	0x3c2d8d04	0.010592703
134	0x3d0161d6	0.031587444
135	0x3b9b26a9	0.0047348333
136	0x80000004	-6e-45
137	0x3c903c1c	0.017606787
138	0x00000004	6e-45
139	0x3c6b3a9f	0.014357238
140	0x3bd73e4d	0.006568706
141	0x00000004	6e-45
142	0x39859901	0.00025481734
143	0x3917830d	0.00014449302
144	0x398a3ffb	0.0002636908
145	0xbc4cc726	-0.012498653
146	0xb7d9a3c3	-2.5944673e-05
147	0x00000004	6e-45
148	0xbd036ad2	-0.032084294
149	0x3ad39dff	0.0016145109
150	0xba5edeef	-0.00085018476
151	0xbbb7247b	-0.0055890656
152	0x00000004	6e-45
153	0x3b1cebcf	0.0023944264
154	0x80000004	-6e-45
155	0x3a187ff1	0.00058174046
156	0x3aa647a6	0.0012686148
157	0x80000004	-6e-45
158	0xba7b349e	-0.00095827307
159	0x390cfefe	0.00013446432

exp_avg_sq f4 [10, 16]
0	0x3abd4e80	0.001444295
1	0x3b96d7e1	0.0046033715
2	0x3ce75aeb	0.028241595
3	0x2c98f02b	4.346764e-12
4	0x3c1d314d	0.009594274
5	0x3ae0018f	0.0017090308
6	0x3daf5455	0.08561007
7	0x3d4b260e	0.04959684
8	0x2d18ab24	8.6782005e-12
9	0x3b2f8bed	0.0026786283
10	0x282e3cea	9.672149e-15
11	0x3becf8df	0.007231816
12	0x3c2f7bf9	0.01071071
13	0x2c6d6e0c	3.3740814e-12
14	0x3d2b588d	0.041832495
15	0x3aca7737	0.0015446906
16	0x377f3a98	1.5212827e-05
17	0x398a6a87	0.0002640078
18	0x3aa3476c	0.0012457198
19	0x2bb4c1da	1.2843574e-12
20	0x3adf849f	0.0017053074
21	0x395d8c0a	0.00021128371
22	0x3c539e39	0.012916141
23	0x3ad8619f	0.0016508586
24	0x2d17b9ad	8.6245846e-12
25	0x3a556700	0.00081406534
26	0x2b499a0d	7.1623333e-13
27	0x3b69186d	0.0035567537
28	0x3c902580	0.017596006
29	0x2bcf6cdf	1.4738452e-12
30	0x3bb85f36	0.0056265844
31	0x3b1454c7	0.002263354
32	0x3b2cbe50	0.0026358552
33	0x3c1888ec	0.0093099885
34	0x3b8fde3c	0.004390506
35	0x2cc01725	5.4595378e-12
36	0x3d219cb8	0.0394561
37	0x39e7faab	0.00044246516
38	0x3e9af2c1	0.30263332
39	0x3cf5d1ef	0.03000733
40	0x2c1d29b6	2.2334196e-12
41	0x3c1f00c7	0.009704775
42	0x2b947f88	1.055143e-12
43	0x3db0a637	0.08625453
44	0x3b71cfd6	0.0036897562
45	0x2c06b3c8	1.9142344e-12
46	0x3aa078d9	0.0012243047
47	0x3c33122b	0.010929625
48	0x3968f32c	0.00022215833
49	0x3accaa95	0.0015614802
50	0x3c58bcb1	0.013228581
51	0x29eaac9a	1.0421629e-13
52	0x3b4b0d90	0.0030983426
53	0x3a816576	0.0009872157
54	0x3d5dd155	0.054154713
55	0x3c98e7cc	0.018665217
56	0x2cbca7cf	5.361912e-12
57	0x3c2ea3d1	0.010659174
58	0x2b008eb0	4.5672754e-13
59	0x3b8e5e86	0.004344764
60	0x3d248b64	0.040171996
61	0x2e6a55a7	5.3281515e-11
62	0x3c5575e9	0.0130286
63	0x3bb1cf12	0.005426296
64	0x3a91331e	0.0011077856
65	0x3b8d194e	0.004305995
66	0x3b3c3ab7	0.002872152
67	0x2c9902b1	4.3488203e-12
68	0x3d64dd33	0.055875015
69	0x3a1ee3e0	0.00060611777
70	0x3eb9c7db	0.3628529
71	0x3c939cf6	0.01801918
72	0x2d1ff8e6	9.09337e-12
73	0x3cddf7fe	0.027095791
74	0x2b50a373	7.4123276e-13
75	0x3dccf251	0.10007156
76	0x3c373c6f	0.011183842
77	0x2c2ae503	2.428558e-12
78	0x39ff706f	0.0004872116
79	0x3c30f708	0.010801084
80	0x3ac30782	0.0014879557
81	0x3b866556	0.0041014357
82	0x3a7a2335	0.00095419894
83	0x2b1bf48a	5.540643e-13
84	0x3ba15246	0.004923138
85	0x3ccf98bb	0.025341382
86	0x3b1cba97	0.0023914927
87	0x3b867e10	0.0041043833
88	0x2c2bb84d	2.440287e-12
89	0x3c179032	0.009250687
90	0x25588a8a	1.8781952e-16
91	0x3b48da22	0.0030647595
92	0x39dfddc7	0.00042699112
93	0x2d0a69ab	7.867855e-12
94	0x39a662f2	0.00031735707
95	0x39ab0e67	0.00032626392
96	0x3b09a1fb	0.002100109
97	0x3bf7d9c9	0.007563804
98	0x3cc111d1	0.023568066
99	0x2c8ae505	3.947622e-12
100	0x3d6d77dd	0.05797564
101	0x3a36cbd0	0.00069731195
102	0x3eaa8aed	0.33309117
103	0x3d9bae16	0.07601564
104	0x2b636000	8.0779827e-13
105	0x3c9fc01d	0.019500786
106	0x2b52e2d6	7.4921785e-13
107	0x3d6a339d	0.05717813
108	0x3bec13ad	0.007204494
109	0x2c7fbfb9	3.6344107e-12
110	0x3d0d89cf	0.034555253
111	0x3ba8047b	0.0051274872
112	0x3a399b5d	0.0007080341
113	0x3bfd74d2	0.0077348733
114	0x390764c9	0.00012912149
115	0x2ee6378d	1.0469057e-10
116	0x3aeade60	0.0017919056
117	0x3d6e306b	0.058151644
118	0x3a86a904	0.0010273759
119	0x3b19e779	0.0023483916
120	0x2f23bc37	1.4891631e-10
121	0x3c36bb1e	0.011153011
122	0x2918332e	3.379517e-14
123	0x3a571d13	0.00082059315
124	0x38b097c2	8.420601e-05
125	0x2d6b8f48	1.3390018e-11
126	0x38718e0e	5.7591176e-05
127	0x39959cc1	0.00028536285
128	0x3aa21fa5	0.001236905
129	0x39c1e501	0.0003698245
130	0x3b0ea181	0.0021763744
131	0x2c5cb5bf	3.136477e-12
132	0x3ab5cd48	0.0013870383
133	0x3bd276b2	0.006422841
134	0x3c992f81	0.01869941
135	0x3c38de3a	0.011283452
136	0x2d6d393b	1.3484598e-11
137	0x3b489c3b	0.0030610699
138	0x2b21a6c8	5.7430146e-13
139	0x3bdef0eb	0.006803622
140	0x3b0968bf	0.0020966975
141	0x2d40d91a	1.0962143e-11
142	0x3a14f0b2	0.00056816183
143	0x39010b99	0.00012306719
144	0x39d7cc7e	0.00041160354
145	0x3c198341	0.009369672
146	0x39e51a0a	0.00043697684
147	0x2c22ff49	2.3163296e-12
148	0x3bd5774d	0.006514466
149	0x3d5f9366	0.05458393
150	0x3a6ed1b5	0.0009110228
151	0x3b3cd67b	0.0028814364
152	0x2cdc8bed	6.268311e-12
153	0x3afa2bef	0.001908658
154	0x2dc7bbb9	2.2707046e-11
155	0x3a856209	0.0010176311
156	0x38cf67f9	9.8898956e-05
157	0x2b91a61e	1.0348976e-12
158	0x39032eb3	0.0001251053
159	0x385fbd99	5.334392e-05

exp_avg f4 [10]
0	0x3c69b913	0.014265317
1	0xbca56bb9	-0.020192968
2	0x3c52c87b	0.012865181
3	0x3bfd91c1	0.0077383225
4	0xbba4988b	-0.0050230674
5	0xbb42a333	-0.0029699325
6	0xbc5be3c7	-0.013421006
7	0x3b787b77	0.0037915388
8	0x3c1956a7	0.009359038
9	0xbbd21f55	-0.0064124265

exp_avg_sq f4 [10]
0	0x3acd439b	0.0015660407
1	0x3a19a100	0.00058604777
2	0x3b061ae0	0.0020462796
3	0x3ab82f3d	0.0014052164
4	0x3b17e47c	0.0023176959
5	0x3a672c04	0.00088185095
6	0x3b3ff936	0.0029292828
7	0x3a322988	0.000679635
8	0x39b405dc	0.0003433664
9	0x39bf7e13	0.00036524291
