course/week3/fashion_project/checkpoints/margin.ckpt (torch, 160739 bytes, 12 tensors)

model.0.weight f4 [16, 784]
0	0x3ef14ff3	0.4713131
1	0x3e31f531	0.1737869
2	0x3e6684ae	0.22511551
3	0xbe103ab0	-0.14084888
4	0xbf07fa7f	-0.531166
5	0xbf35518b	-0.7082755
6	0xbf8ea6ec	-1.114469
7	0xbf181fa5	-0.59423286
8	0x3e5a0d82	0.21294215
9	0x3db3d854	0.08781496
10	0x3f30e122	0.69093525
11	0x3f2a89e9	0.66616684
12	0xbd26f8e1	-0.040764693
13	0xbf552bff	-0.8327026
14	0xbf8c0e55	-1.0941874
15	0xbf96c08d	-1.1777512
16	0xbe9367bb	-0.28790078
17	0x3e82a549	0.25516728
18	0x3e0d5c5e	0.13804767
19	0xbcfdb646	-0.030970704
20	0xbf2e1374	-0.67998433
21	0xbf1df7c3	-0.6170618
22	0xbea3ce1a	-0.3199318
23	0xbe8b4c17	-0.2720649
24	0x3c160a24	0.009157691
25	0xbdf63f9e	-0.12023853
26	0x3ea9dd09	0.3317645
27	0x3df5a79f	0.11994862
28	0x3ec5fcef	0.38669536
29	0x3d1023d8	0.035190433
30	0x3ecc6c15	0.3992621
31	0xbe573f21	-0.21020176
32	0xbf054be3	-0.5206892
33	0xbec9d31c	-0.39418876
34	0xbd90d26c	-0.07071385
35	0x3ea3fc70	0.32028532
36	0xbcf53b34	-0.029935457
37	0x3c551e74	0.013007749
38	0xbe354cf9	-0.17705144
39	0x3d6031ec	0.05473511
40	0x3bf2c065	0.007408189
41	0xbc3b8b4a	-0.011446783
42	0x3e56b369	0.20966877
43	0x3cba5659	0.022746252
44	0x3d518250	0.051149666
45	0xbd9d75ef	-0.0768851
46	0xbe0adccf	-0.13560794
47	0xbdff33a9	-0.12461025
48	0x3ed49059	0.4151638
49	0xbb6846e5	-0.0035442647
50	0xbda6a53a	-0.08136983
51	0xbef63100	-0.4808426
52	0xbed5a3bb	-0.4172648
53	0xbe8ee3c4	-0.27908146
54	0x3bab7ea4	0.0052336026
55	0xbf0c7ea4	-0.5488074
56	0xbd20f5dd	-0.039296973
57	0xbd6044e2	-0.05475319
58	0x3e4b2b1e	0.19840667
59	0x3c3a1866	0.011358356
60	0xbe9d27ae	-0.30694336
61	0x3e995a17	0.29951546
62	0x3f1a6ae2	0.6031934
63	0xbc161732	-0.009160804
64	0xbea67ba9	-0.3251622
65	0xbef251ac	-0.47327936
66	0xbf0afb90	-0.54290104
67	0xbe6c6cf2	-0.23088434
68	0xbecb93a5	-0.3976108
69	0xbe8d8f63	-0.27648458
70	0xbdf5a321	-0.11994005
71	0xbecf6c1b	-0.40512165
72	0xbe968053	-0.2939478
73	0xbeb28caa	-0.34872943
74	0xbe9509d7	-0.2910907
75	0xbe055263	-0.1301971
76	0x3ee9245a	0.45535547
77	0x3f16734c	0.5876968
78	0x3f3813fb	0.7190549
79	0x3f027b59	0.50969464
80	0xbe90f70f	-0.2831349
81	0xbf619152	-0.88112366
82	0xbbfef1a7	-0.007780272
83	0xbebfba30	-0.37446737
84	0xbeb711ac	-0.3575567
85	0x3e3a6306	0.18201837
86	0xbdddbeaf	-0.10827386
87	0xbe253073	-0.16131763
88	0x3e84181c	0.25799644
89	0x3f25ad47	0.64717525
90	0x3d440b4d	0.04786234
91	0xbf08ae77	-0.5339121
92	0xbea9c8c2	-0.3316098
93	0xbed1b020	-0.40954685
94	0xbec8245c	-0.3909024
95	0xbe499dae	-0.19689056
96	0x3eeb4b31	0.45955804
97	0xbe9d3120	-0.30701542
98	0xbf770b2b	-0.96501416
99	0xbe6d7c59	-0.23191966
100	0xbe3c384b	-0.18380849
101	0xbe5dfc5e	-0.21678302
102	0xbee4526e	-0.4459414
103	0xbdcecd63	-0.10097768
104	0x3ddbbcd3	0.10729375
105	0x3ea762fc	0.32692707
106	0x3f4ce785	0.8004077
107	0x3f2fd815	0.6868909
108	0x3d56806d	0.05236857
109	0xbf0fa465	-0.5611022
110	0x3d53ca78	0.05170676
111	0x3f0fddc6	0.56197774
112	0x3e24fc5c	0.16111892
113	0x3eb307c4	0.34966862
114	0x3e3248ce	0.17410585
115	0x3f0ea4a6	0.55719984
116	0x3efc3afe	0.49263757
117	0x3e3cdaa7	0.18442784
118	0xbe01ae2c	-0.12664098
119	0xbf0fb852	-0.56140625
120	0xbeea12c8	-0.45717454
121	0xbdc9d400	-0.09854889
122	0xbe5bdd92	-0.21471241
123	0xbefad753	-0.48992404
124	0xbe0e138a	-0.13874641
125	0xbe93ab0f	-0.28841445
126	0xbf056f0d	-0.52122575
127	0xbdb613e4	-0.088905126
128	0xbef10f28	-0.47081876
129	0xbf062144	-0.5239451
130	0xbe0ee09e	-0.13952872
131	0xbec6d306	-0.38832873
132	0xbeb9221a	-0.3615883
133	0x3ced4662	0.028964225
134	0x3edcfcf2	0.43161732
135	0x3ea6a652	0.32548767
136	0xbe7aa172	-0.24475649
137	0xbde146ed	-0.10999856
138	0x3e817103	0.25281534
139	0xbe74d2d7	-0.23908554
140	0x3e16fca6	0.14744815
141	0x3e0f4024	0.13989311
142	0x3e56ba1f	0.20969437
143	0x3d38300e	0.044967704
144	0x3e7fd0c1	0.24981977
145	0x3da206d4	0.079114586
146	0xbed131a0	-0.40858173
147	0xbeeea205	-0.46607986
148	0xbf0c5096	-0.54810464
149	0xbeb937f8	-0.36175513
150	0xbea46f6e	-0.32116264
151	0xbf0f3f6c	-0.5595615
152	0xbe74d135	-0.23907931
153	0xbef5a194	-0.47974837
154	0xbeec9609	-0.46208218
155	0xbe5b606c	-0.21423501
156	0xbefb2870	-0.4905429
157	0xbf020700	-0.5079193
158	0xbe3e1e22	-0.18566182
159	0xbe57deff	-0.2108116
160	0x3d9184a0	0.07105374
161	0x3e308a3a	0.17240229
162	0x3ec30976	0.38093156
163	0x3e2fe20f	0.17176078
164	0x3d0f79e4	0.035028353
165	0x3e858980	0.26081467
166	0x3d953e6b	0.07287296
167	0xbf2c882c	-0.6739528
168	0x3e441729	0.1914946
169	0xbed372c6	-0.41298503
170	0x3ddfb0e5	0.10922412
171	0x3dfe1d39	0.124079175
172	0x3e8c51ff	0.27406308
173	0xbe882f6c	-0.2659868
174	0xbe9bf99c	-0.30463874
175	0xbcc5a420	-0.024126112
176	0xbf0316cf	-0.5120668
177	0xbf388d8a	-0.7209097
178	0xbea51665	-0.32243648
179	0xbf1a0532	-0.6016418
180	0xbe9e6302	-0.30934912
181	0xbe63303e	-0.22186372
182	0xbf5783ee	-0.84185684
183	0x3a400a9e	0.0007325801
184	0xbf079c1e	-0.5297259
185	0xbf2817d5	-0.65661365
186	0xbe9cd706	-0.306328
187	0xbeba0120	-0.36328983
188	0x3dfea790	0.12434304
189	0x3eb40000	0.3515625
190	0x3e3d6945	0.18497188
191	0x3de26ffd	0.11056516
192	0x3d4d1e7c	0.0500779
193	0xbd38e157	-0.045136776
194	0xbf02f0a9	-0.5114847
195	0xbf65dc3e	-0.8978919
196	0xbede3309	-0.43398312
197	0xbe1c82f6	-0.15284333
198	0x3e5f08ab	0.2178065
199	0x3ebb44cd	0.36575928
200	0x3dba7532	0.091043845
201	0xbf3dcfc1	-0.7414513
202	0xbe97a319	-0.2961662
203	0x3e46f3c6	0.1942893
204	0xbe862900	-0.26203156
205	0xbf26eeb4	-0.6520798
206	0xbedda6ef	-0.43291423
207	0xbebf1bc4	-0.3732587
208	0xbd26c805	-0.040718097
209	0xbe9410a7	-0.28918955
210	0xbe258084	-0.16162306
211	0x3d2b8825	0.041877884
212	0xbecf333b	-0.40468773
213	0xbe9becdc	-0.30454147
214	0xbef0d976	-0.4704091
215	0xbf524b42	-0.82146084
216	0xbe1e4f79	-0.15460004
217	0x3dba96d7	0.09110802
218	0x3d372277	0.044710603
219	0x3e80b313	0.25136623
220	0x3d9a5cd5	0.075372376
221	0xbe60a215	-0.2193683
222	0xbe7a3bba	-0.24436846
223	0xbd85e533	-0.06537857
224	0xbf86546a	-1.0494511
225	0xbea3cc0c	-0.31991613
226	0x3ec804cc	0.3906616
227	0x3e9ed511	0.31021932
228	0xbe28523b	-0.16437618
229	0xbf7753b7	-0.96612114
230	0xbf127ac7	-0.57218593
231	0x3e9e12b7	0.30873653
232	0xbea988e3	-0.3311225
233	0xbef0d454	-0.47036994
234	0xbe16826a	-0.14698187
235	0xbe907a7a	-0.28218442
236	0x3d927ea8	0.07153064
237	0x3ee8e22f	0.45485064
238	0x3e351986	0.17685518
239	0x3edb315f	0.42811105
240	0xbd7f7c3a	-0.06237433
241	0xbe68cfec	-0.22735566
242	0xbe3280ad	-0.17431898
243	0xbe4b566f	-0.1985719
244	0x3b00a973	0.001963225
245	0x3cc0f5fe	0.023554798
246	0xbe1478b8	-0.14499176
247	0xbd88468f	-0.06654083
248	0x3d537a12	0.051630087
249	0x3dfd9218	0.12381381
250	0xbd4a0353	-0.049319576
251	0x3ec95624	0.39323533
252	0xbf944b4f	-1.1585482
253	0xbf0fec3f	-0.5621986
254	0xbe6ab2bb	-0.22919743
255	0x3e7743b8	0.24146926

model.0.bias f4 [16]
0	0x3ff74bc4	1.9319997
1	0x3ec380c6	0.38184184
2	0x3f0443b7	0.51665825
3	0xbd62c211	-0.055360857
4	0x3d88b5aa	0.06675275
5	0x3ef40300	0.4765854
6	0xbf3a1662	-0.72690403
7	0x3f7cd480	0.9876175
8	0xbcf8006b	-0.030273637
9	0x3faeb9bb	1.365043
10	0xbd2d7f7b	-0.042357903
11	0xbe9dc60f	-0.3081517
12	0x3f4a5f4b	0.79051656
13	0x3ba4a32a	0.0050243335
14	0x3f4077da	0.7518288
15	0x3f89cb5c	1.0765185

model.2.weight f4 [10, 16]
0	0xbcb6a758	-0.022296593
1	0xbea98cd2	-0.3311525
2	0x3e905d09	0.2819598
3	0x3d8e7c62	0.06957318
4	0xbe4eb8d5	-0.20187695
5	0xbf175551	-0.5911456
6	0x3d643b46	0.05572059
7	0x3d739424	0.05946745
8	0xbe71ed04	-0.2362557
9	0xbe9ee8ce	-0.3103699
10	0xbd9d0bbd	-0.076682545
11	0xbe04f66f	-0.12984632
12	0xbe05c284	-0.13062483
13	0xbddb6f0d	-0.10714541
14	0x3dc5c73e	0.09657143
15	0xbe8b00d8	-0.2714908
16	0xbee797e6	-0.45233077
17	0xbf016bb5	-0.5055497
18	0xbf1b7e65	-0.6073974
19	0xbe53b30a	-0.20673767
20	0xbdfad3b1	-0.12247408
21	0xbf3745bb	-0.71590775
22	0x3e8ab505	0.27091232
23	0xbee7236d	-0.45144215
24	0x3daae5ec	0.08344635
25	0xbefe6179	-0.4968374
26	0xba15af18	-0.000570999
27	0x3e872e22	0.26402384
28	0x3db433e1	0.087989576
29	0xbe5674ac	-0.20942944
30	0x3f228e01	0.6349793
31	0x3f3090fe	0.6897124
32	0x3d19536f	0.037433084
33	0xbe0ede4f	-0.13951991
34	0x3e942ffe	0.28942865
35	0x3e2cb191	0.16864611
36	0xbcb4c87b	-0.022068253
37	0xbf7c1ed1	-0.9848452
38	0x3e0e41a7	0.13892232
39	0xbde6affe	-0.112640366
40	0x3e554efb	0.2083091
41	0xbea0430e	-0.3130116
42	0x3e5b8836	0.21438679
43	0x3e0aca9f	0.13553856
44	0xbf08efea	-0.5349108
45	0x3e4792dc	0.19489616
46	0xbf2a7c05	-0.6659549
47	0x3e6ebcb9	0.2331418
48	0xbf163b8c	-0.5868461
49	0xbd5978d8	-0.05309376
50	0x3d6030c4	0.054734007
51	0xbe84a9da	-0.25910836
52	0xbe243b32	-0.16038206
53	0xbf1087ee	-0.5645741
54	0xbddb82e2	-0.10718323
55	0xbcee7bda	-0.029111791
56	0x3e3d00a1	0.18457271
57	0x3debab4a	0.1150728
58	0x3dfb504a	0.12271173
59	0x3dba6943	0.09102108
60	0x3ea9f623	0.331956
61	0x3b8b97e3	0.0042600497
62	0xbc360833	-0.011110353
63	0xbdff771f	-0.124738924
64	0xbe63a0f0	-0.22229362
65	0xbf07f4d4	-0.53107953
66	0xbbefa263	-0.007313059
67	0x3e63bc2e	0.22239754
68	0x3e11bc24	0.14231926
69	0xbf368063	-0.7128965
70	0x3e7a5d71	0.24449708
71	0xbe5cc3c1	-0.21559049
72	0xbd46d9bd	-0.048547495
73	0x3d92c817	0.0716707
74	0x3df149c6	0.11781649
75	0x3e852595	0.26005235
76	0xbc0060df	-0.007835596
77	0x3e0fabd9	0.14030398
78	0xbf30ef78	-0.691154
79	0xbd8d725c	-0.06906578
80	0x3f0a404d	0.54004365
81	0x3c9ff219	0.01952462
82	0x3e02f990	0.12790513
83	0xbe30252c	-0.1720168
84	0x3ed53e82	0.41649252
85	0x3df75a80	0.120778084
86	0xbfad4f55	-1.3539835
87	0x3e9bb540	0.3041172
88	0x3e484090	0.19555879
89	0x3edc8260	0.43068218
90	0x3d0cedeb	0.034406584
91	0x3e6637b4	0.22482187
92	0xbf3e4da7	-0.7433724
93	0x3ca7a7a6	0.020465683
94	0xbd70ffc6	-0.058837675
95	0x3f4bcf92	0.796136
96	0xbc97321d	-0.018456513
97	0xbf00dde3	-0.5033857
98	0x3e14847e	0.14503667
99	0x3e1ea560	0.15492773
100	0x3eb4c11e	0.35303587
101	0xbf40a2e8	-0.75248575
102	0x3da3b4b2	0.07993449
103	0xbafe384a	-0.0019395438
104	0xbdc0d964	-0.09416464
105	0xbd923536	-0.071390554
106	0x3ced3436	0.02895556
107	0xbdb946c1	-0.09046698
108	0xbdff74fd	-0.124734856
109	0xbdefc779	-0.11707968
110	0xbd613924	-0.054986134
111	0xbd6f58bc	-0.058434233
112	0xbebf65cd	-0.37382355
113	0x3f092bb6	0.5358232
114	0xbf0bbe80	-0.54587555
115	0xbe30b1c7	-0.17255317
116	0xbf050ad0	-0.51969624
117	0x3e472fea	0.19451872
118	0xbf60d50f	-0.878251
119	0x3e31bc34	0.1735695
120	0xbcc00aea	-0.023442704
121	0x3f0d8c6e	0.55292404
122	0x3e08e409	0.13368239
123	0xbedd9341	-0.43276408
124	0xbf8108cc	-1.008081
125	0x3de162d5	0.11005179
126	0xc0018ab1	-2.02409
127	0xbea6f9ea	-0.32612544
128	0xbcbe53e5	-0.023233363
129	0xbf2d59c9	-0.67715126
130	0x3dece692	0.11567415
131	0x3e01c8b9	0.12674226
132	0xbf290e4b	-0.66037434
133	0x3e2b5934	0.16733247
134	0xbe49b883	-0.19699292
135	0x3e707798	0.23483121
136	0x3dc59ace	0.09648667
137	0xbe15dbab	-0.14634578
138	0xbe60f572	-0.2196863
139	0x3eca90d0	0.39563608
140	0xbe7bda74	-0.24595052
141	0x3e15457d	0.14577289
142	0xbf3159b2	-0.6927749
143	0xbf5d18ad	-0.8636578
144	0xbef93d77	-0.48679706
145	0x3d3a7c19	0.045528505
146	0xbeb0f518	-0.34561992
147	0x3e17aa38	0.14811027
148	0x3ebaeee5	0.36510387
149	0x3ed10426	0.40823478
150	0xbf8a7da8	-1.0819597
151	0x3ee15b20	0.44014835
152	0x3dae0d9a	0.08498688
153	0x3cd84244	0.026398785
154	0xbd1241f7	-0.03570744
155	0xbec77732	-0.38958126
156	0xbf3e53ba	-0.74346507
157	0xbe093f28	-0.13402998
158	0xbec2b560	-0.38029003
159	0xbe9011ae	-0.2813849

model.2.bias f4 [10]
0	0x3ddda858	0.10823125
1	0xbe8e5eed	-0.27806798
2	0x3f61b3f4	0.8816521
3	0xbe63ba7c	-0.22239107
4	0x3f40623d	0.751499
5	0xbf6d73d1	-0.92754847
6	0x3f5cbe77	0.86228126
7	0xbf540ae6	-0.8282913
8	0xbf37645f	-0.7163753
9	0xbfc2c416	-1.5216091

exp_avg f4 [16, 784]
0	0xb658565f	-3.2236783e-06
1	0xb658565f	-3.2236783e-06
2	0xb658565f	-3.2236783e-06
3	0xb658565f	-3.2236783e-06
4	0xb658565f	-3.2236783e-06
5	0xb658565f	-3.2236783e-06
6	0xb658565f	-3.2236783e-06
7	0xb658565f	-3.2236783e-06
8	0xb658565f	-3.2236783e-06
9	0xb658565f	-3.2236783e-06
10	0xb73dd3d8	-1.1314602e-05
11	0xb7e6a82d	-2.749645e-05
12	0xb8106a92	-3.4431527e-05
13	0xb81543a6	-3.558737e-05
14	0xb658565f	-3.2236783e-06
15	0xb9064686	-0.00012805508
16	0xb969a8aa	-0.00022283444
17	0xb925c98c	-0.00015810708
18	0xb658565f	-3.2236783e-06
19	0xb658565f	-3.2236783e-06
20	0xb658565f	-3.2236783e-06
21	0xb658565f	-3.2236783e-06
22	0xb658565f	-3.2236783e-06
23	0xb658565f	-3.2236783e-06
24	0xb658565f	-3.2236783e-06
25	0xb658565f	-3.2236783e-06
26	0xb658565f	-3.2236783e-06
27	0xb658565f	-3.2236783e-06
28	0xb658565f	-3.2236783e-06
29	0xb658565f	-3.2236783e-06
30	0xb658565f	-3.2236783e-06
31	0xb658565f	-3.2236783e-06
32	0xb658565f	-3.2236783e-06
33	0xb658565f	-3.2236783e-06
34	0xb658565f	-3.2236783e-06
35	0xb658565f	-3.2236783e-06
36	0xb658565f	-3.2236783e-06
37	0xb6b9bc79	-5.5353707e-06
38	0xb801df54	-3.0963987e-05
39	0xb81543a6	-3.558737e-05
40	0xb8373338	-4.36783e-05
41	0xb703a6e1	-7.847063e-06
42	0xb7a2c90d	-1.9405526e-05
43	0xb92d0f2a	-0.00016504215
44	0xb871602e	-5.7548452e-05
45	0xb871602e	-5.7548452e-05
46	0xb658565f	-3.2236783e-06
47	0xb68e2138	-4.235797e-06
48	0xb85d7f83	-5.280926e-05
49	0xb785b290	-1.5937985e-05
50	0xb692f3d5	-4.379525e-06
51	0xb658565f	-3.2236783e-06
52	0xb658565f	-3.2236783e-06
53	0xb658565f	-3.2236783e-06
54	0xb658565f	-3.2236783e-06
55	0xb658565f	-3.2236783e-06
56	0xb658565f	-3.2236783e-06
57	0xb658565f	-3.2236783e-06
58	0xb658565f	-3.2236783e-06
59	0xb658565f	-3.2236783e-06
60	0xb658565f	-3.2236783e-06
61	0xb658565f	-3.2236783e-06
62	0xb658565f	-3.2236783e-06
63	0xb658565f	-3.2236783e-06
64	0xb658565f	-3.2236783e-06
65	0xb703a6e1	-7.847063e-06
66	0xb8106a92	-3.4431527e-05
67	0xb7f05a56	-2.8652295e-05
68	0xb7f05a56	-2.8652295e-05
69	0xb8106a92	-3.4431527e-05
70	0xb7170b34	-9.00291e-06
71	0xb658565f	-3.2236783e-06
72	0xb7fd85b3	-3.0222209e-05
73	0xb8a10941	-7.678802e-05
74	0xb8783239	-5.917458e-05
75	0xb7fe6242	-3.0324914e-05
76	0xb78e6c07	-1.6978023e-05
77	0xb7837deb	-1.5675052e-05
78	0xb658565f	-3.2236783e-06
79	0xb658565f	-3.2236783e-06
80	0xb658565f	-3.2236783e-06
81	0xb658565f	-3.2236783e-06
82	0xb658565f	-3.2236783e-06
83	0xb658565f	-3.2236783e-06
84	0xb658565f	-3.2236783e-06
85	0xb658565f	-3.2236783e-06
86	0xb658565f	-3.2236783e-06
87	0xb658565f	-3.2236783e-06
88	0xb658565f	-3.2236783e-06
89	0xb67ce2fa	-3.7683044e-06
90	0xb658565f	-3.2236783e-06
91	0xb658565f	-3.2236783e-06
92	0xb658565f	-3.2236783e-06
93	0xb7170b34	-9.00291e-06
94	0xb8373338	-4.36783e-05
95	0xb7f05a56	-2.8652295e-05
96	0xb7f05a56	-2.8652295e-05
97	0xb7e6a82d	-2.749645e-05
98	0xb819ab9e	-3.6637874e-05
99	0xb83813df	-4.3887525e-05
100	0xb83282fe	-4.2560503e-05
101	0xb81f1ead	-3.7937123e-05
102	0xb867a502	-5.5228367e-05
103	0xb77e66d5	-1.5163522e-05
104	0xb79335b5	-1.7548775e-05
105	0xb891c4b0	-6.950775e-05
106	0xb7c62b13	-2.3623497e-05
107	0xb7e2d09c	-2.703844e-05
108	0xb658565f	-3.2236783e-06
109	0xb658565f	-3.2236783e-06
110	0xb658565f	-3.2236783e-06
111	0xb658565f	-3.2236783e-06
112	0xb658565f	-3.2236783e-06
113	0xb658565f	-3.2236783e-06
114	0xb658565f	-3.2236783e-06
115	0xb75a8e52	-1.3026949e-05
116	0xb658565f	-3.2236783e-06
117	0xb67ce2fa	-3.7683044e-06
118	0xb658565f	-3.2236783e-06
119	0xb658565f	-3.2236783e-06
120	0xb658565f	-3.2236783e-06
121	0xb73dd3d8	-1.1314602e-05
122	0xb871602e	-5.7548452e-05
123	0xb801df54	-3.0963987e-05
124	0xb7d343da	-2.5184756e-05
125	0xb79916e3	-1.8249679e-05
126	0xb7befd50	-2.2767723e-05
127	0xb77800d0	-1.4782141e-05
128	0xb800aa79	-3.0676343e-05
129	0xb80d673f	-3.3713175e-05
130	0xb7e70b9d	-2.7542754e-05
131	0xb7ab5524	-2.0424435e-05
132	0xb790f27d	-1.7279055e-05
133	0xb884e135	-6.3361986e-05
134	0xb88641ad	-6.401851e-05
135	0xb7291763	-1.007863e-05
136	0xb6d5a804	-6.3674543e-06
137	0xb658565f	-3.2236783e-06
138	0xb658565f	-3.2236783e-06
139	0xb658565f	-3.2236783e-06
140	0xb658565f	-3.2236783e-06
141	0xb658565f	-3.2236783e-06
142	0xb84d6792	-4.8972266e-05
143	0xb72cde90	-1.0303818e-05
144	0xb72cde90	-1.0303818e-05
145	0xb658565f	-3.2236783e-06
146	0xb658565f	-3.2236783e-06
147	0xb658565f	-3.2236783e-06
148	0xb658565f	-3.2236783e-06
149	0xb73dd3d8	-1.1314602e-05
150	0xb87b125a	-5.9860155e-05
151	0xb7e6a82d	-2.749645e-05
152	0xb7e6a82d	-2.749645e-05
153	0xb7c991b2	-2.4028912e-05
154	0xb79916e3	-1.8249679e-05
155	0xb7705b98	-1.4326441e-05
156	0xb7b6152b	-2.1705948e-05
157	0xb7b95fac	-2.209827e-05
158	0xb8b63ca7	-8.689734e-05
159	0xb7ab5524	-2.0424435e-05
160	0xb85f641a	-5.326057e-05
161	0xb890583c	-6.88289e-05
162	0xb84d4c58	-4.894691e-05
163	0xb84a153e	-4.8180336e-05
164	0xb78b9ee1	-1.6644075e-05
165	0xb6cb6fcb	-6.062886e-06
166	0xb658565f	-3.2236783e-06
167	0xb658565f	-3.2236783e-06
168	0xb7fae802	-2.991036e-05
169	0xb7fae802	-2.991036e-05
170	0xb8668840	-5.4963166e-05
171	0xb8668840	-5.4963166e-05
172	0xb658565f	-3.2236783e-06
173	0xb6c78ab2	-5.9468084e-06
174	0xb658565f	-3.2236783e-06
175	0xb775f7c8	-1.4660829e-05
176	0xb7170b34	-9.00291e-06
177	0xb871602e	-5.7548452e-05
178	0xb7d343da	-2.5184756e-05
179	0xb7b62d61	-2.1717222e-05
180	0xb7b62d61	-2.1717222e-05
181	0xb7a0ba7b	-1.9160323e-05
182	0xb76d7a63	-1.4154796e-05
183	0xb7869b10	-1.6046251e-05
184	0xb7f92a45	-2.9702796e-05
185	0xb88361e4	-6.2648e-05
186	0xb8842789	-6.3016145e-05
187	0xb8101bf0	-3.4358294e-05
188	0xb88c722c	-6.6969864e-05
189	0xb89f9c2b	-7.6107994e-05
190	0xb8606ce5	-5.3507178e-05
191	0xb716c27f	-8.985981e-06
192	0xb7921db8	-1.7418395e-05
193	0xb6441271	-2.921701e-06
194	0xb642f211	-2.9049154e-06
195	0xb81d9623	-3.7571543e-05
196	0xb791d3c5	-1.738396e-05
197	0xb84fb05e	-4.95169e-05
198	0xb858d384	-5.1695402e-05
199	0xb858d384	-5.1695402e-05
200	0xb84d6792	-4.8972266e-05
201	0xb73601b7	-1.0848445e-05
202	0xb8020594	-3.099961e-05
203	0xb775f7c8	-1.4660829e-05
204	0xb703a6e1	-7.847063e-06
205	0xb87f14e8	-6.0816208e-05
206	0xb7c991b2	-2.4028912e-05
207	0xb7b62d61	-2.1717222e-05
208	0xb7924d36	-1.744051e-05
209	0xb7970852	-1.8004477e-05
210	0xb74992f3	-1.2014748e-05
211	0xb7d9d997	-2.5969739e-05
212	0xb83638bd	-4.3445023e-05
213	0xb896c88a	-7.189911e-05
214	0xb89be544	-7.43368e-05
215	0xb86db833	-5.6676752e-05
216	0xb8af0fd4	-8.3475985e-05
217	0xb884c82a	-6.331534e-05
218	0xb763415b	-1.3545471e-05
219	0xb7575342	-1.2834384e-05
220	0xb75febb7	-1.3346717e-05
221	0xb61b73f2	-2.316429e-06
222	0xb8a644df	-7.928325e-05
223	0xb658565f	-3.2236783e-06
224	0xb658565f	-3.2236783e-06
225	0xb8044e5f	-3.154424e-05
226	0xb87b1756	-5.9864797e-05
227	0xb85441f0	-5.0606148e-05
228	0xb8846609	-6.313256e-05
229	0xb80d7184	-3.372274e-05
230	0xb7df7e8f	-2.6642605e-05
231	0xb7b6605e	-2.1740965e-05
232	0xb817b2b0	-3.616762e-05
233	0xb8846389	-6.31279e-05
234	0xb7a2c90d	-1.9405526e-05
235	0xb7a2c90d	-1.9405526e-05
236	0xb815ee96	-3.574657e-05
237	0xb781fc02	-1.5495349e-05
238	0xb82a9436	-4.066919e-05
239	0xb80e64d0	-3.3949327e-05
240	0xb81586af	-3.5649802e-05
241	0xb82e81e9	-4.160582e-05
242	0xb85cccba	-5.2642754e-05
243	0xb88b6fad	-6.648838e-05
244	0xb8a98dde	-8.084973e-05
245	0xb868a4f5	-5.546674e-05
246	0xb765b93e	-1.3692594e-05
247	0xb7a0342a	-1.9097777e-05
248	0xb66d6f3e	-3.5380504e-06
249	0xb89cc73a	-7.4757685e-05
250	0xb64ee303	-3.082853e-06
251	0xb658565f	-3.2236783e-06
252	0xb658565f	-3.2236783e-06
253	0xb81694ac	-3.590125e-05
254	0xb8858a6d	-6.367718e-05
255	0xb871f42e	-5.7686288e-05

exp_avg_sq f4 [16, 784]
0	0x307bf80c	9.1665764e-10
1	0x307ffeab	9.3130365e-10
2	0x30859369	9.71892e-10
3	0x31360347	2.6486349e-09
4	0x31a052e5	4.666037e-09
5	0x31ffea9a	7.448148e-09
6	0x33448dff	4.576395e-08
7	0x33a5b688	7.7166135e-08
8	0x3421082e	1.4997269e-07
9	0x34a3f2de	3.0537825e-07
10	0x355af007	8.1560614e-07
11	0x359b1974	1.1555808e-06
12	0x35b02b25	1.3125579e-06
13	0x35bed66c	1.4218508e-06
14	0x35c3934b	1.45715e-06
15	0x360246a3	1.9412626e-06
16	0x362f4240	2.6115595e-06
17	0x360697c0	2.0055886e-06
18	0x358a670f	1.0311795e-06
19	0x35917fcb	1.0840535e-06
20	0x35939de8	1.099831e-06
21	0x355df072	8.267881e-07
22	0x35771c7b	9.2056115e-07
23	0x35093ecd	5.1127864e-07
24	0x3421638f	1.5030513e-07
25	0x33892ead	6.38805e-08
26	0x3221f121	9.42626e-09
27	0x326ff9cb	1.3968427e-08
28	0x307c2c90	9.1740393e-10
29	0x308005e6	9.314902e-10
30	0x30ce7502	1.5021728e-09
31	0x325b4cb7	1.2764921e-08
32	0x32d3d636	2.4661045e-08
33	0x339dc9e2	7.3476045e-08
34	0x34959191	2.7859326e-07
35	0x34e2f260	4.227213e-07
36	0x3582bc20	9.740506e-07
37	0x35a9c7b3	1.2649601e-06
38	0x3601e35b	1.9354836e-06
39	0x36423792	2.89406e-06
40	0x36902551	4.2958786e-06
41	0x36bb6919	5.5852693e-06
42	0x36d0bc76	6.220823e-06
43	0x36fbf611	7.509029e-06
44	0x37059f77	7.964546e-06
45	0x37038775	7.839747e-06
46	0x36d02d62	6.2041663e-06
47	0x36d22fa0	6.264032e-06
48	0x36ae41c1	5.193259e-06
49	0x368c5651	4.1823737e-06
50	0x3684e35f	3.960376e-06
51	0x3638f04f	2.7558015e-06
52	0x35bde32d	1.4147714e-06
53	0x349940b7	2.8545557e-07
54	0x33be5e47	8.8647134e-08
55	0x3299c157	1.7899465e-08
56	0x307db1b8	9.229342e-10
57	0x3088a08b	9.940931e-10
58	0x312ea4fa	2.541411e-09
59	0x32c1c18a	2.2556168e-08
60	0x3411d597	1.3581881e-07
61	0x349b3f95	2.8917262e-07
62	0x355e3c0a	8.2788813e-07
63	0x358025ca	9.547741e-07
64	0x35a7274c	1.2453906e-06
65	0x35da17c2	1.624918e-06
66	0x35fca84a	1.8824442e-06
67	0x36185db4	2.2704307e-06
68	0x36708ffa	3.5846592e-06
69	0x36b0bec8	5.2674186e-06
70	0x36fc87fc	7.526016e-06
71	0x370c1379	8.349184e-06
72	0x371d1b3a	9.364268e-06
73	0x37082c46	8.11654e-06
74	0x371df3ce	9.414694e-06
75	0x372ee1a4	1.0423744e-05
76	0x371815b6	9.064961e-06
77	0x370593de	7.961846e-06
78	0x3700dce0	7.680821e-06
79	0x36d8c902	6.460702e-06
80	0x36b311e7	5.3367e-06
81	0x3609eaf3	2.055135e-06
82	0x355e17fd	8.273635e-07
83	0x32318d88	1.03349365e-08
84	0x30863208	9.764003e-10
85	0x310285cc	1.8993545e-09
86	0x324d8105	1.1961906e-08
87	0x3346393e	4.615253e-08
88	0x344f1707	1.9286755e-07
89	0x3506b194	5.01773e-07
90	0x35a7af19	1.249343e-06
91	0x35b278c9	1.3297187e-06
92	0x35c33298	1.4543357e-06
93	0x35db14dc	1.6322842e-06
94	0x360888b3	2.0345149e-06
95	0x36225dc2	2.4194455e-06
96	0x3677013d	3.680659e-06
97	0x36a7e0ca	5.0031567e-06
98	0x36e6fbb3	6.883836e-06
99	0x37050072	7.927521e-06
100	0x371bfaaf	9.297087e-06
101	0x37444912	1.1699523e-05
102	0x3749b688	1.20230325e-05
103	0x373d5b96	1.1286602e-05
104	0x374e16ec	1.2283894e-05
105	0x373f7910	1.1412674e-05
106	0x373fbeb3	1.1428888e-05
107	0x3738a325	1.100524e-05
108	0x370f7540	8.550764e-06
109	0x3683ae68	3.924408e-06
110	0x35e8b975	1.7339322e-06
111	0x34461204	1.8446741e-07
112	0x30c715a9	1.4485312e-09
113	0x3180a118	3.7436045e-09
114	0x32a78cb3	1.9505341e-08
115	0x339a325c	7.180344e-08
116	0x34bc348c	3.5055962e-07
117	0x3558cc28	8.0763357e-07
118	0x35a716cf	1.2449108e-06
119	0x35b95936	1.3809538e-06
120	0x35d31407	1.5726554e-06
121	0x35e7467a	1.7231353e-06
122	0x3626867e	2.4814212e-06
123	0x363a3ebd	2.7752678e-06
124	0x36807b62	3.829061e-06
125	0x36c6275f	5.9054432e-06
126	0x371981d2	9.149737e-06
127	0x3726723a	9.9209665e-06
128	0x37376708	1.0931639e-05
129	0x3756bdb6	1.27995645e-05
130	0x3776ef6e	1.4718489e-05
131	0x377c4b79	1.5037943e-05
132	0x37907414	1.722019e-05
133	0x378de256	1.6913906e-05
134	0x37855c00	1.5897676e-05
135	0x37685073	1.3847009e-05
136	0x3747b03e	1.1902359e-05
137	0x36c58622	5.8866726e-06
138	0x360225cf	1.9393517e-06
139	0x33964137	6.996782e-08
140	0x309b26f0	1.1288801e-09
141	0x3202d91f	7.6163635e-09
142	0x35861790	9.990636e-07
143	0x3441eb8e	1.806022e-07
144	0x35253352	6.154197e-07
145	0x358a7186	1.0314841e-06
146	0x35b4db61	1.3474893e-06
147	0x35cd058e	1.5275307e-06
148	0x35daa80b	1.6291173e-06
149	0x35d95b4f	1.6194334e-06
150	0x35ff72ed	1.9032428e-06
151	0x3615b4a0	2.2307868e-06
152	0x368eddcd	4.257751e-06
153	0x36f5d882	7.326774e-06
154	0x372b0e2b	1.0195693e-05
155	0x373e974c	1.1360109e-05
156	0x3768f1dd	1.3884591e-05
157	0x37817769	1.5433603e-05
158	0x378af5e1	1.6565378e-05
159	0x379abdab	1.8446552e-05
160	0x37b1b8eb	2.1186153e-05
161	0x37b59637	2.164683e-05
162	0x37b5d9f2	2.167837e-05
163	0x379ccaeb	1.869114e-05
164	0x378ce5f7	1.6796386e-05
165	0x372fd7f0	1.048109e-05
166	0x3640d3af	2.8733446e-06
167	0x338d4004	6.5774685e-08
168	0x328b249a	1.6198374e-08
169	0x33783e49	5.7798648e-08
170	0x3595741a	1.1135155e-06
171	0x354add41	7.557283e-07
172	0x35160337	5.588403e-07
173	0x35819a57	9.656168e-07
174	0x35c7138b	1.4832343e-06
175	0x35f7bfa4	1.8458709e-06
176	0x360ad57b	2.0687864e-06
177	0x3610297a	2.1481815e-06
178	0x3603f10e	1.9660833e-06
179	0x3634bb31	2.693105e-06
180	0x36974bd4	4.5089782e-06
181	0x3710f012	8.638965e-06
182	0x374778ce	1.1889451e-05
183	0x378ac95e	1.654465e-05
184	0x37abf874	2.0500484e-05
185	0x37b23b0a	2.1246746e-05
186	0x37b34c81	2.1374088e-05
187	0x37b8eab5	2.2043803e-05
188	0x37bbdab0	2.2393971e-05
189	0x37cf485d	2.471002e-05
190	0x37d3c878	2.524651e-05
191	0x37c71ce4	2.3736102e-05
192	0x37b1f79a	2.1215343e-05
193	0x37809077	1.532606e-05
194	0x366081dc	3.345419e-06
195	0x34d71bd8	4.006713e-07
196	0x32070641	7.859456e-09
197	0x34342575	1.6777433e-07
198	0x35c56b14	1.4708808e-06
199	0x34ebd788	4.392898e-07
200	0x35338ef3	6.6890715e-07
201	0x359281d6	1.0915635e-06
202	0x36111dee	2.1624105e-06
203	0x363efb65	2.8458537e-06
204	0x361cd678	2.3370649e-06
205	0x3629d0c2	2.5304475e-06
206	0x361c4fc1	2.3292234e-06
207	0x366e78b7	3.553503e-06
208	0x36eb6e60	7.016395e-06
209	0x3738a6be	1.1006077e-05
210	0x378c5f89	1.6733788e-05
211	0x37b9958f	2.2123362e-05
212	0x37dae94a	2.6096259e-05
213	0x37d75bb4	2.56727e-05
214	0x37e9d8a5	2.7876647e-05
215	0x37e67fa5	2.7477576e-05
216	0x37f0cdf0	2.8706127e-05
217	0x37fa1bed	2.9815326e-05
218	0x37faa7a1	2.988038e-05
219	0x37e2c52b	2.7033113e-05
220	0x37e4bfbb	2.7269e-05
221	0x37a7367f	1.9933328e-05
222	0x36b5c2b1	5.4168854e-06
223	0x34942229	2.7592003e-07
224	0x3286539f	1.563768e-08
225	0x334adb70	4.7231367e-08
226	0x35fca6d1	1.8824013e-06
227	0x3515172c	5.5540545e-07
228	0x3550a8b7	7.773155e-07
229	0x35a7bd1d	1.2497509e-06
230	0x361b0fe2	2.3106045e-06
231	0x3663ddfa	3.3954843e-06
232	0x364c30ab	3.0426697e-06
233	0x3673f5ff	3.635301e-06
234	0x36906214	4.302952e-06
235	0x36ca2845	6.024757e-06
236	0x372264f3	9.6794565e-06
237	0x37963758	1.7907165e-05
238	0x37cdc79f	2.453086e-05
239	0x380393aa	3.1370357e-05
240	0x381529e6	3.556339e-05
241	0x38150b43	3.5534857e-05
242	0x3810b47b	3.450036e-05
243	0x3818ba23	3.6412977e-05
244	0x38199137	3.6613284e-05
245	0x38185094	3.631467e-05
246	0x3814057a	3.529105e-05
247	0x3818c3d4	3.6422003e-05
248	0x3812e7c4	3.502496e-05
249	0x37eb1f7f	2.802885e-05
250	0x3739a8e6	1.1066184e-05
251	0x3566e04d	8.600808e-07
252	0x3290cd55	1.685718e-08
253	0x33b1c0a4	8.277246e-08
254	0x36052567	1.9840315e-06
255	0x36d537a9	6.3543744e-06

exp_avg f4 [16]
0	0xba9637c9	-0.0011460717
1	0xbb3580d1	-0.0027695189
2	0x3b3405b8	0.002746923
3	0x00000004	6e-45
4	0x38aa9aea	8.135087e-05
5	0x3ad7828f	0.0016442108
6	0x1ea088d7	1.6997255e-20
7	0xbb8dbc47	-0.004325423
8	0x00000004	6e-45
9	0xbb9e5915	-0.0048323967
10	0x00000004	6e-45
11	0xb7c0339d	-2.2912218e-05
12	0xbbc0103d	-0.0058613108
13	0x00000004	6e-45
14	0xbb2545e0	-0.002521865
15	0x3ad8ceb1	0.0016541091

exp_avg_sq f4 [16]
0	0x39478a89	0.00019029727
1	0x392280bd	0.00015497483
2	0x39306b27	0.00016824585
3	0x30fc25c3	1.8346146e-09
4	0x39a842b3	0.00032093152
5	0x391f74a4	0.00015206874
6	0x3955f73a	0.00020405362
7	0x39a08634	0.00030617567
8	0x2efe65d2	1.15686696e-10
9	0x3984109c	0.00025189377
10	0x2ebb468b	8.5163064e-11
11	0x393527b0	0.0001727629
12	0x39895205	0.00026191786
13	0x2fdacc2a	3.9799036e-10
14	0x39857b63	0.00025459667
15	0x392462ab	0.00015677015

exp_avg f4 [10, 16]
0	0x3944b222	0.00018758376
1	0x3bd89484	0.0066095013
2	0x3d08d305	0.03340437
3	0x00000004	6e-45
4	0x3abd02e6	0.001442042
5	0xbabeac52	-0.0014547205
6	0x1e6868d7	1.2303658e-20
7	0xbbdf1960	-0.006808445
8	0x00000004	6e-45
9	0x3b765423	0.003758677
10	0x80000004	-6e-45
11	0x33c8dcb6	9.353373e-08
12	0xbb521486	-0.003205569
13	0x00000004	6e-45
14	0x3c32376d	0.010877472
15	0x3b13e444	0.0022566477
16	0x387aea8c	5.9823084e-05
17	0x3b67a479	0.0035345836
18	0x3b4c99d7	0.0031219625
19	0x80000004	-6e-45
20	0xba8f97ed	-0.0010955312
21	0xbab5b182	-0.0013862106
22	0x9fbb5fe5	-7.9356225e-20
23	0xbb2baa12	-0.00261939
24	0x00000004	6e-45
25	0x3adb3f3f	0.0016727223
26	0x00000004	6e-45
27	0x2fb85c1a	3.3534847e-10
28	0x3d0e331c	0.03471671
29	0x80000004	-6e-45
30	0x3b39b8af	0.002833884
31	0x3aada561	0.0013248139
32	0x390a52ce	0.00013191553
33	0x3beea0f5	0.007282371
34	0xbd33262c	-0.043737575
35	0x00000004	6e-45
36	0x3a26b676	0.0006359586
37	0xba92e145	-0.0011206052
38	0x1f6b47f2	4.9822697e-20
39	0x3c79aca4	0.015238915
40	0x00000004	6e-45
41	0x3bbbaf25	0.005727666
42	0x00000004	6e-45
43	0x326afc14	1.3677909e-08
44	0x3bb1f848	0.0054312088
45	0x00000004	6e-45
46	0x3b8e2e40	0.0043390095
47	0x3a266259	0.00063470524
48	0x38cf9d4a	9.8998265e-05
49	0xbbe7fe98	-0.0070799105
50	0xbc1d3e1a	-0.009597326
51	0x00000004	6e-45
52	0xba856295	-0.0010176474
53	0xbb9a1dc5	-0.004703256
54	0x1dcded40	5.450836e-21
55	0x3c04a282	0.0080953855
56	0x00000004	6e-45
57	0xbb347585	-0.0027535867
58	0x00000004	6e-45
59	0x34098ea0	1.2811006e-07
60	0xbddad577	-0.106852464
61	0x80000004	-6e-45
62	0xbcace588	-0.021105543
63	0xbb7d8e3d	-0.0038689517
64	0x38a166ba	7.6962126e-05
65	0x3aad30e1	0.001321342
66	0xbc694b73	-0.01423918
67	0x00000004	6e-45
68	0x3a0825da	0.00051936286
69	0x3a89a806	0.0010502345
70	0x9d42da5a	-2.5788571e-21
71	0x3b9fb3b1	0.004873716
72	0x00000004	6e-45
73	0x3c46f697	0.012143753
74	0x00000004	6e-45
75	0x331bae7d	3.6247446e-08
76	0x3d0f2bc3	0.034953844
77	0x80000004	-6e-45
78	0x3ace2930	0.0015728828
79	0x3bedef9e	0.0072612306
80	0xbae96f1d	-0.0017809604
81	0xbcb434f0	-0.021997899
82	0x3d1e08f3	0.038582753
83	0x80000004	-6e-45
84	0xbc7c23fd	-0.01538944
85	0x3ce57557	0.028010054
86	0x9eda1554	-2.3090469e-20
87	0x3e33f126	0.1757246
88	0x00000004	6e-45
89	0x3c64fd8d	0.013976467
90	0x00000004	6e-45
91	0xb97cdc0b	-0.00024114565
92	0x3b2c06c2	0.0026249145
93	0x00000004	6e-45
94	0x3c00594a	0.007833788
95	0xbbe29675	-0.0069149085
96	0x374e42a6	1.2294075e-05
97	0x3b83939f	0.0040154005
98	0x3a4b7f19	0.00077627745
99	0x00000004	6e-45
100	0x3b0e0123	0.0021668158
101	0x3c07d3c8	0.008290239
102	0x1fa135fb	6.8275455e-20
103	0x3cc4a4d8	0.024004385
104	0x80000004	-6e-45
105	0x3bb51731	0.0055264463
106	0x00000004	6e-45
107	0x33395050	4.3146713e-08
108	0x3cbc7d60	0.023009002
109	0x80000004	-6e-45
110	0x3c2d0e51	0.010562495
111	0xba33d444	-0.0006859938
112	0x3a217cc9	0.0006160257
113	0xbc46ad1e	-0.012126235
114	0xbb7a445c	-0.0038187718
115	0x80000004	-6e-45
116	0x39da8990	0.00041682692
117	0xbcbbd4a8	-0.02292855
118	0x9f29a2e6	-3.592189e-20
119	0xbd13447b	-0.03595398
120	0x80000004	-6e-45
121	0xbd1afca4	-0.037838593
122	0x80000004	-6e-45
123	0x36a6a27c	4.966101e-06
124	0xbad2fc6a	-0.0016096954
125	0x00000004	6e-45
126	0x37ab8aaf	2.0449368e-05
127	0xba514934	-0.00079836254
128	0x39f54eae	0.00046788662
129	0x3ab52995	0.0013821597
130	0xbc04f891	-0.0081159035
131	0x00000004	6e-45
132	0x3a90dc9a	0.0011052073
133	0xb9f4e0a4	-0.00046706677
134	0x1ef0e780	2.5506735e-20
135	0xbce2bb73	-0.027677273
136	0x80000004	-6e-45
137	0x3b567f0d	0.0032729537
138	0x00000004	6e-45
139	0x38c32e9b	9.3070055e-05
140	0x3c04498d	0.0080741765
141	0x00000004	6e-45
142	0x3b197163	0.002341353
143	0x39c17b31	0.00036903613
144	0x3907c2bf	0.00012947152
145	0x3c8bbea8	0.017058685
146	0x3b6d7683	0.0036233969
147	0x00000004	6e-45
148	0x3c37c501	0.011216403
149	0xbbad589a	-0.005290103
150	0x9ec0c8df	-2.0411869e-20
151	0xbe1e984f	-0.15487789
152	0x00000004	6e-45
153	0xbbb3c82a	-0.005486508
154	0x80000004	-6e-45
155	0x3915bb20	0.00014279457
156	0x3b3b4aee	0.0028578597
157	0x80000004	-6e-45
158	0xbc9de849	-0.019275801
159	0x39dd2333	0.0004217863

exp_avg_sq f4 [10, 16]
0	0x3a9d5201	0.0012002588
1	0x3b82206d	0.0039711506
2	0x3ce36870	0.02775976
3	0x2c8f73c8	4.0771587e-12
4	0x3a280145	0.00064088806
5	0x3ad76985	0.0016434646
6	0x3d810074	0.062989146
7	0x3d4ccde1	0.05000103
8	0x2d0f330b	8.139943e-12
9	0x3b19ec0d	0.0023486644
10	0x28236e53	9.07224e-15
11	0x3b8191c2	0.0039541433
12	0x3c228118	0.009918474
13	0x2c5eb413	3.1648059e-12
14	0x3d1cb956	0.038262688
15	0x3abd00f4	0.001441984
16	0x37f30d1d	2.8973964e-05
17	0x39986795	0.00029068874
18	0x3aa392f0	0.0012479704
19	0x2ba98bc0	1.2046961e-12
20	0x394d58cb	0.00019583401
21	0x396d8a62	0.00022653633
22	0x3c46d7c5	0.012136404
23	0x3b8763ed	0.004131785
24	0x2d0e508c	8.0896505e-12
25	0x3a3a131e	0.00070981856
26	0x2b3d18fb	6.7180956e-13
27	0x3ad55edf	0.0016278884
28	0x3c8d0e96	0.01721887
29	0x2bc28f57	1.3824314e-12
30	0x3b90d8bb	0.0044203675
31	0x3b5e6aa5	0.0033938077
32	0x3ab1d378	0.0013567051
33	0x3c040906	0.008058792
34	0x3bbc635f	0.0057491506
35	0x2cb42d19	5.1209145e-12
36	0x3c909db3	0.017653322
37	0x39d0b735	0.0003980935
38	0x3e693fe6	0.22778282
39	0x3cf00837	0.029300792
40	0x2c136a40	2.0948937e-12
41	0x3c1298bf	0.00894755
42	0x2b8b49a6	9.896986e-13
43	0x3d7828c3	0.06058575
44	0x3b449818	0.0029997882
45	0x2bfcb1e9	1.7955057e-12
46	0x3a871f5a	0.0010309026
47	0x3c2d54ab	0.010579268
48	0x3921afeb	0.00015419691
49	0x3ad55b28	0.0016277777
50	0x3c467b97	0.012114427
51	0x29dc1e61	9.7752325e-14
52	0x3a100e24	0.0005495271
53	0x3a9c175b	0.0011908816
54	0x3d334c04	0.043773666
55	0x3c94601e	0.018112238
56	0x2cb0f44c	5.0293433e-12
57	0x3c018792	0.007905858
58	0x2af12ada	4.2839934e-13
59	0x3b1dd2a0	0.002408184
60	0x3d231ec1	0.03982425
61	0x2e5bccd9	4.9976776e-11
62	0x3c356359	0.01107105
63	0x3bb9a612	0.005665549
64	0x3a198692	0.00058565394
65	0x3b73c8e0	0.0037198588
66	0x3b339c6d	0.002740647
67	0x2c8f8524	4.079086e-12
68	0x3cea9fb1	0.0286406
69	0x3a3c9789	0.00071942114
70	0x3e816ff9	0.2528074
71	0x3c919210	0.017769843
72	0x2d160cd7	8.529364e-12
73	0x3ccc5d1f	0.024946747
74	0x2b43b2a6	6.952584e-13
75	0x3d916649	0.070995875
76	0x3c4f4e93	0.012653011
77	0x2c204b82	2.2779283e-12
78	0x39e02910	0.00042755203
79	0x3c272fd6	0.010204276
80	0x3aadf450	0.0013271663
81	0x3b87772f	0.004134081
82	0x3b3bc9d0	0.0028654225
83	0x2b124842	5.19699e-13
84	0x3b7ac53e	0.0038264538
85	0x3cfdca60	0.030980289
86	0x3a0c6327	0.0005355351
87	0x3cb3f693	0.021968162
88	0x2c2111af	2.2889292e-12
89	0x3c3925bd	0.011300501
90	0x254b1c3e	1.7617012e-16
91	0x3aaa6248	0.0012999261
92	0x39886b68	0.00026019965
93	0x2d01d3e6	7.379852e-12
94	0x3afe0010	0.0019378681
95	0x3a33a7ef	0.0006853332
96	0x3a9a4ff7	0.0011773099
97	0x3bd35bee	0.006450168
98	0x3cbfe2ab	0.023423513
99	0x2c8247a1	3.7027746e-12
100	0x3ce539e1	0.0279817
101	0x3a3ff325	0.0007322303
102	0x3e79e1bf	0.24402522
103	0x3d9be022	0.07611109
104	0x2b5545b2	7.5769523e-13
105	0x3c93398a	0.017971773
106	0x2b45ce58	7.027482e-13
107	0x3d21f2d8	0.039538234
108	0x3c0270fb	0.007961507
109	0x2c6fe2e0	3.4089884e-12
110	0x3cfbec47	0.030752314
111	0x3ba6108e	0.0050678914
112	0x3a1c4fa9	0.0005962798
113	0x3c08d699	0.008351945
114	0x39b814c3	0.00035110684
115	0x2ed7f01f	9.819722e-11
116	0x3ad4f6a3	0.001624782
117	0x3d875776	0.06608479
118	0x3a9ec9df	0.0012114606
119	0x3b8fcb14	0.0043882225
120	0x2f199465	1.3967989e-10
121	0x3c590bc8	0.013247438
122	0x290ec282	3.1699043e-14
123	0x3a2fbebc	0.0006704142
124	0x38b7cb2f	8.763966e-05
125	0x2d5cf306	1.2559514e-11
126	0x395dfed8	0.00021171139
127	0x39872ab6	0.0002578103
128	0x3a878391	0.0010338892
129	0x39bf8580	0.00036529824
130	0x3b45d5d4	0.0030187266
131	0x2c4f0540	2.9419384e-12
132	0x39b55d8c	0.00034592708
133	0x3c5d5c34	0.0135107525
134	0x3c60345c	0.013684358
135	0x3c9cfc36	0.019163232
136	0x2d5e8289	1.2648224e-11
137	0x3b0ee8d3	0.0021806255
138	0x2b17a007	5.386806e-13
139	0x3ba43868	0.005011607
140	0x3af7f587	0.0018917777
141	0x2d34e301	1.028222e-11
142	0x39fe795e	0.0004853708
143	0x38d78153	0.000102760874
144	0x3a116106	0.00055457687
145	0x3c15c068	0.0091401115
146	0x3a8850f6	0.0010400105
147	0x2c18e32f	2.1726611e-12
148	0x3b8fc419	0.0043873903
149	0x3d8e1279	0.06937117
150	0x39f5ba3f	0.00046868806
151	0x3c943ef1	0.018096419
152	0x2ccede0c	5.8795243e-12
153	0x3b88481e	0.0041589877
154	0x2dbb5855	2.1298666e-11
155	0x3a7feb42	0.0009762534
156	0x394e9df8	0.00019704539
157	0x2b889d79	9.707089e-13
158	0x398cecbb	0.0002687926
159	0x38651949	5.4621403e-05

exp_avg f4 [10]
0	0x3cadfcb7	0.021238668
1	0xbbfb4197	-0.007667731
2	0xbc097753	-0.0083902655
3	0xbc9d45a0	-0.019198239
4	0xbc14df31	-0.009086416
5	0x3cae7b63	0.02129907
6	0x3ace85e8	0.001575646
7	0x3b56b89a	0.003276384
8	0xbbb8e62b	-0.0056426725
9	0x3b2a1a33	0.0025955557

exp_avg_sq f4 [10]
0	0x3acf0865	0.0015795348
1	0x3a899285	0.0010495937
2	0x3b104a71	0.0022017027
3	0x3aae193f	0.001328267
4	0x3b4687a5	0.0030293253
5	0x3a99686a	0.0011704091
6	0x3b41eae1	0.0029589462
7	0x3ab0f4aa	0.001350065
8	0x3a199b10	0.0005859593
9	0x3a348ad0	0.000688714
