course/week3/fashion_project/checkpoints/random.ckpt (torch, 160739 bytes, 12 tensors)

model.0.weight f4 [16, 784]
0	0x3e9e53c7	0.30923292
1	0x3c6c4ac8	0.014422126
2	0x3d7f8f86	0.062392734
3	0xbe9d4d2c	-0.3072294
4	0xbf301f6d	-0.6879795
5	0xbf5a44b9	-0.8526111
6	0xbf98f3db	-1.1949419
7	0xbf2869a5	-0.657862
8	0x3e29d0c2	0.16583541
9	0x3d5c9454	0.053852394
10	0x3f36de52	0.71432984
11	0x3f256c36	0.6461824
12	0xbd79327c	-0.06083916
13	0xbf5d9a9d	-0.86564046
14	0xbf8ca4ce	-1.0987794
15	0xbf940d10	-1.1566486
16	0xbeaaf2af	-0.33388278
17	0x3e3045f6	0.17214188
18	0x3deabe1f	0.11462044
19	0xbe114b7b	-0.1418895
20	0xbf3e7a80	-0.7440567
21	0xbf2563d7	-0.6460547
22	0xbeadec49	-0.33969334
23	0xbe98cd9c	-0.29844368
24	0xbd1ce164	-0.038300887
25	0xbe4327f7	-0.19058214
26	0x3e4743c6	0.19459447
27	0xbb83483f	-0.004006415
28	0x3e67857e	0.22609517
29	0xbdfe69f6	-0.12422554
30	0x3e6be7a6	0.23037586
31	0xbeacc0fc	-0.33740985
32	0xbf1f979b	-0.62340707
33	0xbeeb405c	-0.4594754
34	0xbdd74e6f	-0.10513007
35	0x3e994f5a	0.29943353
36	0xbbca7935	-0.006179
37	0x3c90f5be	0.017695304
38	0xbe2bdf79	-0.16784467
39	0x3d94db33	0.072683714
40	0x3c7915f2	0.015202986
41	0xbcb30e1d	-0.021857316
42	0x3e6261fe	0.22107694
43	0x3cd15e8e	0.025557783
44	0x3d8cb09b	0.06869622
45	0xbd5013bd	-0.050800074
46	0xbe522e41	-0.20525457
47	0xbe3cb336	-0.18427739
48	0x3eb6f0da	0.3573063
49	0xbd8593e0	-0.065223455
50	0xbdc494d2	-0.09598698
51	0xbefc02f0	-0.4922099
52	0xbeddcdee	-0.43321174
53	0xbea0d9c9	-0.31416157
54	0xbd638f1f	-0.055556413
55	0xbf29e719	-0.6636825
56	0xbe4accf1	-0.19804741
57	0xbe5f575f	-0.21810673
58	0x3d007a90	0.031366885
59	0xbdc264ba	-0.09491868
60	0xbebb4e94	-0.36583388
61	0x3e852483	0.2600442
62	0x3f1e6ec0	0.6188774
63	0x39af8429	0.00033477068
64	0xbe9965b1	-0.29960397
65	0xbee5b53a	-0.44864827
66	0xbf06e7be	-0.5269736
67	0xbe774c74	-0.24150258
68	0xbed8b234	-0.42323458
69	0xbe88bdd2	-0.2670732
70	0xbd9a9f39	-0.075499006
71	0xbed1a7a4	-0.40948212
72	0xbeaa32ac	-0.33241785
73	0xbee610a3	-0.44934568
74	0xbea5b191	-0.32362035
75	0xbe2fb284	-0.17157942
76	0x3eced57d	0.40397254
77	0x3f0e8aac	0.55680346
78	0x3f2e56c0	0.6810112
79	0x3f00c29c	0.5029695
80	0xbe952f31	-0.29137567
81	0xbf64f659	-0.89438397
82	0xbcea6712	-0.0286136
83	0xbf025202	-0.50906384
84	0xbf052534	-0.5200989
85	0x3c56d682	0.013112666
86	0xbe693949	-0.22775759
87	0xbe6c6de7	-0.230888
88	0x3e4e9053	0.20172243
89	0x3f1f8e96	0.62326944
90	0x3d90f8cc	0.07078704
91	0xbf04d194	-0.5188229
92	0xbe9f3f5c	-0.31103027
93	0xbec1d2b9	-0.3785608
94	0xbecd3304	-0.40077984
95	0xbe614845	-0.22000225
96	0x3ee60564	0.44925988
97	0xbeafbadb	-0.34322247
98	0xbf755ca5	-0.9584449
99	0xbe86e217	-0.26344368
100	0xbe879de6	-0.26487654
101	0xbe9d5059	-0.30725363
102	0xbf092a80	-0.53580475
103	0xbe00dab1	-0.12583424
104	0x3d7f92b4	0.062395766
105	0x3e5ef6b3	0.21773796
106	0x3f3bff9c	0.73436904
107	0x3f1e3925	0.61805946
108	0x3d57127d	0.052507866
109	0xbf121a16	-0.57071054
110	0x3d18abd9	0.03727326
111	0x3f04c989	0.5187002
112	0xbbf946c5	-0.0076073133
113	0x3e40899a	0.18802491
114	0x3d8bc221	0.068241365
115	0x3ecee2e2	0.40407473
116	0x3f0330ce	0.51246345
117	0x3e4a1187	0.19733249
118	0xbe01e2b6	-0.1268414
119	0xbf0da985	-0.5533679
120	0xbef2a8c4	-0.47394383
121	0xbddd1a0b	-0.10795983
122	0xbe76f1af	-0.24115632
123	0xbf047c44	-0.51752114
124	0xbe2b16bb	-0.1670789
125	0xbe9acc10	-0.30233812
126	0xbf14d0c8	-0.58131075
127	0xbe29d3fa	-0.16584769
128	0xbf10751d	-0.564287
129	0xbf1d7d48	-0.6151929
130	0xbe391911	-0.18075968
131	0xbecfa300	-0.40554047
132	0xbece0422	-0.40237528
133	0xbda59e6e	-0.08086859
134	0x3e9a0a6b	0.30086073
135	0x3e772769	0.24136128
136	0xbe72f253	-0.23725252
137	0xbdf0e810	-0.117630124
138	0x3e74e980	0.23917198
139	0xbe9d0504	-0.3066789
140	0xbc99f1d0	-0.018792063
141	0xbb910432	-0.004425549
142	0x3eb390d3	0.3507143
143	0x3e044f41	0.12920858
144	0x3e7fa7f8	0.24966419
145	0x3e048e40	0.12944889
146	0xbed29784	-0.41131222
147	0xbef419c5	-0.4767591
148	0xbf0bc922	-0.5460378
149	0xbeba7d99	-0.36423948
150	0xbec5756a	-0.38566142
151	0xbf1f45da	-0.6221596
152	0xbe8c84b0	-0.27444983
153	0xbf05f601	-0.523285
154	0xbf0adeac	-0.5424602
155	0xbe8561c9	-0.26051167
156	0xbf0b739e	-0.5447329
157	0xbf021636	-0.5081514
158	0xbe923bfe	-0.28561395
159	0xbe7c2c64	-0.24626309
160	0xbbd65744	-0.0065411646
161	0x3d8b3506	0.06797223
162	0x3e9055f5	0.2819058
163	0x3db0fc21	0.0864184
164	0xbd895734	-0.06706086
165	0x3e76f749	0.2411777
166	0x3d78aea3	0.06071342
167	0xbf3e4700	-0.7432709
168	0xbee2cf9c	-0.44299018
169	0xbf30d919	-0.69081265
170	0x3ca7aba2	0.020467583
171	0x3e53998f	0.20664047
172	0x3e981798	0.297055
173	0xbe8f3f68	-0.27978063
174	0xbeb0a99a	-0.34504396
175	0xbdc7bd57	-0.097529106
176	0xbf0dfe73	-0.55466384
177	0xbf4cb685	-0.79966
178	0xbee5fda1	-0.44920066
179	0xbf3edd0c	-0.7455604
180	0xbebd2eb8	-0.36949706
181	0xbe91bc32	-0.28463894
182	0xbf609907	-0.877335
183	0xbd384849	-0.04499081
184	0xbf0d4f68	-0.5519929
185	0xbf33a382	-0.7017137
186	0xbec73f53	-0.389155
187	0xbed62348	-0.41823792
188	0x3ccb3008	0.024803177
189	0x3e841453	0.25796756
190	0x3d288993	0.041146826
191	0x3d142ce8	0.03617564
192	0xbd144244	-0.03619601
193	0xbde09a6c	-0.10966954
194	0xbf0e2496	-0.55524576
195	0xbf9892c8	-1.1919794
196	0xbf65881f	-0.8966083
197	0xbf17ff67	-0.5937409
198	0x3e2858b6	0.1644009
199	0x3e622470	0.22084212
200	0xbca07299	-0.019585894
201	0xbf44534e	-0.7668961
202	0xbeca90dd	-0.39563647
203	0x3dd2deb4	0.102963835
204	0xbea36999	-0.31916502
205	0xbf4ea535	-0.80720836
206	0xbf129526	-0.5725883
207	0xbede8442	-0.4346028
208	0xbdd9f1d1	-0.10641826
209	0xbeb295df	-0.34879968
210	0xbe64e120	-0.22351503
211	0x3b6fe6f5	0.0036606167
212	0xbef799a2	-0.483594
213	0xbed4c90a	-0.4155963
214	0xbf128d98	-0.57247305
215	0xbf5d609f	-0.8647556
216	0xbe7947be	-0.24343774
217	0x3c064ada	0.008196557
218	0xbd964f8e	-0.073393926
219	0x3e2322b6	0.1593121
220	0xbd1997d1	-0.0374983
221	0xbe9cdf98	-0.30639338
222	0xbef19003	-0.47180185
223	0xbe33615b	-0.17517607
224	0xbf804770	-1.0021801
225	0xbf0ec993	-0.5577633
226	0x3ecd9906	0.4015581
227	0x3dff6509	0.12470443
228	0xbeb9b7e9	-0.36273125
229	0xbf863239	-1.0484077
230	0xbf302541	-0.68806845
231	0x3e412096	0.18860087
232	0xbedfbb04	-0.4369737
233	0xbee91774	-0.45525706
234	0xbdd46f5c	-0.103728026
235	0xbe81f3bd	-0.2538127
236	0x3b8f20d0	0.004367925
237	0x3ed909dc	0.42390335
238	0x3db48037	0.088135175
239	0x3ebc8cfd	0.36826316
240	0xbe067e93	-0.13134222
241	0xbea3bf9b	-0.3198212
242	0xbe77b57b	-0.24190323
243	0xbe724be8	-0.23661768
244	0xbd8f59a0	-0.069995165
245	0xbd865e3c	-0.065609425
246	0xbe58d6e2	-0.21175721
247	0xbe2ae9ef	-0.16690801
248	0xbcfae3d9	-0.030626224
249	0x3b5e399a	0.0033908845
250	0xbdd00831	-0.101578124
251	0x3ecfef90	0.4061246
252	0xbfa44570	-1.2833691
253	0xbf502bb0	-0.8131666
254	0xbcdd5bde	-0.027021345
255	0x3eb38e0d	0.35069314

model.0.bias f4 [16]
0	0x3fee8946	1.8635643
1	0x3eb2d8a4	0.3493091
2	0x3eb56c35	0.35434118
3	0xbd62c211	-0.055360857
4	0x3e084334	0.13306886
5	0x3e8bb4da	0.27286416
6	0xbf3c3020	-0.7351093
7	0x3f7907ba	0.97277415
8	0xbcf8006b	-0.030273637
9	0x3fc050e7	1.502469
10	0xbd2d7f7b	-0.042357903
11	0xbe8c40ef	-0.2739329
12	0x3f2b7f5e	0.6699122
13	0x3ba4a32a	0.0050243335
14	0x3f1c6203	0.61087054
15	0x3f97964b	1.1842741

model.2.weight f4 [10, 16]
0	0xbc8813a3	-0.016610926
1	0xbe7bd915	-0.24594529
2	0x3e5dc95c	0.21658844
3	0x3d8e7c62	0.06957318
4	0xbe24bb76	-0.16087136
5	0xbf07f569	-0.5310884
6	0x3d3ffd3c	0.046872362
7	0x3c1e8c58	0.009677015
8	0xbe71ed04	-0.2362557
9	0xbe88f32c	-0.26748025
10	0xbd9d0bbd	-0.076682545
11	0xbe43500a	-0.19073501
12	0x3d318884	0.043343082
13	0xbddb6f0d	-0.10714541
14	0x3db31446	0.08744101
15	0xbe37f0cb	-0.17962949
16	0xbee6b544	-0.4506017
17	0x3e28d703	0.1648827
18	0xbf0dd781	-0.5540696
19	0xbe53b30a	-0.20673767
20	0xbdcd1840	-0.10014391
21	0xbf32f24e	-0.6990098
22	0x3e4725da	0.19448033
23	0xbf196fdf	-0.59936327
24	0x3daae5ec	0.08344635
25	0xbf08c142	-0.5341989
26	0xba15af18	-0.000570999
27	0x3e796f36	0.2435883
28	0x3d931c3c	0.0718312
29	0xbe5674ac	-0.20942944
30	0x3eefee13	0.46861324
31	0x3f1bfe6c	0.6093509
32	0x3b05ca85	0.00204149
33	0xbe9bcd57	-0.304301
34	0x3d836bfa	0.06417079
35	0x3e2cb191	0.16864611
36	0xbd1fd939	-0.03902552
37	0xbf4c0c30	-0.79706097
38	0x3e240894	0.16018897
39	0x3c5b48b7	0.013384036
40	0x3e554efb	0.2083091
41	0xbe8bf2cd	-0.2733368
42	0x3e5b8836	0.21438679
43	0x3e1c6fd8	0.1527704
44	0xbeff31fa	-0.49842817
45	0x3e4792dc	0.19489616
46	0xbf034513	-0.51277274
47	0x3e33c4dd	0.17555566
48	0xbefe126c	-0.4962343
49	0x3e2003e2	0.15626481
50	0x3e467be2	0.19383195
51	0xbe84a9da	-0.25910836
52	0xbd5d71e5	-0.054063696
53	0xbef9ea7d	-0.48811713
54	0xbdbc041f	-0.091804735
55	0xbd8f97ba	-0.070113614
56	0x3e3d00a1	0.18457271
57	0x3d48e11a	0.0490428
58	0x3dfb504a	0.12271173
59	0x3e19b70a	0.1501123
60	0x3e8627ef	0.26202342
61	0x3b8b97e3	0.0042600497
62	0xbc949531	-0.018137546
63	0xbbd1e50a	-0.0064054774
64	0xbe74b64b	-0.23897664
65	0xbf0fff06	-0.5624851
66	0x3cf2b264	0.029626079
67	0x3e63bc2e	0.22239754
68	0x3e06e280	0.1317234
69	0xbf076874	-0.5289376
70	0x3e7ad048	0.24493515
71	0xbe7181c1	-0.23584653
72	0xbd46d9bd	-0.048547495
73	0x3e04961f	0.12947892
74	0x3df149c6	0.11781649
75	0x3e8451f7	0.25843784
76	0x3c28f38b	0.010311971
77	0x3e0fabd9	0.14030398
78	0xbf1d24e4	-0.61384416
79	0xbc4c9b3f	-0.012488185
80	0x3f040b52	0.51579773
81	0x3cfa89ce	0.030583289
82	0x3e84c9f9	0.25935343
83	0xbe30252c	-0.1720168
84	0x3f09c9f5	0.53823787
85	0x3e1a2aec	0.15055436
86	0xbfa7f5a2	-1.3121836
87	0x3e5e470c	0.2170679
88	0x3e484090	0.19555879
89	0x3ec7ad48	0.3899939
90	0x3d0cedeb	0.034406584
91	0x3e983cf7	0.29734012
92	0xbf155da6	-0.5834602
93	0x3ca7a7a6	0.020465683
94	0xbecde3f1	-0.40212968
95	0x3f4bb303	0.79570025
96	0xbcf413eb	-0.029794654
97	0xbf0b1a5e	-0.5433711
98	0x3d86a881	0.06575108
99	0x3e1ea560	0.15492773
100	0x3ecb3853	0.3969141
101	0xbf5236b5	-0.82114726
102	0x3d96260f	0.07331478
103	0xbb4ebec8	-0.003154682
104	0xbdc0d964	-0.09416464
105	0xbbfb1a1e	-0.0076630255
106	0x3ced3436	0.02895556
107	0xbdb2e0cf	-0.08734285
108	0xbed6f997	-0.41987297
109	0xbdefc779	-0.11707968
110	0xbbacc621	-0.0052726422
111	0xbdeb22c8	-0.11481243
112	0xbeb4dcb6	-0.3532464
113	0x3e30d103	0.17267232
114	0xbee05a92	-0.438191
115	0xbe30b1c7	-0.17255317
116	0xbf0b1908	-0.5433507
117	0x3e1fcf9e	0.15606543
118	0xbf6e64af	-0.9312238
119	0x3e549539	0.20760049
120	0xbcc00aea	-0.023442704
121	0x3f0f9c56	0.56097925
122	0x3e08e409	0.13368239
123	0xbef19cbf	-0.471899
124	0xbfdc1272	-1.7193129
125	0x3de162d5	0.11005179
126	0xc0058595	-2.0862782
127	0xbee23756	-0.44182843
128	0xbc040b9c	-0.0080594085
129	0xbf4758c4	-0.7786982
130	0x3daaa208	0.08331686
131	0x3e01c8b9	0.12674226
132	0xbf21f5e3	-0.6326582
133	0x3e90c8ad	0.28278103
134	0xbe612fe1	-0.2199092
135	0x3e648940	0.22317982
136	0x3dc59ace	0.09648667
137	0xbebf3db0	-0.3735175
138	0xbe60f572	-0.2196863
139	0x3e9a043f	0.30081365
140	0xbd21b4a1	-0.0394789
141	0x3e15457d	0.14577289
142	0xbf135f4b	-0.5756728
143	0xbf5a65c8	-0.85311556
144	0xbeff681e	-0.49884123
145	0x3e81dece	0.253653
146	0xbcc4d9df	-0.02402967
147	0x3e17aa38	0.14811027
148	0x3e0c2858	0.13687265
149	0x3ea4b41a	0.32168657
150	0xbf84e152	-1.0381262
151	0x3ebd6322	0.36989695
152	0x3dae0d9a	0.08498688
153	0x3b1cdcc1	0.002393529
154	0xbd1241f7	-0.03570744
155	0xbebd60e3	-0.3698798
156	0xbe96c700	-0.294487
157	0xbe093f28	-0.13402998
158	0xbf013e8b	-0.5048606
159	0xbec237b6	-0.3793313

model.2.bias f4 [10]
0	0x3eccff26	0.40038413
1	0x3e0fcbc7	0.14042579
2	0x3f430520	0.76179695
3	0xbdca41c6	-0.098758265
4	0x3ed352d1	0.4127412
5	0xbf127523	-0.57209986
6	0x3f107232	0.5642425
7	0xbf2393cc	-0.63897395
8	0xbeb411c7	-0.35169813
9	0xbfd4fac0	-1.6639023

exp_avg f4 [16, 784]
0	0xb468c6ac	-2.167896e-07
1	0xb468c6ac	-2.167896e-07
2	0xb468c6ac	-2.167896e-07
3	0xb468c6ac	-2.167896e-07
4	0xb468c6ac	-2.167896e-07
5	0xb468c6ac	-2.167896e-07
6	0xb468c6ac	-2.167896e-07
7	0xb468c6ac	-2.167896e-07
8	0xb468c6ac	-2.167896e-07
9	0xb468c6ac	-2.167896e-07
10	0xb468c6ac	-2.167896e-07
11	0xb468c6ac	-2.167896e-07
12	0xb468c6ac	-2.167896e-07
13	0xb468c6ac	-2.167896e-07
14	0xb468c6ac	-2.167896e-07
15	0xb468c6ac	-2.167896e-07
16	0xb468c6ac	-2.167896e-07
17	0xb468c6ac	-2.167896e-07
18	0xb468c6ac	-2.167896e-07
19	0xb468c6ac	-2.167896e-07
20	0xb468c6ac	-2.167896e-07
21	0xb468c6ac	-2.167896e-07
22	0xb468c6ac	-2.167896e-07
23	0xb468c6ac	-2.167896e-07
24	0xb468c6ac	-2.167896e-07
25	0xb468c6ac	-2.167896e-07
26	0xb468c6ac	-2.167896e-07
27	0xb468c6ac	-2.167896e-07
28	0xb468c6ac	-2.167896e-07
29	0xb468c6ac	-2.167896e-07
30	0xb468c6ac	-2.167896e-07
31	0xb468c6ac	-2.167896e-07
32	0xb468c6ac	-2.167896e-07
33	0xb468c6ac	-2.167896e-07
34	0xb468c6ac	-2.167896e-07
35	0xb468c6ac	-2.167896e-07
36	0xb468c6ac	-2.167896e-07
37	0xb468c6ac	-2.167896e-07
38	0xb468c6ac	-2.167896e-07
39	0xb468c6ac	-2.167896e-07
40	0xb468c6ac	-2.167896e-07
41	0xb468c6ac	-2.167896e-07
42	0xb468c6ac	-2.167896e-07
43	0xb468c6ac	-2.167896e-07
44	0xb468c6ac	-2.167896e-07
45	0xb468c6ac	-2.167896e-07
46	0xb468c6ac	-2.167896e-07
47	0xb468c6ac	-2.167896e-07
48	0xb8713e4f	-5.7516907e-05
49	0xb468c6ac	-2.167896e-07
50	0xb468c6ac	-2.167896e-07
51	0xb468c6ac	-2.167896e-07
52	0xb468c6ac	-2.167896e-07
53	0xb468c6ac	-2.167896e-07
54	0xb468c6ac	-2.167896e-07
55	0xb468c6ac	-2.167896e-07
56	0xb468c6ac	-2.167896e-07
57	0xb468c6ac	-2.167896e-07
58	0xb468c6ac	-2.167896e-07
59	0xb468c6ac	-2.167896e-07
60	0xb468c6ac	-2.167896e-07
61	0xb468c6ac	-2.167896e-07
62	0xb468c6ac	-2.167896e-07
63	0xb468c6ac	-2.167896e-07
64	0xb468c6ac	-2.167896e-07
65	0xb468c6ac	-2.167896e-07
66	0xb468c6ac	-2.167896e-07
67	0xb468c6ac	-2.167896e-07
68	0xb468c6ac	-2.167896e-07
69	0xb468c6ac	-2.167896e-07
70	0xb468c6ac	-2.167896e-07
71	0xb468c6ac	-2.167896e-07
72	0xb468c6ac	-2.167896e-07
73	0xb468c6ac	-2.167896e-07
74	0xb468c6ac	-2.167896e-07
75	0xb468c6ac	-2.167896e-07
76	0xb8e89877	-0.00011091021
77	0xb8e5dd50	-0.000109607936
78	0xb468c6ac	-2.167896e-07
79	0xb468c6ac	-2.167896e-07
80	0xb468c6ac	-2.167896e-07
81	0xb468c6ac	-2.167896e-07
82	0xb468c6ac	-2.167896e-07
83	0xb468c6ac	-2.167896e-07
84	0xb468c6ac	-2.167896e-07
85	0xb468c6ac	-2.167896e-07
86	0xb468c6ac	-2.167896e-07
87	0xb468c6ac	-2.167896e-07
88	0xb468c6ac	-2.167896e-07
89	0xb468c6ac	-2.167896e-07
90	0xb468c6ac	-2.167896e-07
91	0xb468c6ac	-2.167896e-07
92	0xb468c6ac	-2.167896e-07
93	0xb468c6ac	-2.167896e-07
94	0xb468c6ac	-2.167896e-07
95	0xb468c6ac	-2.167896e-07
96	0xb468c6ac	-2.167896e-07
97	0xb468c6ac	-2.167896e-07
98	0xb468c6ac	-2.167896e-07
99	0xb468c6ac	-2.167896e-07
100	0xb468c6ac	-2.167896e-07
101	0xb468c6ac	-2.167896e-07
102	0xb468c6ac	-2.167896e-07
103	0xb9166fa6	-0.00014346707
104	0xb9035194	-0.00012523524
105	0xb8b4b48b	-8.6166976e-05
106	0xb8b4b48b	-8.6166976e-05
107	0xb468c6ac	-2.167896e-07
108	0xb468c6ac	-2.167896e-07
109	0xb468c6ac	-2.167896e-07
110	0xb468c6ac	-2.167896e-07
111	0xb468c6ac	-2.167896e-07
112	0xb468c6ac	-2.167896e-07
113	0xb468c6ac	-2.167896e-07
114	0xb468c6ac	-2.167896e-07
115	0xb468c6ac	-2.167896e-07
116	0xb468c6ac	-2.167896e-07
117	0xb468c6ac	-2.167896e-07
118	0xb468c6ac	-2.167896e-07
119	0xb468c6ac	-2.167896e-07
120	0xb468c6ac	-2.167896e-07
121	0xb468c6ac	-2.167896e-07
122	0xb468c6ac	-2.167896e-07
123	0xb468c6ac	-2.167896e-07
124	0xb468c6ac	-2.167896e-07
125	0xb468c6ac	-2.167896e-07
126	0xb468c6ac	-2.167896e-07
127	0xb468c6ac	-2.167896e-07
128	0xb468c6ac	-2.167896e-07
129	0xb468c6ac	-2.167896e-07
130	0xb8a19677	-7.7051045e-05
131	0xb9347a59	-0.00017211716
132	0xb83528ee	-4.319188e-05
133	0xb81f4fb2	-3.7982776e-05
134	0xb9076a4f	-0.00012914206
135	0xb4e8c6ac	-4.335792e-07
136	0xb468c6ac	-2.167896e-07
137	0xb468c6ac	-2.167896e-07
138	0xb468c6ac	-2.167896e-07
139	0xb468c6ac	-2.167896e-07
140	0xb468c6ac	-2.167896e-07
141	0xb468c6ac	-2.167896e-07
142	0xb468c6ac	-2.167896e-07
143	0xb468c6ac	-2.167896e-07
144	0xb468c6ac	-2.167896e-07
145	0xb468c6ac	-2.167896e-07
146	0xb468c6ac	-2.167896e-07
147	0xb468c6ac	-2.167896e-07
148	0xb468c6ac	-2.167896e-07
149	0xb468c6ac	-2.167896e-07
150	0xb468c6ac	-2.167896e-07
151	0xb468c6ac	-2.167896e-07
152	0xb468c6ac	-2.167896e-07
153	0xb468c6ac	-2.167896e-07
154	0xb468c6ac	-2.167896e-07
155	0xb468c6ac	-2.167896e-07
156	0xb748462c	-1.1937267e-05
157	0xb8c51776	-9.398062e-05
158	0xb90e80f8	-0.0001359022
159	0xb9347a59	-0.00017211716
160	0xb468c6ac	-2.167896e-07
161	0xb4e8c6ac	-4.335792e-07
162	0xb84beaef	-4.861777e-05
163	0xb927263e	-0.00015940607
164	0xb7146eca	-8.8472825e-06
165	0xb5028f17	-4.8636997e-07
166	0xb468c6ac	-2.167896e-07
167	0xb468c6ac	-2.167896e-07
168	0xb468c6ac	-2.167896e-07
169	0xb468c6ac	-2.167896e-07
170	0xb468c6ac	-2.167896e-07
171	0xb468c6ac	-2.167896e-07
172	0xb468c6ac	-2.167896e-07
173	0xb468c6ac	-2.167896e-07
174	0xb468c6ac	-2.167896e-07
175	0xb468c6ac	-2.167896e-07
176	0xb468c6ac	-2.167896e-07
177	0xb468c6ac	-2.167896e-07
178	0xb468c6ac	-2.167896e-07
179	0xb468c6ac	-2.167896e-07
180	0xb468c6ac	-2.167896e-07
181	0xb5cbe2af	-1.5190652e-06
182	0xb468c6ac	-2.167896e-07
183	0xb468c6ac	-2.167896e-07
184	0xb90e3e31	-0.00013565343
185	0xb957a8e2	-0.00020566912
186	0xb8db6516	-0.000104615625
187	0xb8996501	-7.314422e-05
188	0xb73f7457	-1.1411575e-05
189	0xb4e8c6ac	-4.335792e-07
190	0xb81e917b	-3.7805625e-05
191	0xb93fe271	-0.00018299535
192	0xb935373c	-0.00017282082
193	0xb8d9df9b	-0.00010389016
194	0xb6117147	-2.167262e-06
195	0xb468c6ac	-2.167896e-07
196	0xb468c6ac	-2.167896e-07
197	0xb468c6ac	-2.167896e-07
198	0xb468c6ac	-2.167896e-07
199	0xb468c6ac	-2.167896e-07
200	0xb468c6ac	-2.167896e-07
201	0xb468c6ac	-2.167896e-07
202	0xb468c6ac	-2.167896e-07
203	0xb468c6ac	-2.167896e-07
204	0xb468c6ac	-2.167896e-07
205	0xb468c6ac	-2.167896e-07
206	0xb468c6ac	-2.167896e-07
207	0xb468c6ac	-2.167896e-07
208	0xb468c6ac	-2.167896e-07
209	0xb468c6ac	-2.167896e-07
210	0xb468c6ac	-2.167896e-07
211	0xb86651b3	-5.491236e-05
212	0xb8bce407	-9.007012e-05
213	0xb831824c	-4.2321437e-05
214	0xb602ec3d	-1.9509018e-06
215	0xb80461a7	-3.15622e-05
216	0xb7ced55f	-2.4656472e-05
217	0xb7cb9a1b	-2.4271247e-05
218	0x37aef37b	2.0855796e-05
219	0xb91afd38	-0.00014780916
220	0xb8ed030a	-0.00011301607
221	0xb8cff6bb	-9.916486e-05
222	0xb88efd70	-6.818294e-05
223	0xb468c6ac	-2.167896e-07
224	0xb468c6ac	-2.167896e-07
225	0xb468c6ac	-2.167896e-07
226	0xb468c6ac	-2.167896e-07
227	0xb468c6ac	-2.167896e-07
228	0xb468c6ac	-2.167896e-07
229	0xb468c6ac	-2.167896e-07
230	0xb468c6ac	-2.167896e-07
231	0xb468c6ac	-2.167896e-07
232	0xb468c6ac	-2.167896e-07
233	0xb468c6ac	-2.167896e-07
234	0xb468c6ac	-2.167896e-07
235	0xb468c6ac	-2.167896e-07
236	0xb468c6ac	-2.167896e-07
237	0xb706ba7c	-8.030442e-06
238	0xb7903ce8	-1.71945e-05
239	0xb8f25342	-0.00011554967
240	0xb8daae23	-0.000104274855
241	0xb468c6ac	-2.167896e-07
242	0xb7df0691	-2.658673e-05
243	0xb81e4586	-3.7734884e-05
244	0xb83408d1	-4.2923555e-05
245	0xb812fc14	-3.504388e-05
246	0xb87248db	-5.7765148e-05
247	0xb848a430	-4.7836627e-05
248	0xb8da51ac	-0.000104102626
249	0xb97e4ccc	-0.00024251937
250	0xb923feaa	-0.00015639761
251	0xb6630518	-3.38286e-06
252	0xb468c6ac	-2.167896e-07
253	0xb468c6ac	-2.167896e-07
254	0xb468c6ac	-2.167896e-07
255	0xb468c6ac	-2.167896e-07

exp_avg_sq f4 [16, 784]
0	0x324246fc	1.1308426e-08
1	0x32428ba3	1.1324036e-08
2	0x324349fd	1.1367317e-08
3	0x32620309	1.31556215e-08
4	0x328379a9	1.5305732e-08
5	0x329cf42a	1.8271823e-08
6	0x337df188	5.9125824e-08
7	0x33c6ee09	9.263392e-08
8	0x3436c81e	1.7022873e-07
9	0x34b45b28	3.3593938e-07
10	0x3546731d	7.392826e-07
11	0x359d2ae3	1.1709893e-06
12	0x35ad1212	1.2894764e-06
13	0x35c387a9	1.4568114e-06
14	0x35c954df	1.5000368e-06
15	0x35f566b3	1.8283812e-06
16	0x3631b701	2.6481578e-06
17	0x36347a35	2.6893224e-06
18	0x359f83dc	1.1884799e-06
19	0x35b0c641	1.3170721e-06
20	0x359db338	1.1749571e-06
21	0x357da749	9.4493276e-07
22	0x35851ccc	9.917653e-07
23	0x35151813	5.554186e-07
24	0x34372768	1.7057539e-07
25	0x33a8707f	7.8435725e-08
26	0x32af11a8	2.038071e-08
27	0x32d8aa7e	2.522324e-08
28	0x32424a7a	1.130922e-08
29	0x32428c7d	1.13242296e-08
30	0x324d0063	1.1932658e-08
31	0x32cda4e7	2.394013e-08
32	0x331d4b52	3.6622914e-08
33	0x33be6e9e	8.8676856e-08
34	0x34a506ba	3.073854e-07
35	0x34f6846d	4.5917423e-07
36	0x3584a887	9.883814e-07
37	0x35afb81e	1.3092101e-06
38	0x35f565b9	1.8283528e-06
39	0x3639a1bc	2.766129e-06
40	0x36900087	4.291596e-06
41	0x36c8f46b	5.9889185e-06
42	0x36d5c278	6.370534e-06
43	0x370b2a2a	8.294863e-06
44	0x3705c095	7.972257e-06
45	0x36f6a1c6	7.350204e-06
46	0x371cb116	9.339556e-06
47	0x36f2ec17	7.2396465e-06
48	0x36e111cc	6.7075944e-06
49	0x369460d4	4.422016e-06
50	0x368dca5d	4.2256856e-06
51	0x3645dc85	2.9483647e-06
52	0x35cbd4a4	1.5186565e-06
53	0x34a8eee9	3.1466269e-07
54	0x33e1247b	1.0484015e-07
55	0x32fcaa9b	2.9414243e-08
56	0x3242645c	1.1315105e-08
57	0x3243b209	1.1390974e-08
58	0x32600940	1.3040619e-08
59	0x3313a7f0	3.4378843e-08
60	0x3425ba23	1.5434539e-07
61	0x34aa22f5	3.1690402e-07
62	0x353dea5f	7.074904e-07
63	0x35804756	9.557505e-07
64	0x3592fc9a	1.0951364e-06
65	0x35c3401e	1.4547293e-06
66	0x35e57aff	1.7097626e-06
67	0x361cecb6	2.3383595e-06
68	0x3680407c	3.8222042e-06
69	0x36b5e898	5.421298e-06
70	0x36f3f91a	7.2709636e-06
71	0x371bd0e5	9.287357e-06
72	0x371c2def	9.309019e-06
73	0x372db37b	1.0353392e-05
74	0x37403afe	1.1457827e-05
75	0x3789942a	1.6400667e-05
76	0x375fbb1c	1.3335401e-05
77	0x373357b8	1.0689655e-05
78	0x3710e5aa	8.636542e-06
79	0x36e77888	6.898368e-06
80	0x36bf41fb	5.6999247e-06
81	0x3613bb26	2.2013642e-06
82	0x356f8d92	8.924045e-07
83	0x32b763f7	2.1349463e-08
84	0x32435f20	1.1372123e-08
85	0x325446ba	1.23561055e-08
86	0x32c5970a	2.3002503e-08
87	0x337dfb24	5.9134564e-08
88	0x34663a76	2.1441687e-07
89	0x34efe304	4.4682395e-07
90	0x358f7940	1.0689619e-06
91	0x3593a2b8	1.0999711e-06
92	0x35b90361	1.3784557e-06
93	0x35cb1ec5	1.5133634e-06
94	0x36003c60	1.910863e-06
95	0x36293225	2.521215e-06
96	0x368045de	3.822831e-06
97	0x36c8c14e	5.982968e-06
98	0x36fb2cf3	7.4856157e-06
99	0x37253a09	9.848279e-06
100	0x37577d2a	1.2844141e-05
101	0x377e23d4	1.5147922e-05
102	0x37978c29	1.806587e-05
103	0x37a5ff4b	1.9788413e-05
104	0x37c537c5	2.35102e-05
105	0x37c1f005	2.311916e-05
106	0x3764fda7	1.3648917e-05
107	0x3751d59c	1.2507106e-05
108	0x3718a2cb	9.097809e-06
109	0x368cbc42	4.1942412e-06
110	0x35f9800c	1.8589212e-06
111	0x345e42c8	2.0699656e-07
112	0x324c04d2	1.1875459e-08
113	0x32760e16	1.4322287e-08
114	0x33003a9d	2.985563e-08
115	0x33acc39c	8.044955e-08
116	0x349f6e8c	2.969649e-07
117	0x3544a288	7.3252204e-07
118	0x359b963a	1.1592122e-06
119	0x35b0d5dd	1.3175264e-06
120	0x35d4bfb3	1.5851023e-06
121	0x35ed505a	1.7681261e-06
122	0x3628a5b0	2.5130394e-06
123	0x36492db2	2.9977932e-06
124	0x3696825f	4.4855256e-06
125	0x36df96ad	6.663459e-06
126	0x375ba267	1.3091229e-05
127	0x3773421c	1.4499321e-05
128	0x378e86c4	1.6990474e-05
129	0x37ab2e98	2.0406485e-05
130	0x37bd264c	2.254839e-05
131	0x37d894a4	2.5818423e-05
132	0x37ebbbd4	2.8101647e-05
133	0x37ed0b04	2.8257731e-05
134	0x37eaf12c	2.8007278e-05
135	0x3797faaf	1.8117336e-05
136	0x3751b235	1.2498863e-05
137	0x36d2ef25	6.286328e-06
138	0x360b726d	2.0779219e-06
139	0x33b66065	8.4925695e-08
140	0x32462a09	1.15346745e-08
141	0x329e7e82	1.845115e-08
142	0x32b8e8a7	2.1526217e-08
143	0x33b71c92	8.5267985e-08
144	0x34dd8639	4.1262118e-07
145	0x35532f90	7.867284e-07
146	0x35b072bb	1.3146413e-06
147	0x35c49082	1.4645195e-06
148	0x35d5495d	1.5891088e-06
149	0x35db1d6c	1.6325334e-06
150	0x360d677f	2.107088e-06
151	0x36389306	2.7503716e-06
152	0x36ae64ba	5.19733e-06
153	0x3728469c	1.003002e-05
154	0x3775e4d4	1.4656416e-05
155	0x37872bb5	1.6113607e-05
156	0x37b14282	2.1131014e-05
157	0x37c1af6b	2.3089078e-05
158	0x37e8caa7	2.7750923e-05
159	0x37faee2b	2.9913228e-05
160	0x3803be7a	3.141023e-05
161	0x380b7664	3.3250442e-05
162	0x380b841f	3.326323e-05
163	0x38040931	3.1479813e-05
164	0x37b0d54b	2.1080157e-05
165	0x373b9559	1.1180841e-05
166	0x364e620b	3.075346e-06
167	0x33acc6b8	8.045521e-08
168	0x324797ae	1.16178125e-08
169	0x32d70f8b	2.5036362e-08
170	0x33944f6d	6.9062345e-08
171	0x33fb3945	1.16985156e-07
172	0x34d8f045	4.0407954e-07
173	0x356ea1fb	8.889762e-07
174	0x35c80fd0	1.4905763e-06
175	0x35f4bb50	1.8233932e-06
176	0x3611cd75	2.1726275e-06
177	0x361279de	2.1826631e-06
178	0x361dca74	2.3512666e-06
179	0x36737601	3.627851e-06
180	0x3700362c	7.642007e-06
181	0x374f757e	1.2365517e-05
182	0x378446f2	1.5768663e-05
183	0x37c5998d	2.3555733e-05
184	0x37e7f16a	2.7649763e-05
185	0x38059b9e	3.18546e-05
186	0x3806c011	3.2126965e-05
187	0x380bbe2b	3.331729e-05
188	0x380cac35	3.353898e-05
189	0x38143a37	3.5340167e-05
190	0x381f789d	3.8020884e-05
191	0x38271f73	3.9845192e-05
192	0x3811c99e	3.4758465e-05
193	0x37a03ba6	1.9101262e-05
194	0x3681ff0a	3.87419e-06
195	0x34c46f61	3.6588884e-07
196	0x31af492d	5.1014895e-09
197	0x330016d9	2.9823102e-08
198	0x33914332	6.7643114e-08
199	0x341d8abb	1.4672234e-07
200	0x350d3242	5.259973e-07
201	0x35975257	1.1274341e-06
202	0x3610d1ef	2.157987e-06
203	0x362fcc5e	2.619599e-06
204	0x36315a51	2.6427626e-06
205	0x3661e0d9	3.3658491e-06
206	0x364f0be5	3.0852327e-06
207	0x36ab8362	5.111492e-06
208	0x371f1327	9.481598e-06
209	0x377ca9d3	1.5059911e-05
210	0x37bfdc3b	2.2871527e-05
211	0x37f0625a	2.8656028e-05
212	0x3814bfce	3.546458e-05
213	0x3819668f	3.6573558e-05
214	0x38225549	3.8703238e-05
215	0x381d80d5	3.75517e-05
216	0x38280251	4.005648e-05
217	0x3836704b	4.3496762e-05
218	0x383a1b71	4.4371413e-05
219	0x3827983e	3.995769e-05
220	0x38207e00	3.826432e-05
221	0x37ecd557	2.8232736e-05
222	0x36f9514b	7.430242e-06
223	0x34cf5ce4	3.862434e-07
224	0x329cd673	1.825831e-08
225	0x3303bdf9	3.0673593e-08
226	0x33cde6cc	9.588038e-08
227	0x34d3c8f1	3.9448017e-07
228	0x3582f278	9.756322e-07
229	0x35e62d5a	1.7149534e-06
230	0x3619c6b4	2.2914437e-06
231	0x36515d37	3.1197685e-06
232	0x367ad3ce	3.737619e-06
233	0x36801561	3.817186e-06
234	0x36a92f72	5.042116e-06
235	0x36c4d0d6	5.865567e-06
236	0x373eacce	1.1365117e-05
237	0x37b60813	2.169985e-05
238	0x38094726	3.2729607e-05
239	0x38303052	4.200667e-05
240	0x3846162c	4.7227528e-05
241	0x38460914	4.7215333e-05
242	0x383bb9d4	4.475734e-05
243	0x383d68a5	4.515857e-05
244	0x385413fb	5.0563347e-05
245	0x385b743e	5.2321928e-05
246	0x384ab33a	4.832747e-05
247	0x38520c54	5.0079383e-05
248	0x38411c1e	4.6040972e-05
249	0x381a6f87	3.682033e-05
250	0x3771a989	1.4404192e-05
251	0x35d0d0a4	1.555793e-06
252	0x31fcd00f	7.357819e-09
253	0x3365a8d9	5.3471783e-08
254	0x34c15491	3.6010582e-07
255	0x355398b4	7.882584e-07

exp_avg f4 [16]
0	0xba2ea00a	-0.0006661421
1	0x3b235f1d	0.0024928518
2	0xb9ea525b	-0.00044693318
3	0x00000004	6e-45
4	0x39f1b24a	0.00046099938
5	0xbb8b1064	-0.0042438973
6	0x23898fb7	1.4914435e-17
7	0xbb1faf24	-0.0024365867
8	0x00000004	6e-45
9	0xbbeb5616	-0.007181893
10	0x00000004	6e-45
11	0xb976264f	-0.00023474659
12	0xbad79e25	-0.0016450329
13	0x00000004	6e-45
14	0x23ac5789	1.868535e-17
15	0xbae9a8d0	-0.0017826799

exp_avg_sq f4 [16]
0	0x397703d2	0.00023557179
1	0x3954c3ec	0.00020290882
2	0x38db9c64	0.00010471864
3	0x31066913	1.9559294e-09
4	0x39be74bc	0.00036326598
5	0x39449a8f	0.00018749594
6	0x398af056	0.00026500475
7	0x39983072	0.00029027794
8	0x2f079c27	1.2333655e-10
9	0x398eed40	0.00027261116
10	0x2ec7a8c4	9.079451e-11
11	0x3952593c	0.00020060403
12	0x3981363f	0.00024645214
13	0x2fe943ff	4.2430767e-10
14	0x398b492a	0.00026566657
15	0x392703f6	0.00015927837

exp_avg f4 [10, 16]
0	0x38c0335d	9.1648406e-05
1	0xba1a111a	-0.0005877182
2	0x39c0ed13	0.00036797728
3	0x00000004	6e-45
4	0x3a9e4d15	0.0012077416
5	0x3b291f8d	0.002580616
6	0x238be469	1.5167146e-17
7	0xbb4735eb	-0.0030397128
8	0x00000004	6e-45
9	0x3bc51b90	0.0060152486
10	0x80000004	-6e-45
11	0x38606069	5.349555e-05
12	0x3cc7e2bf	0.024400113
13	0x00000004	6e-45
14	0x24822984	5.644884e-17
15	0x3b5e865b	0.0033954594
16	0x372e360d	1.0383793e-05
17	0x3da42670	0.08015144
18	0x38e09f00	0.000107107684
19	0x80000004	-6e-45
20	0x3b1e80b3	0.0024185597
21	0x3b928270	0.004471116
22	0xa420bf37	-3.4856435e-17
23	0x3ba065f7	0.0048949677
24	0x00000004	6e-45
25	0xbb1ac973	-0.0023618608
26	0x00000004	6e-45
27	0x3a0f9c4b	0.00054783066
28	0x3dc3a6a0	0.095532656
29	0x80000004	-6e-45
30	0xa29da02e	-4.2724532e-18
31	0x3cabd41b	0.020975163
32	0x38b64e5b	8.693031e-05
33	0x3caa9f4a	0.020827908
34	0x39847b1f	0.00025268734
35	0x00000004	6e-45
36	0x3b913a3d	0.0044319914
37	0xb91a0a19	-0.00014690346
38	0x23875273	1.4671648e-17
39	0xbb9bf63e	-0.004759579
40	0x00000004	6e-45
41	0x3be71bb4	0.007052863
42	0x00000004	6e-45
43	0x398af017	0.00026500292
44	0x3c1be714	0.009515543
45	0x00000004	6e-45
46	0x20813778	2.1890156e-19
47	0x3b71c22c	0.0036889417
48	0x389cb23f	7.4718606e-05
49	0xbda1314b	-0.0787073
50	0x39c32235	0.00037218785
51	0x00000004	6e-45
52	0x3acae962	0.001548093
53	0x3bbd3851	0.0057745357
54	0xa3072ebb	-7.32826e-18
55	0xbb2f21b9	-0.002672298
56	0x00000004	6e-45
57	0xbce5e91b	-0.028065255
58	0x00000004	6e-45
59	0x38e90af8	0.00011112349
60	0xbe2e191c	-0.17001766
61	0x80000004	-6e-45
62	0xa3813ad5	-1.4011124e-17
63	0xbccc8a6d	-0.02496835
64	0x39286e43	0.00016062804
65	0xbcf37ab8	-0.029721603
66	0x3920404f	0.00015282746
67	0x00000004	6e-45
68	0xbc014814	-0.00789072
69	0x3b3f472c	0.002918671
70	0xa3212c80	-8.737251e-18
71	0x3c930b7d	0.017949814
72	0x00000004	6e-45
73	0x3ca7f2a7	0.020501448
74	0x00000004	6e-45
75	0x39230eaf	0.00015550361
76	0x3cbd61d2	0.023117933
77	0x80000004	-6e-45
78	0x208add41	2.3524523e-19
79	0x3b51671e	0.0031952332
80	0xbb1b949f	-0.0023739708
81	0x3bed991f	0.0072509195
82	0xbb9e77da	-0.0048360648
83	0x80000004	-6e-45
84	0x3b7629f3	0.0037561625
85	0x3db72c29	0.0894397
86	0xa3d1cd9b	-2.2746903e-17
87	0xbc6af8b7	-0.014341525
88	0x00000004	6e-45
89	0x3d0cc1e1	0.034364585
90	0x00000004	6e-45
91	0xbbd40808	-0.006470684
92	0x3b4057c5	0.002934919
93	0x00000004	6e-45
94	0x22102538	1.9535343e-18
95	0xbc3d242f	-0.011544271
96	0x391568eb	0.00014248832
97	0x3b805eef	0.003917567
98	0x390c8f49	0.00013404818
99	0x00000004	6e-45
100	0xbbd48168	-0.006485153
101	0x3b038462	0.002006792
102	0x24b5e24f	7.887962e-17
103	0x3cb461ab	0.022019228
104	0x80000004	-6e-45
105	0x3b8039b6	0.0039131297
106	0x00000004	6e-45
107	0x388cfd0a	6.7228524e-05
108	0x3bbe8e47	0.0058153006
109	0x80000004	-6e-45
110	0x23dd3965	2.3985176e-17
111	0x3aa0b05a	0.0012259588
112	0x3a6c13f3	0.0009005658
113	0x3c53cc84	0.012927178
114	0x39d2d9b6	0.0004021653
115	0x80000004	-6e-45
116	0x3982ae6f	0.00024925495
117	0xbc8d3fd1	-0.017242344
118	0xa3a0bf84	-1.7428345e-17
119	0x3b62519b	0.0034533504
120	0x80000004	-6e-45
121	0xbd09c23d	-0.033632506
122	0x80000004	-6e-45
123	0x3953fbff	0.00020216404
124	0x3a9a805c	0.0011787522
125	0x00000004	6e-45
126	0xa3eb6061	-2.5519569e-17
127	0x3b2275c2	0.0024789427
128	0x39b132a2	0.00033797795
129	0x3b954d00	0.0045562983
130	0x39a91ac8	0.00032254145
131	0x00000004	6e-45
132	0x37f3db01	2.9069839e-05
133	0x3db908ff	0.09034919
134	0x23c99901	2.1857263e-17
135	0xbd97fedb	-0.07421657
136	0x80000004	-6e-45
137	0x3c93503b	0.017982593
138	0x00000004	6e-45
139	0x3b9d3831	0.0047979583
140	0x3c3d4a06	0.011553293
141	0x00000004	6e-45
142	0xa257af2b	-2.9230667e-18
143	0x39fda9a5	0.00048382315
144	0x3a15101f	0.0005686301
145	0xbca8e020	-0.020614684
146	0x3b328de9	0.002724523
147	0x00000004	6e-45
148	0x3a40ad0d	0.00073500053
149	0xbe387999	-0.18015136
150	0xa4360ffe	-3.9478505e-17
151	0x3d4fb7bd	0.050712336
152	0x00000004	6e-45
153	0xbcd31c26	-0.025770258
154	0x80000004	-6e-45
155	0x398dc158	0.00027037668
156	0xbb841513	-0.0040308326
157	0x80000004	-6e-45
158	0xa4268dab	-3.611551e-17
159	0x3a8c2130	0.0010691043

exp_avg_sq f4 [10, 16]
0	0x3aaaa512	0.0013019165
1	0x3b994ce0	0.0046783537
2	0x3ce1640f	0.027513532
3	0x2c98f02b	4.346764e-12
4	0x3a4bbd32	0.0007772028
5	0x3aecdad2	0.0018070585
6	0x3d88a8c2	0.06672813
7	0x3d589d3a	0.052884318
8	0x2d18ab24	8.6782005e-12
9	0x3b2389e1	0.0024954008
10	0x282e3cea	9.672149e-15
11	0x3b9601e9	0.0045778644
12	0x3c1d1e09	0.0095896805
13	0x2c6d6e0c	3.3740814e-12
14	0x3d2e36e5	0.04253282
15	0x3ace88d6	0.0015757333
16	0x37eaefbe	2.8006612e-05
17	0x3b94d221	0.004541651
18	0x3a9a9acf	0.0011795404
19	0x2bb4c1da	1.2843574e-12
20	0x39a0911e	0.000306257
21	0x3956a202	0.00020468983
22	0x3bf80de9	0.0075700176
23	0x3ac88a51	0.001530001
24	0x2d17b9ad	8.6245846e-12
25	0x3a3ff8a9	0.0007323125
26	0x2b499a0d	7.1623333e-13
27	0x3ae1d0a2	0.0017228315
28	0x3c6d3d4f	0.014479949
29	0x2bcf6cdf	1.4738452e-12
30	0x3b661061	0.0035104977
31	0x3b60a433	0.0034277558
32	0x3ab7fdf8	0.001403748
33	0x3c0fca3c	0.008776244
34	0x3b68e45d	0.0035536506
35	0x2cc01725	5.4595378e-12
36	0x3c9a43bb	0.018831125
37	0x3a17b163	0.00057866256
38	0x3e771ab0	0.24131274
39	0x3d12718b	0.035752814
40	0x2c1d29b6	2.2334196e-12
41	0x3c1b739b	0.009488012
42	0x2b947f88	1.055143e-12
43	0x3d84460d	0.064586736
44	0x3b3fb666	0.0029253005
45	0x2c06b3c8	1.9142344e-12
46	0x3a9b2174	0.0011835531
47	0x3c336770	0.010949954
48	0x396dbe77	0.00022673035
49	0x3b8a2af7	0.0042165476
50	0x3c48f409	0.012265214
51	0x29eaac9a	1.0421629e-13
52	0x3a480f5d	0.0007631684
53	0x3a78d3f1	0.0009492031
54	0x3d44472c	0.047919437
55	0x3ca873fa	0.020563114
56	0x2cbca7cf	5.361912e-12
57	0x3c076a37	0.00826507
58	0x2b008eb0	4.5672754e-13
59	0x3b3520e8	0.0027638022
60	0x3d1cca47	0.038278844
61	0x2e6a55a7	5.3281515e-11
62	0x3c3928bc	0.011301216
63	0x3bcd6ab5	0.006268824
64	0x3a1acdd1	0.0005905303
65	0x3b877da2	0.0041348496
66	0x3b0faa8d	0.0021921725
67	0x2c9902b1	4.3488203e-12
68	0x3cfa958d	0.03058889
69	0x3a9039b6	0.0011003527
70	0x3e89c32c	0.26906717
71	0x3c9c393d	0.019070262
72	0x2d1ff8e6	9.09337e-12
73	0x3cda33d3	0.02663604
74	0x2b50a373	7.4123276e-13
75	0x3d9ac47b	0.07557007
76	0x3c41d015	0.011829396
77	0x2c2ae503	2.428558e-12
78	0x39ec1926	0.00045032165
79	0x3c32609c	0.010887291
80	0x3ad7992a	0.0016448845
81	0x3bda2a89	0.0066579026
82	0x3a315478	0.0006764601
83	0x2b1bf48a	5.540643e-13
84	0x3bb1bdc8	0.005424235
85	0x3d4262b0	0.047457397
86	0x3a3c342f	0.0007179407
87	0x3c99ff65	0.01879854
88	0x2c2bb84d	2.440287e-12
89	0x3c1e88e6	0.009676194
90	0x25588a8a	1.8781952e-16
91	0x3b00e42f	0.0019667258
92	0x39a98181	0.0003233068
93	0x2d0a69ab	7.867855e-12
94	0x39800681	0.00024418908
95	0x3a1cefa6	0.0005986638
96	0x3aa3a9f8	0.0012486568
97	0x3be25d3e	0.006908088
98	0x3cb09856	0.021557014
99	0x2c8ae505	3.947622e-12
100	0x3cf5b7e0	0.029994905
101	0x3a3977d9	0.00070750486
102	0x3e8420f8	0.25806403
103	0x3daaddcf	0.08343088
104	0x2b636000	8.0779827e-13
105	0x3c9b4931	0.018955799
106	0x2b52e2d6	7.4921785e-13
107	0x3d2d77b0	0.04235047
108	0x3bbb67a8	0.005719144
109	0x2c7fbfb9	3.6344107e-12
110	0x3d06d87b	0.032921296
111	0x3ba81f58	0.0051306896
112	0x3a30b230	0.0006740419
113	0x3c4f8470	0.012665853
114	0x39309ff4	0.00016844255
115	0x2ee6378d	1.0469057e-10
116	0x3ae39078	0.0017361781
117	0x3d9f5baf	0.07781159
118	0x3a34275c	0.000687232
119	0x3c314d88	0.010821708
120	0x2f23bc37	1.4891631e-10
121	0x3c490519	0.012269282
122	0x2918332e	3.379517e-14
123	0x39ed0bfd	0.00045213095
124	0x37f6b07c	2.9407667e-05
125	0x2d6b8f48	1.3390018e-11
126	0x39df5f05	0.0004260467
127	0x39796f71	0.00023788006
128	0x3a991783	0.0011679981
129	0x39e5b55c	0.00043813407
130	0x3b1582de	0.0022813599
131	0x2c5cb5bf	3.136477e-12
132	0x39cb2785	0.00038748622
133	0x3d0e45a0	0.03473437
134	0x3c74640a	0.014916429
135	0x3d38d99c	0.045129403
136	0x2d6d393b	1.3484598e-11
137	0x3b294a2d	0.0025831566
138	0x2b21a6c8	5.7430146e-13
139	0x3be69c2d	0.0070376606
140	0x3b238a61	0.0024954306
141	0x2d40d91a	1.0962143e-11
142	0x3a089efd	0.00052116794
143	0x38ed796e	0.00011323659
144	0x3a7dfcb5	0.00096888404
145	0x3c675cd2	0.014121251
146	0x3ad32729	0.0016109693
147	0x2c22ff49	2.3163296e-12
148	0x3bbb7852	0.0057211304
149	0x3ddce61c	0.107860774
150	0x3b2080d6	0.0024490855
151	0x3d4e504f	0.050369557
152	0x2cdc8bed	6.268311e-12
153	0x3b810da7	0.003938395
154	0x2dc7bbb9	2.2707046e-11
155	0x3b3c6aee	0.0028750258
156	0x3ae51666	0.0017477989
157	0x2b91a61e	1.0348976e-12
158	0x3b0e1c3c	0.002168431
159	0x38a16086	7.695057e-05

exp_avg f4 [10]
0	0x3b3dff0a	0.0028991126
1	0x3c0a44ff	0.0084393015
2	0xbcf60e30	-0.030036062
3	0xbb7fef61	-0.0039052593
4	0xbced455b	-0.028963735
5	0x3c7f0eaf	0.015567466
6	0x38dfcfa6	0.00010672146
7	0x3caa927b	0.0208218
8	0x3bcdbe32	0.0062787766
9	0x3c100bd7	0.008791885

exp_avg_sq f4 [10]
0	0x3ac2594d	0.0014827639
1	0x3a64c056	0.000872617
2	0x3aebebe4	0.0017999378
3	0x3aa80a19	0.0012820392
4	0x3b132e57	0.002245804
5	0x3a936184	0.0011244272
6	0x3b0e5c04	0.0021722326
7	0x3ab4a82c	0.0013783029
8	0x3a7d6c32	0.00096673064
9	0x3a9ea7fd	0.0012104508
