course/week3/fashion_project/checkpoints/uncertainty.ckpt (torch, 160739 bytes, 12 tensors)

model.0.weight f4 [16, 784]
000000 30 6a c2 3e c5 85 ae 3d 81 18 0f 3e e2 42 3f be
       0.3797164 0.08521608 0.13974191 -0.18677858
000010 f9 da 10 bf d2 5c 3c bf 03 45 90 bf a2 8f 1a bf
       -0.56584126 -0.7357913 -1.1271061 -0.60375416
000020 36 1c 53 3e 39 1c 66 3d 1b 26 39 3f 99 49 26 3f
       0.2061623 0.05617926 0.7232377 0.6495605
000030 e2 e5 a3 bd fe 43 75 bf f8 c2 96 bf 5f a7 9b bf
       -0.08002831 -0.9580687 -1.177825 -1.2160453
000040 ca d3 ba be 62 af 22 3e f8 16 c0 3d 6f 4e 01 bd
       -0.36489707 0.15887216 0.09379381 -0.03156894
000050 dc 14 2e bf f6 9c 1e bf 4f 18 a7 be f1 02 8d be
       -0.6800058 -0.61958253 -0.32635733 -0.27541307
000060 fb f6 43 3b 54 d1 04 be 96 51 9d 3e 8b 53 cc 3d
       0.002990185 -0.12970477 0.30726308 0.09976872
000070 09 64 97 3e ff a0 5a bd 25 c4 ac 3e 38 db 6c be
       0.29568508 -0.053376194 0.33743396 -0.231305
000080 46 30 09 bf 1b 58 ce be b4 27 c6 bd c5 af 98 3e
       -0.53589284 -0.40301594 -0.096755415 0.29821602
000090 ce 09 6d bc 8e 22 ce 3c e4 b5 11 be 87 73 02 3d
       -0.01446767 0.025162961 -0.14229542 0.031848457
0000a0 75 53 00 bd 1a 4e 79 bd 5e 7a 23 3e 21 b0 af 3b
       -0.03132959 -0.0608655 0.15964648 0.0053615724
0000b0 87 f6 4d 3d a2 13 91 bd 23 2e 12 be 07 fc 2e be
       0.050283935 -0.07083823 -0.14275412 -0.17088328
0000c0 0f e8 c8 3e cf 06 de bb 9a a4 ae bd 75 f2 f6 be
       0.39239547 -0.006775714 -0.08527489 -0.48231855
0000d0 ae ab d6 be 1f 2f 91 be 09 af 37 bb 00 10 11 bf
       -0.41927856 -0.28356263 -0.0028027913 -0.5666504
0000e0 be ab 03 be d6 79 0d be 95 26 1b 3e d6 f1 94 bb
       -0.12858483 -0.13816008 0.15151437 -0.0045454307
0000f0 78 39 a0 be 76 1d 98 3e 8d 29 22 3f 47 f7 5a 3c
       -0.31293845 0.29709977 0.6334465 0.01336462
000100 13 64 86 be 1f 89 d5 be d4 ac 10 bf 9c 5b 8b be
       -0.26248226 -0.41706178 -0.56513715 -0.2721833
000110 aa e0 f4 be 7e e6 9e be c0 e0 ba bd e2 1f e0 be
       -0.47827655 -0.31035227 -0.09124899 -0.43774325
000120 9e 2e a7 be b4 e4 ca be 72 77 ac be 62 28 1a be
       -0.32652754 -0.39627612 -0.3368488 -0.15054467
000130 6e e9 ca 3e 2f d3 06 3f 24 2b 2e 3f 56 5a 02 3f
       0.39631218 0.5266599 0.6803458 0.5091909
000140 08 7f 91 be be fe 61 bf a3 9a 2a bc c4 b9 cb be
       -0.2841723 -0.8827933 -0.010412845 -0.39790165
000150 26 87 e2 be 75 ac 02 3e 17 96 f5 bd ff db 24 be
       -0.44243735 0.127611 -0.11991518 -0.16099547
000160 91 2e 87 3e 9f 18 30 3f 27 0b d4 3d b6 04 00 bf
       0.26402715 0.6878757 0.1035369 -0.5000719
000170 06 79 93 be 5b 11 b8 be 07 3a e1 be 71 4e 6d be
       -0.2880327 -0.3595074 -0.43989584 -0.23174454
000180 78 77 c9 3e 0a 15 bb be 94 1e 79 bf b8 15 77 be
       0.3934896 -0.3653949 -0.97312284 -0.24129379
000190 09 4c 6e be b8 c2 8a be 39 f5 fa be 68 c3 fb bd
       -0.23271193 -0.27101684 -0.49015215 -0.1229313
0001a0 d0 12 a3 3d a6 45 94 3e b8 df 42 3f 85 54 20 3f
       0.079625726 0.28959388 0.7612262 0.62628967
0001b0 62 33 66 3d 59 fb 0f bf 91 57 4c 3d 7d 70 0e 3f
       0.056201346 -0.562429 0.049888197 0.55640393
0001c0 bf a5 c8 3d fb 38 9f 3e 74 43 3a 3e 18 86 1b 3f
       0.097972386 0.3109816 0.18189794 0.60751486
0001d0 97 14 12 3f 6b 5b 6d 3e 86 d1 b7 bd 0e 40 09 bf
       0.5706267 0.23179404 -0.0897551 -0.53613365
0001e0 96 03 e4 be 06 c8 1e be a1 72 96 be 51 8a 12 bf
       -0.44533986 -0.1550599 -0.2938433 -0.57242304
0001f0 72 d8 38 be c6 12 a5 be aa 0d 0b bf 5b b8 f1 bd
       -0.18051317 -0.32240885 -0.54317725 -0.11802741
000200 03 57 06 bf 50 40 10 bf 1e 4f 24 be c4 69 d5 be
       -0.5247652 -0.56348133 -0.16045806 -0.41682255
000210 94 ba bb be 8d ee a4 bb 25 70 c2 3e 86 9c 8b 3e
       -0.36665785 -0.0050333203 0.37976184 0.27267855
000220 79 11 75 be 00 49 d3 bd b0 8f 80 3e 0a 16 7e be
       -0.23932447 -0.10316658 0.25109625 -0.24813095
000230 a3 5a 95 3d d6 94 e7 3d ab 60 a3 3e 74 07 4b 3e
       0.07292678 0.11307685 0.3190969 0.19827062
000240 e8 f2 b8 3e 20 d6 20 3e 2c d6 c2 be 8e 37 ed be
       0.36122823 0.15706682 -0.38054025 -0.46331447
000250 65 5b 03 bf 84 33 d9 be 47 ee cb be d8 63 1d bf
       -0.5131133 -0.42422116 -0.3983023 -0.61480474
000260 15 57 87 be 3f 32 00 bf 3e 15 02 bf f0 a3 64 be
       -0.26433626 -0.5007667 -0.50813663 -0.22328162
000270 71 af 05 bf 6b 0b 02 bf a5 8a 6f be f2 0b 5e be
       -0.5222083 -0.5079867 -0.23392732 -0.21684244
000280 d3 7c 85 3d e7 03 32 3e fb 2d c3 3e fb 0a 26 3e
       0.06517949 0.17384301 0.38121018 0.16215126
000290 31 a8 20 3d f6 99 8d 3e 7e 1e 9f 3d 54 e6 1e bf
       0.0392229 0.27656525 0.07769488 -0.620702
0002a0 93 bf 1a 3e 33 8a ca be d1 13 a9 3d 7e f4 99 3e
       0.15112142 -0.39558563 0.08255733 0.30069345
0002b0 c6 56 b5 3e 65 ca 62 be fd de 94 be a3 16 1a bc
       0.35417765 -0.2214752 -0.29076377 -0.009404811
0002c0 39 65 0a bf c7 2f 3d bf 06 6a c5 be 23 9f 2e bf
       -0.54060704 -0.7390103 -0.38557452 -0.68211573
0002d0 2b cd a8 be b7 ca 80 be e1 2a 5d bf 2e 91 12 bc
       -0.3296903 -0.2515466 -0.86393553 -0.008945746
0002e0 c9 61 0d bf 0a 10 2e bf 1f 84 a6 be 77 93 c2 be
       -0.55227333 -0.67993224 -0.32522675 -0.38003132
0002f0 d9 d5 d3 3d dd 23 af 3e 1c 32 3d 3e 94 df 01 3e
       0.103435226 0.3420705 0.18476146 0.12682945
000300 24 81 90 3d 63 d3 97 bd 24 95 05 bf 3b e3 71 bf
       0.070558816 -0.07413366 -0.52180696 -0.9448735
000310 a2 52 d6 be de 07 69 bd 3f 1c 2b 3e 83 47 09 3f
       -0.4185992 -0.05689227 0.16709994 0.53624743
000320 cc 11 55 3e a8 24 31 bf 54 41 90 be 65 7f 31 3e
       0.2080757 -0.6919656 -0.2817484 0.17333753
000330 08 79 99 be 9c a2 35 bf eb cf 03 bf 8c d9 c2 be
       -0.29975152 -0.7095125 -0.5148913 -0.380566
000340 4e 64 a8 bd 44 d2 99 be e6 f8 39 be 7c 80 3a 3c
       -0.082222566 -0.30043232 -0.18161353 0.011383172
000350 20 9f e0 be 81 86 b9 be c4 05 ff be 2d 02 51 bf
       -0.43871403 -0.3623543 -0.49809086 -0.81643945
000360 44 27 13 be 5c 9f cb 3d 32 da 4b 3d 73 b9 90 3e
       -0.14370447 0.09942505 0.049768634 0.28266487
000370 95 bb 8a 3d 2a 8d 68 be bd 2c 98 be 50 47 24 bd
       0.0677406 -0.227101 -0.29721633 -0.04010707
000380 7b ee 84 bf ab 9d 41 be 62 56 bc 3e 50 ff e5 3e
       -1.0385278 -0.18907802 0.36784655 0.4492135
000390 16 4e 85 bd 25 b0 60 bf 1b 22 11 bf 3e c8 98 3e
       -0.06509034 -0.87768775 -0.56692666 0.29840273
0003a0 b2 7b 8f be bf 62 fc be f2 0f 2d be 93 8c 93 be
       -0.2802406 -0.49294087 -0.16900614 -0.28818187
0003b0 4f fc dc 3c 61 30 df 3e 49 50 1f 3e 20 88 c9 3e
       0.026975779 0.43591598 0.1555797 0.39361668
0003c0 ff 16 a7 bd d5 ed 85 be d2 48 23 be ce 09 41 be
       -0.08158683 -0.26158014 -0.15945747 -0.18851396
0003d0 8c a3 26 3c ff 27 40 3d 8a fd 02 be bd 0e 80 bd
       0.010170829 0.046913143 -0.1279203 -0.06252811
0003e0 d3 13 7d 3d 39 2f ee 3d c1 1c 4e bd f7 e1 d8 3e
       0.061786484 0.11630101 -0.05032039 0.42359897
0003f0 62 17 a5 bf 6e bc 01 bf ac c5 18 be 96 2a 80 3e
       -1.2897761 -0.50678146 -0.14919156 0.2503249

model.0.bias f4 [16]
000000 c2 53 f8 3f 00 74 a9 3e 88 4b 02 3f 11 c2 62 bd
       1.9400561 0.33096313 0.508965 -0.055360857
000010 9f 8f ab 3d f5 e1 0d 3f 6f e8 38 bf 26 5c 85 3f
       0.08377003 0.5542291 -0.72229666 1.0418746
000020 6b 00 f8 bc 9b 83 b4 3f 7b 7f 2d bd e2 64 93 be
       -0.030273637 1.4102663 -0.042357903 -0.28787905
000030 29 97 58 3f 2a a3 a4 3b 63 74 25 3f 14 03 94 3f
       0.8460565 0.0050243335 0.6463072 1.1563439

model.2.weight f4 [10, 16]
000000 29 bc fc bb af 86 88 be 5b c8 98 3e 62 7c 8e 3d
       -0.00771286 -0.26665255 0.2984036 0.06957318
000010 67 62 84 be 94 c7 11 bf ea d6 2a 3d 7d 69 dd 3d
       -0.25856325 -0.5694516 0.041708864 0.10811136
000020 04 ed 71 be 46 b1 aa be bd 0b 9d bd 8f 82 10 be
       -0.2362557 -0.33338374 -0.076682545 -0.14112304
000030 3a 11 b4 bd 0d 6f db bd df 5b 00 3e fc 53 99 be
       -0.08792348 -0.10714541 0.12535046 -0.29946887
000040 3d 34 04 bf da be fa be 3b c1 0d bf 0a b3 53 be
       -0.5164221 -0.48973733 -0.5537297 -0.20673767
000050 e4 c6 46 bd 55 db 71 bf 50 57 41 3e 00 fb 0f bf
       -0.04852952 -0.944753 0.18880963 -0.5624237
000060 ec e5 aa 3d f0 86 0b bf 18 af 15 ba 36 07 85 3e
       0.08344635 -0.54502773 -0.000570999 0.25982064
000070 e5 30 8a 3e ac 74 56 be aa 47 e9 3e 0c 23 2e 3f
       0.2699043 -0.20942944 0.45562488 0.6802223
000080 7e dd 1c 3d f9 e0 b6 bd b9 22 37 3e 91 b1 2c 3e
       0.03829717 -0.08929629 0.1788434 0.16864611
000090 87 fe 3a bd b9 93 80 bf b0 85 10 3e 0a 98 fa bd
       -0.045652892 -1.0045081 0.14113498 -0.122360304
0000a0 fb 4e 55 3e c6 87 a0 be 36 88 5b 3e 7b a8 17 3e
       0.2083091 -0.31353587 0.21438679 0.14810364
0000b0 b4 ae 19 bf dc 92 47 3e 23 b8 06 bf 59 08 80 3e
       -0.600322 0.19489616 -0.5262472 0.2500637
0000c0 17 54 0e bf 61 31 fb bd c2 ad fd 3d da a9 84 be
       -0.5559706 -0.12265278 0.12386657 -0.25910836
0000d0 f6 86 0f be 09 e6 fb be 51 b1 f9 bc 6e 7b d1 3c
       -0.14016327 -0.4919894 -0.030480059 0.025571551
0000e0 a1 00 3d 3e 3d 85 29 3e 4a 50 fb 3d 87 03 e9 3d
       0.18457271 0.16554733 0.12271173 0.11377626
0000f0 a7 62 8d 3e e3 97 8b 3b 73 9c 85 bd 81 54 c8 bd
       0.27614328 0.0042600497 -0.06523981 -0.09781743
000100 5a 31 86 be 48 61 0b bf 5c d7 36 bd 2e bc 63 3e
       -0.26209527 -0.54445314 -0.044638976 0.22239754
000110 08 18 41 3e 11 9c 52 bf 51 f7 7a 3e 76 5a 5d be
       0.18856823 -0.8226939 0.24508406 -0.2161654
000120 bd d9 46 bd e1 19 80 3d c6 49 f1 3d 66 72 85 3e
       -0.048547495 0.06254936 0.11781649 0.26063842
000130 bf df d1 bd d9 ab 0f 3e f5 ea 18 bf 7c 36 55 bd
       -0.10247754 0.14030398 -0.59733516 -0.052053913
000140 6e 3c 17 3f 2e a0 4e bb 15 90 bd 3e 2c 25 30 be
       0.59076583 -0.003152858 0.37023988 -0.1720168
000150 aa e9 e4 3e 94 07 07 3e 19 63 a9 bf 33 e5 95 3e
       0.44709522 0.13186485 -1.3233367 0.29276428
000160 90 40 48 3e 1b 6b d6 3e eb ed 0c 3d 77 85 63 3e
       0.19555879 0.4187859 0.034406584 0.22218882
000170 bb b8 39 bf a6 a7 a7 3c 3b 61 2c be 24 b0 47 3f
       -0.725475 0.020465683 -0.16833965 0.78003144
000180 f7 ba 61 bd 99 f1 fe be 1e 7d 6b 3d 60 a5 1e 3e
       -0.055109944 -0.497937 0.057492368 0.15492773
000190 f1 fe a4 3e b0 eb 35 bf 11 4f 88 3d 65 84 0f bc
       0.32225755 -0.71062756 0.06655706 -0.008759593
0001a0 64 d9 c0 bd b0 1a a7 bd 36 34 ed 3c a6 c5 d3 bd
       -0.09416464 -0.08159387 0.02895556 -0.10340433
0001b0 fe b4 04 be 79 c7 ef bd 07 1b 20 3c 32 b7 84 bd
       -0.12959668 -0.11707968 0.009772069 -0.06480254
0001c0 51 b1 bf be d8 e6 f5 3e 47 bc ce be c7 b1 30 be
       -0.3743997 0.48027682 -0.4037802 -0.17255317
0001d0 dd 0f 0d bf c2 8b 55 3e 36 84 73 bf 2c 31 26 3e
       -0.5510233 0.20854095 -0.9512361 0.16229695
0001e0 ea 0a c0 bc da 25 17 3f 09 e4 08 3e 0d 86 ef be
       -0.023442704 0.5904213 0.13368239 -0.4678196
0001f0 87 63 86 bf d5 62 e1 3d a1 ef 01 c0 55 6e dd be
       -1.0499123 0.11005179 -2.0302508 -0.4324824
000200 22 78 40 3c 4d 0f 33 bf 96 42 1d 3d b9 c8 01 3e
       0.011747392 -0.6994522 0.03839358 0.12674226
000210 43 6b 39 bf 05 77 7a 3e 12 68 29 be 53 f7 80 3e
       -0.72429293 0.24459465 -0.16543606 0.25188693
000220 ce 9a c5 3d c3 2f 1e be 72 f5 60 be 50 98 c3 3e
       0.09648667 -0.15447907 -0.2196863 0.38202143
000230 23 03 9d be 7d 45 15 3e 6e 85 21 bf f1 35 64 bf
       -0.30666456 0.14577289 -0.6309422 -0.8914481
000240 ca 86 0a bf 3a 6d 6a 3d ed a9 ab be 38 aa 17 3e
       -0.5411192 0.057233073 -0.3352808 0.14811027
000250 ec bf c0 3e 4c 7f bb 3e fd cb 8d bf 2e 0e c8 3e
       0.37646425 0.36620557 -1.1077877 0.39073318
000260 9a 0d ae 3d 87 14 0b 3d f7 41 12 bd 1a 17 c8 be
       0.08498688 0.033955123 -0.03570744 -0.39080125
000270 81 6d 4d bf 28 3f 09 be 3c 95 2a bf 59 fb 9a be
       -0.80245215 -0.13402998 -0.66633964 -0.30269888

model.2.bias f4 [10]
000000 ae 32 84 3e f0 44 67 be 3e 13 83 3f d9 cc 92 be
       0.25819916 -0.22584891 1.0240247 -0.2867191
000010 30 55 51 3f a8 f7 7b bf 7b 75 5f 3f 03 c5 64 bf
       0.8177061 -0.9842477 0.87288636 -0.89363116
000020 7f a6 42 bf f3 e0 dd bf
       -0.760353 -1.7334274

exp_avg f4 [16, 784]
000000 3c 12 29 b6 3c 12 29 b6 3c 12 29 b6 3c 12 29 b6
       -2.5193576e-06 -2.5193576e-06 -2.5193576e-06 -2.5193576e-06
000010 3c 12 29 b6 3c 12 29 b6 3c 12 29 b6 3c 12 29 b6
       -2.5193576e-06 -2.5193576e-06 -2.5193576e-06 -2.5193576e-06
000020 3c 12 29 b6 3c 12 29 b6 35 55 13 b7 ee 37 b0 b7
       -2.5193576e-06 -2.5193576e-06 -8.781722e-06 -2.100688e-05
000030 97 d9 f6 b7 25 43 67 b7 4d 14 dd b7 20 c2 af b7
       -2.9426808e-05 -1.3784306e-05 -2.6354706e-05 -2.0952022e-05
000040 2e 2e 30 b6 f0 3a a2 b7 3c 12 29 b6 c7 88 1e b6
       -2.6252924e-06 -1.933935e-05 -2.5193576e-06 -2.362345e-06
000050 3c 12 29 b6 3c 12 29 b6 3c 12 29 b6 3c 12 29 b6
       -2.5193576e-06 -2.5193576e-06 -2.5193576e-06 -2.5193576e-06
000060 3c 12 29 b6 3c 12 29 b6 3c 12 29 b6 3c 12 29 b6
       -2.5193576e-06 -2.5193576e-06 -2.5193576e-06 -2.5193576e-06
000070 3c 12 29 b6 3c 12 29 b6 3c 12 29 b6 3c 12 29 b6
       -2.5193576e-06 -2.5193576e-06 -2.5193576e-06 -2.5193576e-06
000080 3c 12 29 b6 3c 12 29 b6 3c 12 29 b6 ce 92 1d 36
       -2.5193576e-06 -2.5193576e-06 -2.5193576e-06 2.3480275e-06
000090 ca 56 61 35 89 a8 65 35 51 1a dd b7 ba 62 8e b7
       8.3945326e-07 8.55544e-07 -2.6357508e-05 -1.6973692e-05
0000a0 72 75 dc 35 b5 9f 9b b6 b0 5c 8d b7 e7 f8 cd b7
       1.6425458e-06 -4.6379523e-06 -1.685167e-05 -2.4553809e-05
0000b0 3a 9f d1 b7 03 c1 bf b7 3c 12 29 b6 23 06 e2 35
       -2.4988887e-05 -2.2858852e-05 -2.5193576e-06 1.6840098e-06
0000c0 68 eb b2 36 3c 12 29 b6 3c 12 29 b6 3c 12 29 b6
       5.3322183e-06 -2.5193576e-06 -2.5193576e-06 -2.5193576e-06
0000d0 3c 12 29 b6 3c 12 29 b6 3c 12 29 b6 3c 12 29 b6
       -2.5193576e-06 -2.5193576e-06 -2.5193576e-06 -2.5193576e-06
0000e0 3c 12 29 b6 3c 12 29 b6 3c 12 29 b6 3c 12 29 b6
       -2.5193576e-06 -2.5193576e-06 -2.5193576e-06 -2.5193576e-06
0000f0 0d 44 19 b6 3c 12 29 b6 05 6f 78 b7 83 0b 1d 35
       -2.2838387e-06 -2.5193576e-06 -1.4807801e-05 5.850381e-07
000100 39 c0 ac b7 bc 26 a0 b7 c3 ac a0 b7 a4 84 94 b6
       -2.0593508e-05 -1.9091523e-05 -1.9153935e-05 -4.426185e-06
000110 3c 12 29 b6 07 12 96 36 91 3d a7 b6 95 fa 22 b7
       -2.5193576e-06 4.472447e-06 -4.984155e-06 -9.714296e-06
000120 c5 c3 58 b8 ae 02 8e b8 99 11 10 b8 f3 ac 5d b7
       -5.1680738e-05 -6.771587e-05 -3.4348664e-05 -1.3212894e-05
000130 68 eb b2 36 ec e2 c2 36 3c 12 29 b6 3c 12 29 b6
       5.3322183e-06 5.8080677e-06 -2.5193576e-06 -2.5193576e-06
000140 3c 12 29 b6 3c 12 29 b6 3c 12 29 b6 3c 12 29 b6
       -2.5193576e-06 -2.5193576e-06 -2.5193576e-06 -2.5193576e-06
000150 3c 12 29 b6 3c 12 29 b6 3c 12 29 b6 3c 12 29 b6
       -2.5193576e-06 -2.5193576e-06 -2.5193576e-06 -2.5193576e-06
000160 0d 44 19 b6 d0 4f 8c b5 ae 83 69 b7 67 8f 72 b7
       -2.2838387e-06 -1.0454041e-06 -1.3918541e-05 -1.44577125e-05
000170 26 70 68 b7 97 d9 f6 b7 17 2a df b6 44 48 c6 b6
       -1.3854389e-05 -2.9426808e-05 -6.650818e-06 -5.9092727e-06
000180 c4 e7 14 b7 ce 92 0f b7 c3 8d 22 b7 a8 05 12 b7
       -8.87545e-06 -8.557645e-06 -9.688959e-06 -8.703595e-06
000190 f6 f7 61 b7 7c 93 f0 b7 f4 c7 af b7 04 20 a6 36
       -1.3468778e-05 -2.8678907e-05 -2.0954736e-05 4.9509126e-06
0001a0 56 ee 37 37 98 05 23 ba c6 20 8b b9 cd 39 bb b9
       1.0963142e-05 -0.000621879 -0.00026536564 -0.00035710484
0001b0 3c 12 29 b6 3c 12 29 b6 3c 12 29 b6 3c 12 29 b6
       -2.5193576e-06 -2.5193576e-06 -2.5193576e-06 -2.5193576e-06
0001c0 3c 12 29 b6 3c 12 29 b6 3c 12 29 b6 d7 68 3e b6
       -2.5193576e-06 -2.5193576e-06 -2.5193576e-06 -2.837323e-06
0001d0 2b 6d aa b7 74 2a 98 b7 ef 7b 5b 35 29 f3 41 b6
       -2.0316415e-05 -1.813958e-05 8.1764205e-07 -2.890078e-06
0001e0 93 0f 89 b6 7e 3a 3a b7 7e 3a 3a b7 e3 e8 04 b7
       -4.0847312e-06 -1.1100083e-05 -1.1100083e-05 -7.922036e-06
0001f0 c4 e7 14 b7 53 bc 02 b7 89 25 0e b7 44 48 c6 b6
       -8.87545e-06 -7.7924515e-06 -8.472599e-06 -5.9092727e-06
000200 6f 55 8a b7 5e 60 ee b7 3b 00 b0 b7 a7 6d 1e b5
       -1.6490665e-05 -2.8416685e-05 -2.0980942e-05 -5.901915e-07
000210 75 d9 07 b7 63 f5 0b ba 64 ff 1f ba 83 6b e8 b8
       -8.097258e-06 -0.00053389947 -0.0006103425 -0.00011082648
000220 5e ea b5 b5 1c 79 33 b7 3c 12 29 b6 3c 12 29 b6
       -1.3553761e-06 -1.0697429e-05 -2.5193576e-06 -2.5193576e-06
000230 3c 12 29 b6 3c 12 29 b6 2e 53 86 b6 d5 f8 36 b7
       -2.5193576e-06 -2.5193576e-06 -4.0031946e-06 -1.0905981e-05
000240 73 3a dd b7 80 b0 85 b7 e8 25 6b b6 ce 92 0f b7
       -2.637247e-05 -1.5937025e-05 -3.5039793e-06 -8.557645e-06
000250 ce 92 0f b7 c4 e7 14 b7 00 d4 e9 b6 d1 cb 0d b7
       -8.557645e-06 -8.87545e-06 -6.968621e-06 -8.45171e-06
000260 d6 04 0c b7 fa 61 ed b6 2a e2 64 b7 f3 80 e3 36
       -8.345776e-06 -7.0745564e-06 -1.3642517e-05 6.780139e-06
000270 3f 11 f1 36 9c fb 48 b6 e2 93 bb b8 44 44 85 b7
       7.1843674e-06 -2.9948778e-06 -8.9444e-05 -1.5886624e-05
000280 d8 8e e8 b9 46 2f 23 ba f6 e5 22 ba 3d f2 ef b9
       -0.00044356915 -0.0006225001 -0.00062140764 -0.00045766114
000290 57 8a 5f b7 b6 d9 5e b7 3f ba ff b6 f0 1b 23 b7
       -1.33240455e-05 -1.3282921e-05 -7.621274e-06 -9.722062e-06
0002a0 a7 28 63 b6 a7 28 63 b6 c3 7d d7 b6 d0 d4 cd b7
       -3.3849299e-06 -3.3849299e-06 -6.42214e-06 -2.4537003e-05
0002b0 ca a5 ac b7 9e bb 86 b7 c6 20 13 b7 f9 e4 0d b7
       -2.05812e-05 -1.606141e-05 -8.769513e-06 -8.457567e-06
0002c0 bf ae 16 b7 d6 04 0c b7 c6 20 13 b7 e9 5a 01 b7
       -8.981383e-06 -8.345776e-06 -8.769513e-06 -7.710166e-06
0002d0 db 76 08 b7 71 24 db b6 72 82 d5 36 46 15 29 36
       -8.133905e-06 -6.530951e-06 6.3630805e-06 2.5195345e-06
0002e0 4a 7e 55 b8 a0 78 a5 b8 39 de 4f b8 92 89 97 b7
       -5.0900773e-05 -7.890281e-05 -4.9559607e-05 -1.8064664e-05
0002f0 f5 f3 e8 b9 39 a6 33 ba 03 09 3a ba b9 2c 90 b8
       -0.0004443225 -0.0006853077 -0.000709668 -6.874785e-05
000300 93 eb 74 b8 8e ac 48 36 f6 e6 db b5 46 47 48 b8
       -5.839353e-05 2.9902762e-06 -1.638399e-06 -4.7750094e-05
000310 a9 e4 47 b6 ef ea 86 b6 1c 62 d9 b7 8b 2e c6 b7
       -2.9786409e-06 -4.020861e-06 -2.5914102e-05 -2.3625113e-05
000320 4e 75 83 b7 04 43 99 b6 c2 9b 1f b7 9f d3 1d b7
       -1.5671041e-05 -4.567557e-06 -9.513404e-06 -9.407201e-06
000330 c4 e7 14 b7 08 93 0f b7 db 76 08 b7 62 c9 ff b6
       -8.87545e-06 -8.557698e-06 -8.133905e-06 -7.6230363e-06
000340 30 aa bc b6 23 51 f6 b6 97 ed 0b 35 4e 07 b5 b8
       -5.622649e-06 -7.340817e-06 5.2127274e-07 -8.632113e-05
000350 54 5f 42 b9 b2 da 31 b9 b8 cf 8a b8 ac 62 d7 b9
       -0.00018536794 -0.00016961506 -6.6190434e-05 -0.00041081512
000360 55 a8 4a ba c2 46 41 ba 4d 32 c2 b8 87 80 dc b8
       -0.0007730772 -0.00073729095 -9.26001e-05 -0.000105143576
000370 c3 14 8c b8 6e d7 e0 b6 0a 9b dd b8 3e 4c 1a b7
       -6.6795874e-05 -6.7007995e-06 -0.000105669795 -9.196867e-06
000380 3c 12 29 b6 15 b7 66 b6 86 9b ce b6 a7 a3 e4 b7
       -2.5193576e-06 -3.4379239e-06 -6.1573837e-06 -2.7255925e-05
000390 8d b5 81 b7 fa 7b 65 b7 55 ab b8 b6 48 17 26 b7
       -1.546254e-05 -1.3678329e-05 -5.503573e-06 -9.899792e-06
0003a0 fa 50 24 b7 0f 05 0c b7 d6 3d 0a b7 ad 9c e4 b6
       -9.794016e-06 -8.345828e-06 -8.239838e-06 -6.813169e-06
0003b0 52 b1 ea b7 a5 f0 29 36 1c 69 0b b8 90 12 18 b9
       -2.7977545e-05 2.5323036e-06 -3.3238073e-05 -0.00014502765
0003c0 85 3f 3e b9 47 8b 16 b9 c7 67 01 ba 41 03 d8 b9
       -0.00018143475 -0.00014357 -0.00049364235 -0.00041201155
0003d0 a1 e8 4a ba 14 74 2e ba 2e 97 50 b8 06 c6 62 b8
       -0.0007740353 -0.000665487 -4.973186e-05 -5.4067023e-05
0003e0 80 ed 20 b8 a8 09 25 b9 1a 54 ea b7 b9 4c b9 b7
       -3.836816e-05 -0.00015739223 -2.7934137e-05 -2.2089445e-05
0003f0 3c 12 29 b6 e9 32 70 b6 b0 c1 d2 b6 6b b0 98 b7
       -2.5193576e-06 -3.579242e-06 -6.281036e-06 -1.8201963e-05

exp_avg_sq f4 [16, 784]
000000 38 2a 9c 30 48 1d 9e 30 68 84 a3 30 5c 5a 41 31
       1.1362493e-09 1.1504335e-09 1.1897443e-09 2.813656e-09
000010 4f cf a3 31 02 32 00 32 02 7a 3f 33 aa 09 a1 33
       4.7674926e-09 7.461951e-09 4.458162e-08 7.4989046e-08
000020 fc 3f 1c 34 ce 56 a6 34 34 5f 3a 35 73 6d 93 35
       1.455191e-07 3.0983068e-07 6.942894e-07 1.0984207e-06
000030 06 33 aa 35 89 bf 45 36 ec 34 23 36 b9 12 24 36
       1.2680837e-06 2.9466776e-06 2.4319697e-06 2.4448802e-06
000040 e9 0b 59 36 57 47 55 36 a1 b2 b3 35 ad ee 8c 35
       3.2342452e-06 3.1780999e-06 1.3388527e-06 1.0500277e-06
000050 ff da 8e 35 67 f4 56 35 16 9e 6f 35 dd fc 04 35
       1.0643561e-06 8.0076865e-07 8.9264483e-07 4.9541796e-07
000060 16 92 1c 34 bc 64 85 33 ab 1b 21 32 e8 ae 6c 32
       1.4581778e-07 6.2116186e-08 9.377724e-09 1.3776777e-08
000070 aa 43 9c 30 a5 23 9e 30 1e 1a ea 30 8d a8 58 32
       1.1369725e-09 1.1506144e-09 1.7033164e-09 1.2611179e-08
000080 e2 4b cf 32 bc 59 99 33 2e 68 95 34 af ed e1 34
       2.413248e-08 7.14094e-08 2.7829213e-07 4.2082453e-07
000090 b0 05 74 35 5e ba a0 35 66 2b e4 35 2b ab 44 36
       9.090536e-07 1.1975169e-06 1.6999954e-06 2.9305909e-06
0000a0 cd 38 9d 36 54 f1 cf 36 5d 7d e9 36 f5 ee 07 37
       4.685577e-06 6.197175e-06 6.9585353e-06 8.102264e-06
0000b0 9b f6 0a 37 7a 86 04 37 9a 0d cf 36 ca 6c e2 36
       8.282858e-06 7.899123e-06 6.170664e-06 6.7479896e-06
0000c0 6b 65 a8 36 b8 0d 88 36 99 bc 80 36 ed 20 33 36
       5.0185968e-06 4.054713e-06 3.836653e-06 2.6692244e-06
0000d0 09 f0 b7 35 c2 8e 94 34 65 e7 b8 33 8e 0b 97 32
       1.3704422e-06 2.7671018e-07 8.610258e-08 1.7583968e-08
0000e0 19 00 9d 30 e9 78 a6 30 7b 37 3a 31 16 c9 bd 32
       1.1423281e-09 1.2112454e-09 2.70981e-09 2.209394e-08
0000f0 48 57 0d 34 c8 61 96 34 ac 3f 30 35 8a 0e 6c 35
       1.3163401e-07 2.8010822e-07 6.5657764e-07 8.793801e-07
000100 3b a8 8b 35 20 b4 b6 35 c4 d7 fc 35 b2 09 21 36
       1.0405269e-06 1.361248e-06 1.8838259e-06 2.3996513e-06
000110 ff ae 94 36 58 d7 c8 36 bf 29 e0 36 78 0a 28 37
       4.431116e-06 5.985534e-06 6.68058e-06 1.0016018e-05
000120 8a fe 19 37 24 26 10 37 48 f9 47 37 80 cb 44 37
       9.178775e-06 8.591949e-06 1.1919365e-05 1.1729891e-05
000130 80 ab 22 37 93 d2 12 37 f4 55 04 37 0d f7 d1 36
       9.695883e-06 8.751306e-06 7.887826e-06 6.257446e-06
000140 9e 6f ad 36 bf 96 05 36 a9 29 57 35 21 3a 30 32
       5.1687957e-06 1.990629e-06 8.0154365e-07 1.0257765e-08
000150 02 1e a4 30 26 7c 0f 31 74 06 4a 32 15 7b 3f 33
       1.1941099e-09 2.087981e-09 1.1759415e-08 4.4582595e-08
000160 d7 98 49 34 bc 3a da 34 02 a6 8b 35 fa 82 8d 35
       1.8775187e-07 4.06484e-07 1.0404622e-06 1.0543438e-06
000170 a8 cf a9 35 22 14 c0 35 87 ee 05 36 09 db 1b 36
       1.2651917e-06 1.4310974e-06 1.9957386e-06 2.3224295e-06
000180 fb ed 8c 36 fb e2 cf 36 34 9a f5 36 36 5f 07 37
       4.2000297e-06 6.1955047e-06 7.3195206e-06 8.068795e-06
000190 91 16 2f 37 2f 15 4b 37 fb 1d 5f 37 66 b9 51 37
       1.0436067e-05 1.2104675e-05 1.3298816e-05 1.2500537e-05
0001a0 be 1b 6e 37 4d ef 5f 37 cc 5d 47 37 50 9e 45 37
       1.4192365e-05 1.3347552e-05 1.1883163e-05 1.1778975e-05
0001b0 f2 8b 0a 37 14 15 7f 36 c8 6c e1 35 b3 18 40 34
       8.2580245e-06 3.801023e-06 1.6795466e-06 1.7890379e-07
0001c0 40 f6 e2 30 22 1d 85 31 21 f3 9c 32 71 8a a2 33
       1.6513653e-09 3.8741215e-09 1.8271352e-08 7.568895e-08
0001d0 72 4d a1 34 9b 3c 45 35 d6 53 8c 35 5c 56 a0 35
       3.0044936e-07 7.347641e-07 1.0455212e-06 1.1946063e-06
0001e0 72 c0 bd 35 ce 7b 0e 36 58 be 31 36 9b a0 53 36
       1.4137606e-06 2.1231713e-06 2.648585e-06 3.1534935e-06
0001f0 d5 11 97 36 ee c7 db 36 44 58 29 37 38 4e 30 37
       4.5022266e-06 6.5499835e-06 1.0093736e-05 1.0508629e-05
000200 71 f9 55 37 cc e7 57 37 1c 4e 7c 37 b0 ea 8f 37
       1.2753867e-05 1.2868968e-05 1.5038557e-05 1.7156213e-05
000210 2f 68 97 37 76 2d 9c 37 69 90 94 37 95 35 82 37
       1.8049117e-05 1.8617819e-05 1.7710221e-05 1.5522159e-05
000220 2d 2c 3f 37 53 74 bf 36 a0 20 fc 35 db 0d 92 33
       1.1394773e-05 5.7057855e-06 1.8784958e-06 6.801175e-08
000230 e4 69 b8 30 d6 fd 02 32 e3 81 0f 35 fe 4c c2 33
       1.3417858e-09 7.6247115e-09 5.346066e-07 9.047834e-08
000240 a5 6f d3 34 3e 57 4d 35 c0 26 9f 35 b7 cf b3 35
       3.9383045e-07 7.6495405e-07 1.1857701e-06 1.3396992e-06
000250 db ac be 35 25 d0 02 36 3b da fa 35 e5 b7 34 36
       1.4206411e-06 1.9492666e-06 1.8689965e-06 2.692913e-06
000260 81 c0 a8 36 12 56 0c 37 2f 73 48 37 77 2d 41 37
       5.0292006e-06 8.36469e-06 1.1947747e-05 1.1514282e-05
000270 a6 b2 7c 37 0f 56 7a 37 f2 12 8c 37 a2 9f 99 37
       1.5061965e-05 1.4921198e-05 1.6698123e-05 1.8313356e-05
000280 9a fb b1 37 b7 3c b3 37 84 a3 a8 37 0f 90 9c 37
       2.1217205e-05 2.1366735e-05 2.0103304e-05 1.8663732e-05
000290 99 5e 88 37 50 ec 28 37 2d d7 3a 36 99 eb 8f 33
       1.6256514e-05 1.0068601e-05 2.7841409e-06 6.7018114e-08
0002a0 98 c4 93 33 bf 80 ad 33 53 55 20 35 68 3a 11 35
       6.880981e-08 8.079359e-08 5.972881e-07 5.41017e-07
0002b0 4f 64 d0 34 2e 51 55 35 cc 0d ae 35 d2 1b e1 35
       3.8816003e-07 7.9466815e-07 1.2968026e-06 1.6771903e-06
0002c0 a9 05 10 36 d6 c9 ee 35 0f 48 07 36 98 e7 5d 36
       2.1460967e-06 1.7791124e-06 2.0158511e-06 3.3066372e-06
0002d0 37 04 c1 36 0a 6f 21 37 3d 0d 61 37 f9 d0 8c 37
       5.752339e-06 9.622201e-06 1.3414127e-05 1.6786611e-05
0002e0 0e 63 b1 37 7d 9f af 37 bb 09 b2 37 0a 34 bc 37
       2.114617e-05 2.0935893e-05 2.1223785e-05 2.2435579e-05
0002f0 f0 0d c2 37 4b b1 ca 37 9b 18 c9 37 c5 9c b5 37
       2.3133092e-05 2.4162835e-05 2.3972525e-05 2.1649883e-05
000300 ae 25 a9 37 f5 3b 81 37 dd 85 60 36 6c 02 c1 34
       2.0163916e-05 1.5405918e-05 3.345652e-06 3.5950814e-07
000310 ab 64 c3 32 45 e1 64 34 b5 dd 41 35 f1 75 d0 34
       2.2746766e-08 2.1316107e-07 7.222073e-07 3.8828833e-07
000320 33 d8 32 35 64 28 88 35 24 ea 04 36 b1 95 37 36
       6.662478e-07 1.0144545e-06 1.980582e-06 2.7356257e-06
000330 74 a6 24 36 3c 1b 12 36 85 30 28 36 b7 f3 79 36
       2.4534793e-06 2.1771548e-06 2.5062193e-06 3.7245752e-06
000340 08 fb 05 37 d1 15 3f 37 66 7a 91 37 59 f3 c6 37
       7.9858655e-06 1.1389567e-05 1.7342343e-05 2.3716757e-05
000350 df 00 e3 37 37 41 e9 37 f6 71 e8 37 da 01 de 37
       2.7060914e-05 2.7806132e-05 2.7709622e-05 2.6465324e-05
000360 ec 42 e6 37 a6 26 f6 37 91 a4 f2 37 7d c0 d5 37
       2.74493e-05 2.9343482e-05 2.892528e-05 2.5481213e-05
000370 c7 e5 e0 37 59 83 a5 37 bc ab ad 36 e7 ed 90 34
       2.680988e-05 1.9730696e-05 5.1757943e-06 2.6995187e-07
000380 9c 3c 73 32 f4 ad d3 33 ae cd 65 35 f3 3b d9 34
       1.4158243e-08 9.857095e-08 8.560845e-07 4.0463019e-07
000390 60 84 71 35 41 bd 98 35 30 38 13 36 f9 ee 4a 36
       8.997213e-07 1.1379963e-06 2.1937412e-06 3.0239446e-06
0003a0 eb 4b 31 36 6d bb 64 36 87 0c 8e 36 42 3a d0 36
       2.6419245e-06 3.4083744e-06 4.233388e-06 6.205665e-06
0003b0 b8 bf 32 37 95 d5 9c 37 e9 17 cc 37 3d df 05 38
       1.0654265e-05 1.8696106e-05 2.432983e-05 3.1917578e-05
0003c0 a5 6f 13 38 10 f4 15 38 c1 9f 07 38 60 05 12 38
       3.515151e-05 3.575167e-05 3.233529e-05 3.481412e-05
0003d0 76 5e 14 38 27 17 10 38 cd 2d 0c 38 9f 2d 12 38
       3.5373923e-05 3.4353838e-05 3.3421256e-05 3.48516e-05
0003e0 95 ec 0c 38 7b db df 37 6d 7d 36 37 fa d9 62 35
       3.3598935e-05 2.6685875e-05 1.0877248e-05 8.450876e-07
0003f0 75 7b c9 31 b7 6d 0a 34 41 ec 79 35 28 0e 39 36
       5.8639054e-09 1.2892166e-07 9.3103523e-07 2.7575388e-06

exp_avg f4 [16]
000000 5b 43 48 bb 7b 32 94 bb 8c ca 4f 3b 04 00 00 00
       -0.0030557725 -0.0045226193 0.003170642 6e-45
000010 e6 af 77 ba 0e c9 95 ba a1 87 37 1c 7b 02 a5 ba
       -0.0009448513 -0.0011427717 6.0724917e-22 -0.001258924
000020 04 00 00 00 73 48 86 bb 04 00 00 00 f0 a0 ae b9
       6e-45 -0.004097992 6e-45 -0.00033307774
000030 21 19 f0 ba 04 00 00 00 98 14 58 39 a6 2f 89 bb
       -0.0018318036 6e-45 0.00020607037 -0.0041865883

exp_avg_sq f4 [16]
000000 a2 09 3d 39 02 19 0f 39 e1 8b eb 38 e5 33 f4 30
       0.00018028033 0.00013646859 0.00011231728 1.7768086e-09
000010 09 d6 b0 39 d9 d8 14 39 7f b9 4d 39 7b 09 92 39
       0.00033728805 0.00014195162 0.00019619426 0.00027854354
000020 cd 61 f6 2e d2 e6 78 39 f3 5f b5 2e 39 4b 2a 39
       1.1204158e-10 0.0002373711 8.247971e-11 0.00016240486
000030 8c bb af 39 4c e7 d3 2f 15 8f 34 39 c5 14 3b 39
       0.00033518334 3.8545023e-10 0.0001721944 0.00017841447

exp_avg f4 [10, 16]
000000 a7 90 77 3a 70 ce 5e 3b 7e fe ec bb 04 00 00 00
       0.0009443857 0.0033997558 -0.0072324863 6e-45
000010 68 0f b1 39 f6 84 dd bb 49 e9 a7 1c ef fa 1c bc
       0.0003377155 -0.006760235 1.1111436e-21 -0.009581312
000020 04 00 00 00 a9 b8 eb ba 04 00 00 80 bd 29 d5 39
       6e-45 -0.001798411 -6e-45 0.00040657623
000030 92 78 a0 bc 04 00 00 00 aa 69 8c 3a ae ce 83 3b
       -0.019588742 6e-45 0.0010712643 0.004022441
000040 e9 38 0d 39 26 ed a2 b9 9a ff 4d bb 04 00 00 80
       0.00013468009 -0.00031075737 -0.0031432868 -6e-45
000050 1e a2 b9 39 30 63 01 3b b9 75 cc 9c 59 34 ef 3b
       0.00035406736 0.0019742958 -1.3530018e-21 0.0072999415
000060 04 00 00 00 ee 77 39 3a 04 00 00 00 7f c1 a4 37
       6e-45 0.0007075061 6e-45 1.9640427e-05
000070 40 3c 24 be 04 00 00 80 09 a0 22 30 ad 3b fc bb
       -0.16038609 -6e-45 5.916268e-10 -0.0076975436
000080 95 c5 eb 39 cc ac 42 3b 61 8f 9d ba 04 00 00 00
       0.00044969903 0.0029705046 -0.001202088 6e-45
000090 cb 8c fa ba 77 aa 73 3b 8c 93 f5 1c 92 51 9f 3c
       -0.0019115446 0.0037180462 1.625088e-21 0.019448075
0000a0 04 00 00 00 15 48 d1 3b 04 00 00 00 12 73 e7 39
       6e-45 0.0063867667 6e-45 0.00044145487
0000b0 54 b3 08 3c 04 00 00 00 64 49 03 38 ac 96 0a 3a
       0.008343536 6e-45 3.1301184e-05 0.0005286734
0000c0 e5 7b 17 3a f3 1c 54 bb a4 4e 30 3c 04 00 00 00
       0.00057786546 -0.0032365888 0.010760937 6e-45
0000d0 7a 51 62 37 7b 8a 80 3b 5d 1e 1e 9d d8 62 81 3b
       1.348962e-05 0.003922758 -2.0926823e-21 0.0039485507
0000e0 04 00 00 00 ec 45 57 bc 04 00 00 00 75 51 6c 39
       6e-45 -0.013139229 6e-45 0.00022537059
0000f0 b7 65 00 3e 04 00 00 80 de ce 37 38 3a 5b e5 3b
       0.12538801 -6e-45 4.382326e-05 0.0069994004
000100 cb c4 ec 39 ad 1d f8 3a 36 a7 5b 3c 04 00 00 00
       0.0004516005 0.0018929743 0.013406565 6e-45
000110 f2 35 c7 bb 4b 71 60 3b e3 88 8f 9b 0b ce 32 3b
       -0.006079429 0.0034247215 -2.3745826e-22 0.0027283456
000120 04 00 00 00 76 b8 12 3c 04 00 00 00 06 66 8d 39
       6e-45 0.008955112 6e-45 0.0002696963
000130 ed f1 af 3c 04 00 00 80 0d 54 a5 35 fd df ca 3b
       0.021477664 -6e-45 1.231792e-06 0.0061912523
000140 f8 dd a9 bb ca 44 4b 3b 95 a8 74 bb 04 00 00 80
       -0.0051839314 0.0031016343 -0.0037331928 -6e-45
000150 05 8a b8 3b c5 7a 4d 3d 06 f6 85 9c b9 31 3e bd
       0.0056316876 0.05016591 -8.864797e-22 -0.046434138
000160 04 00 00 00 a8 58 02 bd 04 00 00 00 d0 0c 31 bb
       6e-45 -0.03182283 6e-45 -0.0027015693
000170 bd 22 6e ba 04 00 00 00 80 0d a5 ba 65 db 2a bc
       -0.0009084156 6e-45 -0.0012592524 -0.010428284
000180 5a 82 74 3a 00 6c 2c 3b 19 f8 d1 bb 04 00 00 00
       0.0009327285 0.002630949 -0.0064077494 6e-45
000190 8f 7d 9b 3b 53 db f6 ba e4 22 80 1d 30 4f ad 39
       0.0047451924 -0.0018833674 3.3917394e-21 0.0003305613
0001a0 04 00 00 80 d8 df ec 3b 04 00 00 00 85 b2 f0 39
       -6e-45 0.0072288327 6e-45 0.00045909375
0001b0 d6 8b 6b 3c 04 00 00 80 44 1e 76 38 8b f8 32 bb
       0.014376601 -6e-45 5.8679158e-05 -0.0027308788
0001c0 2e 63 97 3a ac 44 4b bd 1f 1c 93 bc 04 00 00 80
       0.0011549944 -0.049626037 -0.017957745 -6e-45
0001d0 43 28 c7 3a bc c7 0f be 4b 28 4e 9c 5e 3b 62 ba
       0.0015194494 -0.14041036 -6.821176e-22 -0.0008630062
0001e0 04 00 00 80 26 c7 08 3c 04 00 00 80 b5 13 e8 38
       -6e-45 0.008348262 -6e-45 0.00011066293
0001f0 69 7e ab 3a 04 00 00 00 b0 14 38 33 44 1f 92 3a
       0.0013083938 6e-45 4.2859654e-08 0.0011148234
000200 90 45 92 38 9e 40 0f 3b e1 32 9f bb 04 00 00 00
       6.9747795e-05 0.0021858583 -0.00485836 6e-45
000210 36 70 12 3b c6 83 92 bc 92 ca 40 1b 32 a5 e5 bc
       0.0022344715 -0.0178851 1.5947322e-22 -0.028032873
000220 04 00 00 80 c1 11 c0 38 04 00 00 00 b7 ba 13 3a
       -6e-45 9.15858e-05 6e-45 0.00056354277
000230 30 e9 b7 3b 04 00 00 00 79 50 52 38 c2 e4 13 3a
       0.005612515 6e-45 5.0142848e-05 0.00056416926
000240 89 7c f5 39 9c 84 17 3d 8b d9 a6 3c 04 00 00 00
       0.00046822827 0.0369917 0.020367404 6e-45
000250 e0 4c e0 bb 1f 72 d4 3d e4 82 9c 9c d3 88 51 3d
       -0.0068451017 0.10373329 -1.0357048e-21 0.051155876
000260 04 00 00 00 5f 74 76 3c 04 00 00 80 f1 83 57 39
       6e-45 0.0150423935 -6e-45 0.0002055315
000270 24 69 8f 3b 04 00 00 80 c9 a7 39 36 5b 36 bc 3a
       0.0043765474 -6e-45 2.7664812e-06 0.0014359461

exp_avg_sq f4 [10, 16]
000000 fb 2a 98 3a 7e 39 7c 3b b7 92 cd 3c ab ee 8a 2c
       0.0011609489 0.0038486416 0.025094373 3.9486934e-12
000010 13 d9 1c 3a 3e 5f d9 3a 7f 4f 75 3d 7e 3b 49 3d
       0.00059832743 0.001658417 0.059890267 0.049129
000020 fa af 0a 2d 89 56 11 3b 11 48 1e 28 95 49 6c 3b
       7.8834664e-12 0.0022176823 8.786389e-15 0.00360546
000030 5a ee 32 3c b4 af 57 2c 69 b5 14 3d 79 19 b6 3a
       0.010921085 3.0650872e-12 0.03630582 0.001389309
000040 9e 88 6a 37 a8 5f 5d 39 91 ae 8f 3a 26 34 a4 2b
       1.39792955e-05 0.00021111837 0.0010962059 1.1667375e-12
000050 81 a5 8b 39 ec 71 71 39 fa 7a e4 3b 32 e8 b4 3a
       0.00026635456 0.0002302599 0.0069726678 0.001380211
000060 9b d4 09 2d 03 fc 28 3a b0 23 37 2b b5 1b d0 3a
       7.834756e-12 0.0006446244 6.5064187e-13 0.0015877398
000070 87 2d f5 3c fc 6d bc 2b be eb 52 3b 66 ac 48 3b
       0.029928936 1.338873e-12 0.003218397 0.0030620336
000080 93 ab a9 3a 45 fb ff 3b 43 b5 6b 3b c4 7f ae 2c
       0.001294481 0.007811936 0.0035966195 4.9595623e-12
000090 47 39 8c 3c 76 49 c7 39 ba 11 63 3e 38 56 f5 3c
       0.017117156 0.0003801097 0.22174731 0.029948339
0000a0 2d c5 0e 2c 95 cd 0c 3c 24 e6 86 2b 47 49 71 3d
       2.0288868e-12 0.008593936 9.58515e-13 0.058907773
0000b0 8c e1 45 3b a1 bb f4 2b 8e d1 83 3a 10 4e 26 3c
       0.003019425 1.738932e-12 0.0010056959 0.0101504475
0000c0 0e ba 25 39 92 d0 bc 3a 31 c8 36 3c dc 2e d5 29
       0.00015804937 0.001440542 0.011156128 9.467229e-14
0000d0 94 52 19 3a de 7c a4 3a 6e a8 3b 3d 56 28 a0 3c
       0.0005848792 0.001254942 0.045814924 0.019550484
0000e0 f3 60 ab 2c 11 2f 00 3c 8d 91 e9 2a 48 d6 19 3b
       4.870876e-12 0.0078237215 4.149011e-13 0.002347367
0000f0 0b e2 49 3d e4 df 54 2e 04 d3 1f 3c 51 ad b4 3b
       0.049287837 4.8402074e-11 0.0097549 0.005513825
000100 e4 be 0c 3a 95 18 6c 3b 5c 99 0d 3b 7b ff 8a 2c
       0.0005369021 0.0036025394 0.0021606302 3.95056e-12
000110 40 2e e5 3c ce 5f 16 3a ee e3 79 3e 51 af 94 3c
       0.027976155 0.0005736322 0.24403355 0.018150004
000120 84 52 11 2d 7b d4 c4 3c 1f 88 3d 2b 84 93 8c 3d
       8.260618e-12 0.0240271 6.7335194e-13 0.06864074
000130 2e 5f 6c 3c 8b 3e 1b 2c f1 b4 da 39 cd c0 21 3c
       0.0144269895 2.2061543e-12 0.00041715012 0.009872627
000140 61 0e 98 3a ea c1 77 3b 82 4d 83 3a 52 ac 0d 2b
       0.0011600965 0.003780479 0.0010017606 5.0332405e-13
000150 4c 3c 81 3b 85 21 f8 3c 7f 95 12 3a 6f 1f b6 3c
       0.0039439555 0.03028942 0.00055917347 0.022231786
000160 76 fe 1b 2c d4 18 24 3c ed b5 44 25 97 eb 9d 3a
       2.216808e-12 0.010015685 1.7061929e-16 0.0012048361
000170 e2 e7 0d 3a 61 79 fb 2c 7b c7 1d 3a 1f a3 13 3a
       0.00054132764 7.147325e-12 0.00060187996 0.0005631912
000180 d1 d7 99 3a 77 92 cc 3b a9 26 a3 3c 8c 59 7c 2c
       0.0011737292 0.006243046 0.019915896 3.5861062e-12
000190 1f 23 df 3c 17 fc 4e 3a c3 57 74 3e 5c 4f a1 3d
       0.027238427 0.00078958407 0.23861603 0.07876465
0001a0 66 8d 4e 2b c5 ad 8e 3c cf 92 3f 2b dd 69 1e 3d
       7.338213e-13 0.017416844 6.806057e-13 0.038675178
0001b0 fc d6 03 3c e9 53 68 2c 5a 1d f2 3c 92 bc 9c 3b
       0.008046862 3.3015762e-12 0.029555012 0.0047832215
0001c0 12 43 15 3a 9b d5 05 3c ab 2a 85 39 51 22 d1 2e
       0.0005693893 0.008168603 0.00025399527 9.5103155e-11
0001d0 60 d7 cf 3a c4 25 8b 3d 43 91 18 3a 39 22 be 3b
       0.0015857033 0.067943126 0.00058199855 0.0058024195
0001e0 95 bd 14 2f 71 38 42 3c fd 42 0a 29 5d 8c e9 39
       1.3527875e-10 0.011854277 3.070026e-14 0.00044545802
0001f0 b5 78 18 39 cd fc 55 2d 55 0a a2 39 9b 21 82 39
       0.00014540816 1.2163781e-11 0.00030906746 0.0002482057
000200 48 ae 88 3a 48 d7 d3 39 52 cc f6 3a 63 7f 48 2c
       0.0010427916 0.00040405453 0.0018829203 2.8492423e-12
000210 a6 1b b0 39 e6 59 22 3c 62 a3 5a 3c 90 6f b4 3c
       0.00033589936 0.009909129 0.013344618 0.022025853
000220 bb 7f 57 2d 90 0f fb 3a fe d8 12 2b 50 7e ae 3b
       1.2249697e-11 0.0019154418 5.2170757e-13 0.005325116
000230 01 47 08 3b f0 2f 2f 2d 28 bf ee 39 74 d8 cf 38
       0.0020794275 9.9582426e-12 0.0004553732 9.910847e-05
000240 44 87 e9 39 5b 00 13 3c de 4e 09 3a f6 11 14 2c
       0.00044542004 0.008972253 0.00052378874 2.1042035e-12
000250 af 4a 91 3b 75 8f 8b 3d 59 43 e3 3a 30 63 dd 3c
       0.004433952 0.06814472 0.0017338797 0.027024835
000260 6b 59 c8 2c 4a c7 3f 3b 2d 71 b5 2d 14 45 04 3b
       5.6942693e-12 0.0029263073 2.0627578e-11 0.0020182775
000270 76 df 9d 39 83 4f 84 2b b1 eb 8d 39 e0 7f 63 38
       0.00030111865 9.401233e-13 0.0002706922 5.424011e-05

exp_avg f4 [10]
000000 ac e9 a6 3b bb 82 11 bc 4d dd ad bc d1 ca 56 3c
       0.005093774 -0.008881266 -0.021223688 0.013109879
000010 ae 37 6c ba 43 81 3d 3c 3e 71 cc bc ec 70 fe 3b
       -0.00090109825 0.011566463 -0.024956342 0.007764926
000020 99 86 28 bb cb 05 ac 3c
       -0.0025714992 0.020998856

exp_avg_sq f4 [10]
000000 84 20 cd 3a db 73 82 3a 6a 6b 17 3b 0c 68 da 3a
       0.0015649949 0.000995274 0.0023104795 0.0016663088
000010 83 99 3f 3b 92 28 98 3a 6c 2a 3d 3b bb 49 b6 3a
       0.0029235787 0.0011608771 0.0028864397 0.0013907471
000020 31 46 32 3a c9 18 53 3a
       0.00068006205 0.00080527045
