course/week2/monitor_project/checkpoints/model.ckpt (torch, 598142 bytes, 9 tensors)

model.0.weight f4 [64, 768]
0	0x3d12f18d	0.035874892
1	0xbcc1ae9b	-0.023642829
2	0x3d1875a3	0.037221562
3	0xbc8982ba	-0.016785968
4	0x3b049db7	0.0020235607
5	0xbb76910f	-0.0037623083
6	0xbc821b6d	-0.015882218
7	0x3b848dc8	0.004045222
8	0xbc8753cd	-0.016519452
9	0xbc3f4b49	-0.011675664
10	0xbc97206e	-0.01844808
11	0x3cfe7f6a	0.031066615
12	0x3d193f35	0.037413795
13	0xbce5ece4	-0.02806706
14	0x3c7d7ba1	0.01547137
15	0x3cc87444	0.024469502
16	0x3b308fa3	0.0026941083
17	0xbd06338a	-0.032763995
18	0xbca7a74f	-0.020465521
19	0x3c96aa69	0.018391805
20	0x3c3b4640	0.011430323
21	0x3ba2720c	0.004957443
22	0x3cbce1dc	0.023056917
23	0x39bb56ce	0.00035732094
24	0x3cf77431	0.030206772
25	0xbcb63636	-0.022242647
26	0x3cde5e58	0.027144596
27	0xbae2150d	-0.0017248705
28	0xbca2c0d3	-0.019867336
29	0x3ce4c506	0.02792598
30	0xbc9ff75d	-0.019527132
31	0xbc9fceeb	-0.019507846
32	0xbcddf3f8	-0.027093872
33	0xbc747e5b	-0.014922704
34	0x3b920917	0.00445665
35	0xbc47a27e	-0.012184737
36	0x3bf5a7a2	0.00749679
37	0xbcaf2124	-0.021378107
38	0x3c24abfa	0.010050768
39	0xbc89e546	-0.016832959
40	0x3cc4b77b	0.024013272
41	0x3c4655b4	0.012105394
42	0x3cbcac23	0.0230313
43	0xbc88d8db	-0.016704967
44	0xbc9c1bd5	-0.01905624
45	0xbd065eaf	-0.03280514
46	0xbd1ea9e0	-0.038736224
47	0x3c951344	0.018197663
48	0x3cd509da	0.026005674
49	0x3c39e8e3	0.011347028
50	0x3cd48981	0.025944473
51	0x3c2ed854	0.010671694
52	0x3cda1b59	0.026624369
53	0x3c659ea7	0.014014876
54	0xbc9c3ef8	-0.019072995
55	0xbb11941d	-0.0022213527
56	0x3cc060ee	0.02348372
57	0x3c91010c	0.017700695
58	0x3ce267b1	0.027637335
59	0xbc9dbf6d	-0.019256318
60	0xbce67c14	-0.028135337
61	0x3d204ec9	0.039137635
62	0x3b623a86	0.0034519746
63	0xbc82ee8f	-0.015982894
64	0xbc61ac9f	-0.013774066
65	0xbc3866ec	-0.011255007
66	0xbc808ee8	-0.015693143
67	0x3b2825de	0.0025657336
68	0xbcddba8b	-0.02706649
69	0x3cb84768	0.022494987
70	0xbcba4158	-0.022736236
71	0x3c7f6060	0.015586942
72	0xbbe89121	-0.007097379
73	0xbca0f433	-0.019647693
74	0x3c4ff091	0.012691633
75	0xbcb4de90	-0.022078782
76	0x3733b1cf	1.0710631e-05
77	0x3c84864f	0.016177325
78	0x3be707ad	0.0070504756
79	0x3ca97295	0.02068452
80	0x3c0cf910	0.008604303
81	0xbc0c9d57	-0.008582435
82	0xb939c916	-0.00017717885
83	0xbcd28a9a	-0.025700856
84	0x3cf9498e	0.030430581
85	0x3c1a6350	0.009423092
86	0xbc9be495	-0.019029895
87	0x3ce81187	0.02832867
88	0x3cc9caa3	0.024632758
89	0xbc919dc9	-0.017775433
90	0x3d1e813c	0.038697466
91	0xbbad4490	-0.0052877143
92	0xbccd271e	-0.025043067
93	0x3c78a977	0.015177122
94	0x3d0b3f4b	0.033995908
95	0xbcd3c8b4	-0.025852539
96	0xbd09a0ba	-0.033600546
97	0xbcf8840b	-0.0303364
98	0x3d1995ae	0.03749626
99	0x3c677da2	0.014129074
100	0x3cd8e1be	0.02647483
101	0x3cb4f6ac	0.022090279
102	0xbcfa8aa0	-0.03058368
103	0x3bd627a6	0.006535488
104	0x3d0327d0	0.03202039
105	0xbbf05b39	-0.0073350933
106	0xbc9ca5db	-0.019122055
107	0x3a297795	0.00064646575
108	0x3ca16822	0.019702975
109	0xbd05ab72	-0.032634206
110	0x3cf3ffaa	0.029784996
111	0xbd0d7178	-0.03453204
112	0x3c2bfc64	0.010497186
113	0xbca925f7	-0.020647986
114	0xbc00919c	-0.007847216
115	0x3bc0291c	0.0058642756
116	0x3c6a766e	0.014310462
117	0xbc220bba	-0.009890491
118	0xbc9ebb07	-0.019376291
119	0x3d15c084	0.03656055
120	0xbd020e0f	-0.03175169
121	0x3d1c1b18	0.038111776
122	0xbc25b473	-0.010113823
123	0x3b676fb1	0.0035314376
124	0x3c256001	0.01009369
125	0xbcc71dd7	-0.024306221
126	0xbcf9946e	-0.030466285
127	0xbcc3cdf5	-0.023901919
128	0xbc94df01	-0.018172743
129	0xbcc4fd97	-0.024046702
130	0xbb7bfb1c	-0.0038449233
131	0xbd1ac93b	-0.037789565
132	0xbca5bfbc	-0.020233028
133	0xbce3d1fd	-0.027810091
134	0xbc86aa8b	-0.016438743
135	0x3c8224cc	0.015886687
136	0xbc28fbda	-0.010313952
137	0x3b3d164e	0.0028852406
138	0xbce52e2c	-0.027976118
139	0x3d02b54d	0.031911183
140	0x3b1eda8b	0.0024239148
141	0xbcca3bf5	-0.024686793
142	0x3cd98cdc	0.026556425
143	0x3b97005b	0.0046081967
144	0xbcc3a21e	-0.023881014
145	0xbc48a609	-0.012246617
146	0xbcd5f3a7	-0.026117159
147	0xbbd95942	-0.006632955
148	0x3c0a6291	0.008446352
149	0xba850916	-0.0010149803
150	0x3c5ce361	0.013481946
151	0x3bb55f7a	0.0055350633
152	0x3cb0c916	0.02158026
153	0xbcc3557f	-0.023844479
154	0xbc5cf6cc	-0.013486575
155	0xbcba0d8d	-0.02271154
156	0x3c5957da	0.013265574
157	0xbca4cd0f	-0.02011731
158	0xbc9aba6e	-0.018887725
159	0xbcbbb57d	-0.022913689
160	0xbc85e68a	-0.016345281
161	0x3cd336bd	0.025782937
162	0xbcbacdec	-0.02280327
163	0x3d11b404	0.035572067
164	0x3d1e4d2c	0.038647816
165	0xbc6d806d	-0.014495951
166	0x3c5cf639	0.013486438
167	0xbd02dc9e	-0.03194868
168	0xbcb9bd3b	-0.02267324
169	0x3c2aa467	0.010415173
170	0x3be92a39	0.007115629
171	0x3c7451fd	0.014912126
172	0x3c951af9	0.018201338
173	0xbcdd60c3	-0.027023679
174	0x3d061c81	0.032742027
175	0x3ba9c9d1	0.005181529
176	0xba9fb7e1	-0.0012185537
177	0x3c0c818d	0.008575809
178	0x3c046c5a	0.008082474
179	0x3cc90314	0.0245376
180	0x3ccd0658	0.025027439
181	0xbc8e4ac6	-0.01736964
182	0xbbf6ba1e	-0.007529511
183	0xbc7407c9	-0.014894434
184	0xbc1a3a73	-0.009413349
185	0xbbaefc89	-0.005340163
186	0xbc72691f	-0.014795571
187	0x3bdb52fb	0.0066932417
188	0x3c86441c	0.016389899
189	0xbc0a2da9	-0.008433738
190	0x3cb03d09	0.021513479
191	0xbc2ec1b8	-0.010666303
192	0x3c4ea85f	0.012613385
193	0xbc7a89b4	-0.01529162
194	0x3c0d941e	0.008641271
195	0xbc08890c	-0.008333456
196	0xbcd3baee	-0.025845971
197	0x3afe1cfb	0.0019387299
198	0x3be887bd	0.0070962594
199	0xbcd86939	-0.026417362
200	0xbc1a8506	-0.009431129
201	0xbc57b9ec	-0.013166886
202	0x3cbd8fa2	0.023139779
203	0x3c6a03a4	0.014283095
204	0x3c785433	0.015156793
205	0xbd19599a	-0.037438966
206	0x3c83ebeb	0.016103705
207	0x3cd7ffcf	0.026367096
208	0x3c4dbcfc	0.012557264
209	0x3cd3c7a9	0.025852041
210	0x3c7b8612	0.015351789
211	0x3c2fd9c4	0.010733072
212	0xbcd95766	-0.026530933
213	0xbd0f8f2e	-0.035048656
214	0x3c42bd44	0.011885945
215	0xbc2b8fed	-0.010471326
216	0x3c8c1eef	0.017104594
217	0xbc93ff1f	-0.018065987
218	0xbc1ed2a1	-0.0096937725
219	0xbc4494cd	-0.0119983675
220	0x39f9c4d1	0.0004763962
221	0xbbfa5953	-0.007640043
222	0xbc9c605d	-0.019088918
223	0x3bcad507	0.0061899456
224	0x3c2aa00f	0.0104141375
225	0xbc2cbc89	-0.010542997
226	0xbcaf34ec	-0.02138754
227	0xbc321c09	-0.010870942
228	0x3ce4f279	0.027947651
229	0xbcb0500a	-0.02152254
230	0xbb0e6ef1	-0.0021733607
231	0xbbb59a98	-0.0055421107
232	0x3c8b6db7	0.01702009
233	0xbce8df29	-0.028426724
234	0x3d198987	0.037484672
235	0x3d0643d9	0.03277955
236	0xbccc4ed0	-0.024939924
237	0x3cd76e15	0.026297608
238	0xbd1c88c1	-0.038216356
239	0xbc17c45a	-0.009263122
240	0x3b5ffd69	0.0034178144
241	0x3c4e853c	0.012605008
242	0x3ca43a86	0.020047437
243	0xbc123e0e	-0.008925928
244	0xbbbd2168	-0.0057718046
245	0x3c06601a	0.008201623
246	0xbc9ffd15	-0.019529859
247	0xbbc950c4	-0.006143661
248	0xbb5bd54b	-0.003354388
249	0xbc9961fd	-0.018723482
250	0xbcd1d0d2	-0.025612269
251	0x3d084218	0.033266157
252	0xbc6beb79	-0.014399403
253	0xbcf1cef2	-0.029517625
254	0xbbe0a8b9	-0.006856051
255	0x3cc403f6	0.02392767

model.0.bias f4 [64]
0	0xbbd0fc93	-0.0063777654
1	0x3b50b809	0.0031847975
2	0x3c6be2ce	0.014397336
3	0xbb8c4ffe	-0.0042819967
4	0x3d426097	0.047455397
5	0xb9cf9778	-0.0003959497
6	0x3ced9f18	0.029006526
7	0xbcd1d8fd	-0.025616163
8	0x3b80d616	0.003931771
9	0x3ceb17cd	0.028697873
10	0xbc83b192	-0.016075883
11	0xbcd94db4	-0.02652631
12	0x3c869a50	0.016431004
13	0xbc5fa507	-0.013650185
14	0x3ba93a58	0.005164426
15	0x3ce59d87	0.028029216
16	0xbc16ebd1	-0.009211496
17	0xbb015820	-0.0019736364
18	0xbd0403b6	-0.0322301
19	0xbd107394	-0.035266474
20	0x3c7407b7	0.0148944175
21	0xbbf6ccb4	-0.0075317267
22	0xbcdaa131	-0.02668819
23	0xbca6a068	-0.02034016
24	0xbd05b69b	-0.03264485
25	0xbc3e3884	-0.011610154
26	0x3b746178	0.0037289541
27	0x3c24fe2b	0.010070364
28	0xbd07f9a9	-0.03319708
29	0xbac0c8a8	-0.0014708238
30	0x3d7b0ad1	0.061289612
31	0xbc962a69	-0.01833077
32	0x3c8898ef	0.016674487
33	0x3c044f61	0.008075566
34	0x3cba82e2	0.022767488
35	0xbcc97cf1	-0.02459571
36	0x3bf9e969	0.0076267016
37	0x3cdebbae	0.027189102
38	0x3a2adca2	0.0006517862
39	0x3c048788	0.008088954
40	0x3c0b845a	0.008515442
41	0xbc847ad9	-0.01617186
42	0xbbcf6e02	-0.0063302526
43	0xbcddf6f3	-0.027095294
44	0xbb0530d0	-0.0020323284
45	0x3d31ee22	0.04343999
46	0x3c581191	0.013187782
47	0x3b956663	0.0045593246
48	0x3d0cf70d	0.034415293
49	0x3bfc054f	0.0076910625
50	0xbca2e4cb	-0.019884488
51	0x3cc1a2c6	0.023637187
52	0x3c48e27a	0.0122610275
53	0x3c38e643	0.011285367
54	0x3ba0a689	0.004902665
55	0xbd07cc2c	-0.033153698
56	0x3c95afd4	0.018272318
57	0x3c9ce27f	0.01915097
58	0xbca98cbe	-0.020696994
59	0xbcf29f1e	-0.029616889
60	0xbbbf0efc	-0.0058306437
61	0x3b965380	0.0045875907
62	0xba689f50	-0.0008873837
63	0x3c00de07	0.007865435

model.2.weight f4 [1, 64]
0	0x3da5de7e	0.08099078
1	0x3d81d6a4	0.063397676
2	0x3df0e73f	0.11762857
3	0xbdff671c	-0.124708384
4	0xbfb5dde1	-1.4208337
5	0xbfb4590f	-1.4089679
6	0xbdc44c94	-0.095849186
7	0xbcb408e7	-0.021976901
8	0x3d1f9720	0.038962483
9	0x3dc22233	0.09479179
10	0xbfbd8b70	-1.4808178
11	0x3d05ab7b	0.03263424
12	0x3d2c0ddc	0.042005405
13	0xbd48d88a	-0.049034633
14	0xbd12343c	-0.035694346
15	0x3c986a4b	0.018605372
16	0x3dc1c1bb	0.09460779
17	0xbdefad84	-0.11703017
18	0x3d064c20	0.032787442
19	0x3dd7b442	0.10532428
20	0x3df37d21	0.11889101
21	0xbdd1c988	-0.10243517
22	0xbdaa7566	-0.08323173
23	0xbdc90162	-0.09814717
24	0xbdd19d48	-0.10235077
25	0x3c82b830	0.015956968
26	0xbfbed979	-1.4910117
27	0x3cc5a5d8	0.024126932
28	0xbdeecbe8	-0.11659986
29	0x3d1ac552	0.037785836
30	0x3ece3882	0.40277487
31	0x3da72455	0.08161227
32	0x3db94998	0.0904724
33	0x3c2017b1	0.0097712735
34	0xbfa6f85c	-1.3044543
35	0x3cf13fc0	0.029449344
36	0xbd84d07c	-0.06485078
37	0x3d6c4f7d	0.057692993
38	0x3b33c440	0.0027430207
39	0x3d2236a5	0.039602894
40	0xbfc0569d	-1.5026432
41	0xbc5553b5	-0.013020446
42	0x3bfef840	0.0077810585
43	0xbda545e4	-0.08069971
44	0x3da6c890	0.08143723
45	0xbfb6d207	-1.4282845
46	0x3cb35360	0.021890342
47	0xbd7f288c	-0.062294528
48	0xbc40e340	-0.011772931
49	0x3d098e63	0.033583056
50	0xbfc17e01	-1.5116578
51	0xbfb45bce	-1.4090517
52	0xbfbf7cc1	-1.4959947
53	0xbd0c26d4	-0.034216717
54	0x3d2b01e4	0.04174985
55	0x3dc07252	0.09396805
56	0x3d72128e	0.059099726
57	0x3ce60610	0.028079063
58	0x3d83df44	0.06439069
59	0x3c3b0820	0.011415511
60	0xbd46df68	-0.0485529
61	0x3dc53fea	0.09631331
62	0xbfb50c40	-1.4144363
63	0xbcfcb0a8	-0.030845955

exp_avg f4 [64, 768]
0	0x80000004	-6e-45
1	0x80000004	-6e-45
2	0x80000004	-6e-45
3	0x80000004	-6e-45
4	0x00000004	6e-45
5	0x00000004	6e-45
6	0x00000004	6e-45
7	0x80000004	-6e-45
8	0x80000004	-6e-45
9	0x80000004	-6e-45
10	0x00000004	6e-45
11	0x80000004	-6e-45
12	0x80000004	-6e-45
13	0x00000004	6e-45
14	0x80000004	-6e-45
15	0x00000004	6e-45
16	0x00000004	6e-45
17	0x80000004	-6e-45
18	0x00000004	6e-45
19	0x00000004	6e-45
20	0x80000004	-6e-45
21	0x00000004	6e-45
22	0x00000004	6e-45
23	0x00000004	6e-45
24	0x00000004	6e-45
25	0x00000004	6e-45
26	0x80000004	-6e-45
27	0x80000004	-6e-45
28	0x00000004	6e-45
29	0x00000004	6e-45
30	0x00000004	6e-45
31	0x00000004	6e-45
32	0x00000004	6e-45
33	0x00000004	6e-45
34	0x80000004	-6e-45
35	0x00000004	6e-45
36	0x80000004	-6e-45
37	0x80000004	-6e-45
38	0x00000004	6e-45
39	0x80000004	-6e-45
40	0x80000004	-6e-45
41	0x00000004	6e-45
42	0x00000004	6e-45
43	0x80000004	-6e-45
44	0x80000004	-6e-45
45	0x00000004	6e-45
46	0x00000004	6e-45
47	0x00000004	6e-45
48	0x80000004	-6e-45
49	0x80000004	-6e-45
50	0x80000004	-6e-45
51	0x00000004	6e-45
52	0x00000004	6e-45
53	0x00000004	6e-45
54	0x80000004	-6e-45
55	0x00000004	6e-45
56	0x80000004	-6e-45
57	0x00000004	6e-45
58	0x80000004	-6e-45
59	0x80000004	-6e-45
60	0x80000004	-6e-45
61	0x80000004	-6e-45
62	0x00000004	6e-45
63	0x80000004	-6e-45
64	0x00000004	6e-45
65	0x80000004	-6e-45
66	0x00000004	6e-45
67	0x80000004	-6e-45
68	0x80000004	-6e-45
69	0x00000004	6e-45
70	0x80000004	-6e-45
71	0x00000004	6e-45
72	0x00000004	6e-45
73	0x80000004	-6e-45
74	0x80000004	-6e-45
75	0x00000004	6e-45
76	0x80000004	-6e-45
77	0x80000004	-6e-45
78	0x00000004	6e-45
79	0x00000004	6e-45
80	0x80000004	-6e-45
81	0x00000004	6e-45
82	0x00000004	6e-45
83	0x00000004	6e-45
84	0x80000004	-6e-45
85	0x80000004	-6e-45
86	0x80000004	-6e-45
87	0x80000004	-6e-45
88	0x00000004	6e-45
89	0x00000004	6e-45
90	0x80000004	-6e-45
91	0x80000004	-6e-45
92	0x00000004	6e-45
93	0x00000004	6e-45
94	0x80000004	-6e-45
95	0x80000004	-6e-45
96	0x00000004	6e-45
97	0x80000004	-6e-45
98	0x80000004	-6e-45
99	0x80000004	-6e-45
100	0x00000004	6e-45
101	0x80000004	-6e-45
102	0x80000004	-6e-45
103	0x00000004	6e-45
104	0x00000004	6e-45
105	0x80000004	-6e-45
106	0x00000004	6e-45
107	0x00000004	6e-45
108	0x00000004	6e-45
109	0x80000004	-6e-45
110	0x80000004	-6e-45
111	0x00000004	6e-45
112	0x00000004	6e-45
113	0x00000004	6e-45
114	0x80000004	-6e-45
115	0x00000004	6e-45
116	0x00000004	6e-45
117	0x80000004	-6e-45
118	0x00000004	6e-45
119	0x80000004	-6e-45
120	0x00000004	6e-45
121	0x80000004	-6e-45
122	0x00000004	6e-45
123	0x00000004	6e-45
124	0x80000004	-6e-45
125	0x00000004	6e-45
126	0x00000004	6e-45
127	0x00000004	6e-45
128	0x00000004	6e-45
129	0x00000004	6e-45
130	0x80000004	-6e-45
131	0x00000004	6e-45
132	0x80000004	-6e-45
133	0x00000004	6e-45
134	0x00000004	6e-45
135	0x00000004	6e-45
136	0x80000004	-6e-45
137	0x80000004	-6e-45
138	0x80000004	-6e-45
139	0x00000004	6e-45
140	0x00000004	6e-45
141	0x00000004	6e-45
142	0x80000004	-6e-45
143	0x00000004	6e-45
144	0x00000004	6e-45
145	0x00000004	6e-45
146	0x00000004	6e-45
147	0x80000004	-6e-45
148	0x00000004	6e-45
149	0x00000004	6e-45
150	0x00000004	6e-45
151	0x00000004	6e-45
152	0x80000004	-6e-45
153	0x80000004	-6e-45
154	0x80000004	-6e-45
155	0x80000004	-6e-45
156	0x00000004	6e-45
157	0x80000004	-6e-45
158	0x80000004	-6e-45
159	0x00000004	6e-45
160	0x00000004	6e-45
161	0x80000004	-6e-45
162	0x80000004	-6e-45
163	0x80000004	-6e-45
164	0x80000004	-6e-45
165	0x80000004	-6e-45
166	0x80000004	-6e-45
167	0x00000004	6e-45
168	0x80000004	-6e-45
169	0x80000004	-6e-45
170	0x80000004	-6e-45
171	0x80000004	-6e-45
172	0x80000004	-6e-45
173	0x00000004	6e-45
174	0x80000004	-6e-45
175	0x00000004	6e-45
176	0x80000004	-6e-45
177	0x00000004	6e-45
178	0x00000004	6e-45
179	0x00000004	6e-45
180	0x00000004	6e-45
181	0x80000004	-6e-45
182	0x80000004	-6e-45
183	0x00000004	6e-45
184	0x00000004	6e-45
185	0x00000004	6e-45
186	0x80000004	-6e-45
187	0x00000004	6e-45
188	0x00000004	6e-45
189	0x00000004	6e-45
190	0x00000004	6e-45
191	0x80000004	-6e-45
192	0x80000004	-6e-45
193	0x00000004	6e-45
194	0x80000004	-6e-45
195	0x00000004	6e-45
196	0x80000004	-6e-45
197	0x00000004	6e-45
198	0x80000004	-6e-45
199	0x80000004	-6e-45
200	0x00000004	6e-45
201	0x80000004	-6e-45
202	0x80000004	-6e-45
203	0x00000004	6e-45
204	0x00000004	6e-45
205	0x00000004	6e-45
206	0x80000004	-6e-45
207	0x80000004	-6e-45
208	0x00000004	6e-45
209	0x00000004	6e-45
210	0x00000004	6e-45
211	0x80000004	-6e-45
212	0x00000004	6e-45
213	0x00000004	6e-45
214	0x80000004	-6e-45
215	0x80000004	-6e-45
216	0x00000004	6e-45
217	0x00000004	6e-45
218	0x00000004	6e-45
219	0x80000004	-6e-45
220	0x80000004	-6e-45
221	0x00000004	6e-45
222	0x00000004	6e-45
223	0x80000004	-6e-45
224	0x00000004	6e-45
225	0x80000004	-6e-45
226	0x80000004	-6e-45
227	0x80000004	-6e-45
228	0x00000004	6e-45
229	0x00000004	6e-45
230	0x00000004	6e-45
231	0x80000004	-6e-45
232	0x00000004	6e-45
233	0x80000004	-6e-45
234	0x80000004	-6e-45
235	0x80000004	-6e-45
236	0x80000004	-6e-45
237	0x00000004	6e-45
238	0x00000004	6e-45
239	0x00000004	6e-45
240	0x00000004	6e-45
241	0x00000004	6e-45
242	0x00000004	6e-45
243	0x00000004	6e-45
244	0x00000004	6e-45
245	0x80000004	-6e-45
246	0x00000004	6e-45
247	0x80000004	-6e-45
248	0x80000004	-6e-45
249	0x80000004	-6e-45
250	0x80000004	-6e-45
251	0x80000004	-6e-45
252	0x00000004	6e-45
253	0x80000004	-6e-45
254	0x00000004	6e-45
255	0x00000004	6e-45

exp_avg_sq f4 [64, 768]
0	0x2567f625	2.0119453e-16
1	0x28f3ad87	2.7053675e-14
2	0x290b27f2	3.0898847e-14
3	0x279d9e9e	4.3748227e-15
4	0x28611f38	1.24967785e-14
5	0x28ff29e4	2.8328854e-14
6	0x293fecc1	4.261587e-14
7	0x275cbb98	3.0632828e-15
8	0x27a776dd	4.6480683e-15
9	0x2891b206	1.617544e-14
10	0x292b1fc1	3.799717e-14
11	0x25a6b00a	2.8915698e-16
12	0x27c30688	5.4130454e-15
13	0x2815b560	8.310491e-15
14	0x2851300f	1.1612252e-14
15	0x2a27fad4	1.4919603e-13
16	0x28d96f88	2.4140209e-14
17	0x2a366670	1.6200387e-13
18	0x2729799e	2.351939e-15
19	0x256879da	2.0164077e-16
20	0x29727913	5.383981e-14
21	0x27c32adb	5.4169836e-15
22	0x2a266e1c	1.4781964e-13
23	0x2990661b	6.412597e-14
24	0x2833929f	9.9682895e-15
25	0x26b042dc	1.2230576e-15
26	0x285d46d2	1.2283321e-14
27	0x258948a0	2.3814924e-16
28	0x288691a3	1.4940148e-14
29	0x29224574	3.6031467e-14
30	0x29852025	5.911963e-14
31	0x2641dc87	6.7259196e-16
32	0x28515b49	1.1621625e-14
33	0x293937dc	4.1126702e-14
34	0x292df2b2	3.862422e-14
35	0x272b5edc	2.378244e-15
36	0x29946a8f	6.591005e-14
37	0x24e08549	9.737031e-17
38	0x2940a0dc	4.2772087e-14
39	0x29096bf3	3.0513742e-14
40	0x279fa7f4	4.431346e-15
41	0x28b38a7d	1.9933052e-14
42	0x28fed303	2.8291177e-14
43	0x288a5f54	1.536242e-14
44	0x27b9762d	5.147594e-15
45	0x29e444a1	1.0137139e-13
46	0x2946c8d6	4.413903e-14
47	0x2624f7a0	5.7234524e-16
48	0x2882415b	1.4461243e-14
49	0x27f3bc81	6.7650425e-15
50	0x2996416b	6.6726864e-14
51	0x29d3403a	9.381424e-14
52	0x298380ea	5.839932e-14
53	0x28d21b94	2.3326644e-14
54	0x26973af7	1.0493712e-15
55	0x2734ac34	2.507337e-15
56	0x281f351d	8.83779e-15
57	0x2952dfdf	4.6823544e-14
58	0x275caadf	3.0623763e-15
59	0x27958d29	4.1508854e-15
60	0x287a4054	1.3891737e-14
61	0x28f68ff8	2.7373923e-14
62	0x24f8e264	1.07936376e-16
63	0x2722ef90	2.2611883e-15
64	0x2661f457	7.83937e-16
65	0x2841198e	1.07191935e-14
66	0x27e58408	6.3703417e-15
67	0x2846c181	1.1033167e-14
68	0x2859ad24	1.2083464e-14
69	0x27177af1	2.1022106e-15
70	0x27be23f7	5.2774587e-15
71	0x2887ffd9	1.5098967e-14
72	0x28afc0ba	1.9512485e-14
73	0x2994994f	6.599115e-14
74	0x2986b5de	5.9823443e-14
75	0x2764e913	3.1767706e-15
76	0x2a83ec13	2.3434084e-13
77	0x280f2023	7.945063e-15
78	0x2990e1ca	6.434053e-14
79	0x2a053da1	1.1834155e-13
80	0x27bedaf4	5.2972983e-15
81	0x2915d91d	3.3272962e-14
82	0x268722e2	9.376962e-16
83	0x2906adb4	2.990464e-14
84	0x264bf59c	7.0762636e-16
85	0x27a13489	4.4743435e-15
86	0x266ea1b8	8.2792007e-16
87	0x2861d03e	1.2535164e-14
88	0x289c602f	1.7361192e-14
89	0x297b282f	5.576805e-14
90	0x28ede546	2.6411717e-14
91	0x29ebdd26	1.04744596e-13
92	0x2779db27	3.4674494e-15
93	0x25cffcbc	3.6080035e-16
94	0x281fc8b6	8.869795e-15
95	0x26038921	4.56356e-16
96	0x2627fc3f	5.828162e-16
97	0x27a90c95	4.6920564e-15
98	0x28bc23f9	2.0887794e-14
99	0x2887bb50	1.5069245e-14
100	0x27119dfb	2.0208434e-15
101	0x291eb927	3.524364e-14
102	0x28892e0d	1.5230027e-14
103	0x293e2a68	4.2225256e-14
104	0x253cb570	1.6367874e-16
105	0x28ff6ccd	2.8357872e-14
106	0x24c57367	8.563063e-17
107	0x298e5c21	6.3220486e-14
108	0x2703c712	1.8287818e-15
109	0x281be70c	8.654329e-15
110	0x28e43653	2.5336644e-14
111	0x2a129783	1.3019971e-13
112	0x29910e1a	6.44174e-14
113	0x26951d63	1.0346917e-15
114	0x25271645	1.4492486e-16
115	0x28fb4c6a	2.7899737e-14
116	0x28a0f952	1.7871694e-14
117	0x298e59c8	6.3216413e-14
118	0x2a0fb25c	1.2762832e-13
119	0x297df3f6	5.6388887e-14
120	0x2605a137	4.636213e-16
121	0x27cbc96d	5.6562205e-15
122	0x2818d480	8.483774e-15
123	0x29087efe	3.0308214e-14
124	0x290ae728	3.084265e-14
125	0x29570b5c	4.7749443e-14
126	0x284b5e29	1.12891814e-14
127	0x296a8f15	5.208254e-14
128	0x28df3837	2.4782353e-14
129	0x28096836	7.627625e-15
130	0x261f199f	5.519893e-16
131	0x2821f17b	8.989658e-15
132	0x285a7ad5	1.2128066e-14
133	0x287f3bfb	1.416835e-14
134	0x293518f1	4.0211707e-14
135	0x2821ede1	8.988877e-15
136	0x2508379f	1.1814965e-16
137	0x299dfd2a	7.0161176e-14
138	0x29295b8c	3.7604942e-14
139	0x2961e241	5.015628e-14
140	0x29975bed	6.7216936e-14
141	0x288792c3	1.5051659e-14
142	0x26e93c6f	1.6184003e-15
143	0x28c8a95f	2.2277913e-14
144	0x27b2b6b0	4.9602995e-15
145	0x2916f435	3.3518507e-14
146	0x281a43b4	8.563398e-15
147	0x29ec9d36	1.0507777e-13
148	0x272a9aeb	2.367622e-15
149	0x29b1592b	7.875847e-14
150	0x2785883a	3.7062613e-15
151	0x28778195	1.3739353e-14
152	0x2867b4a3	1.2862245e-14
153	0x29809d95	5.711678e-14
154	0x294b1b8b	4.5098945e-14
155	0x281a29e7	8.557803e-15
156	0x25814923	2.2427492e-16
157	0x299cf301	6.969946e-14
158	0x280b3965	7.7284955e-15
159	0x29c817c6	8.885908e-14
160	0x273c55c6	2.613674e-15
161	0x26a9e969	1.1789997e-15
162	0x28ca9a21	2.2493348e-14
163	0x2904c2d7	2.9478884e-14
164	0x27007afa	1.7830234e-15
165	0x2835839b	1.0076056e-14
166	0x258accb1	2.4077888e-16
167	0x2787eae8	3.7724713e-15
168	0x277991ff	3.4634836e-15
169	0x2a0ddf9f	1.26009e-13
170	0x28236373	9.069882e-15
171	0x2a5cb11c	1.9601372e-13
172	0x280a2acb	7.669818e-15
173	0x28df6c21	2.4804867e-14
174	0x29a08c10	7.129724e-14
175	0x296ee395	5.3044012e-14
176	0x2985ffec	5.950782e-14
177	0x27cd767c	5.702739e-15
178	0x29e8e00c	1.03417356e-13
179	0x267872c4	8.619782e-16
180	0x252a5c2b	1.4776377e-16
181	0x28f9c67a	2.7730629e-14
182	0x26995081	1.0638328e-15
183	0x2767406e	3.2092617e-15
184	0x2982f452	5.8155425e-14
185	0x29596c6e	4.8277727e-14
186	0x29da99cc	9.707824e-14
187	0x28269be6	9.248656e-15
188	0x28519d92	1.1635998e-14
189	0x29739b29	5.409142e-14
190	0x281c126b	8.663733e-15
191	0x2718f4ec	2.122701e-15
192	0x288c7ca2	1.5597173e-14
193	0x285bc300	1.2199226e-14
194	0x2922b970	3.6132067e-14
195	0x28b419ad	1.999515e-14
196	0x29160060	3.3307016e-14
197	0x28cd426b	2.2788376e-14
198	0x293b7a22	4.1628274e-14
199	0x2914f7e1	3.3077602e-14
200	0x298d09e5	6.263374e-14
201	0x29fee285	1.1319161e-13
202	0x272be0c9	2.3852873e-15
203	0x27742ff1	3.3887791e-15
204	0x2957b9d2	4.7900763e-14
205	0x26138eaf	5.119424e-16
206	0x26f519b7	1.700726e-15
207	0x281405a2	8.216872e-15
208	0x288b4cf7	1.5465478e-14
209	0x28c47507	2.1811124e-14
210	0x2821a676	8.973391e-15
211	0x29f859ca	1.1028988e-13
212	0x295301d4	4.6852997e-14
213	0x268dc362	9.836799e-16
214	0x26f6f8b1	1.7137087e-15
215	0x277c3969	3.5003147e-15
216	0x28bd71d5	2.1032582e-14
217	0x291c502b	3.4708493e-14
218	0x27af096d	4.8582477e-15
219	0x29cf6a31	9.211068e-14
220	0x2870e6a4	1.33726885e-14
221	0x28b28e24	1.9823614e-14
222	0x29661036	5.108432e-14
223	0x2944d713	4.370729e-14
224	0x28aba8c6	1.9058008e-14
225	0x299b9057	6.908422e-14
226	0x29f6ab5b	1.095432e-13
227	0x2852d5d2	1.1703707e-14
228	0x2905ec36	2.9736813e-14
229	0x2907aae0	3.0124232e-14
230	0x285663bf	1.1901015e-14
231	0x296ff097	5.327734e-14
232	0x2897044c	1.6766231e-14
233	0x28885c50	1.5139067e-14
234	0x2a0aa4b4	1.2314005e-13
235	0x29c6cb3a	8.8282205e-14
236	0x2812b950	8.144811e-15
237	0x293d6e22	4.2061955e-14
238	0x28895a8b	1.5249322e-14
239	0x28c10253	2.1428312e-14
240	0x2932b6b0	3.9682396e-14
241	0x2655c34d	7.41639e-16
242	0x2836c604	1.0145967e-14
243	0x288df76f	1.5761452e-14
244	0x2883b4b8	1.4622296e-14
245	0x28796dbe	1.3846073e-14
246	0x2897ed7a	1.6867357e-14
247	0x29b5e88e	8.0783565e-14
248	0x26d9e59e	1.5119638e-15
249	0x297e7fae	5.6510074e-14
250	0x292959f7	3.760357e-14
251	0x28e4a9e8	2.538677e-14
252	0x2a08130c	1.2085835e-13
253	0x29425c51	4.3156725e-14
254	0x2921a0ed	3.5888762e-14
255	0x29f4d235	1.0872242e-13

exp_avg f4 [64]
0	0x00000004	6e-45
1	0x00000000	0.0
2	0x00000004	6e-45
3	0x00000000	0.0
4	0x3aeb4e78	0.0017952463
5	0x3aea174b	0.0017859725
6	0x00000000	0.0
7	0x00000004	6e-45
8	0x00000004	6e-45
9	0x00000004	6e-45
10	0x3af67ece	0.0018806101
11	0x00000004	6e-45
12	0x00000000	0.0
13	0x00000004	6e-45
14	0x00000000	0.0
15	0x00000004	6e-45
16	0x00000004	6e-45
17	0x00000004	6e-45
18	0x00000000	0.0
19	0x00000004	6e-45
20	0x00000004	6e-45
21	0x00000000	0.0
22	0x00000000	0.0
23	0x00000000	0.0
24	0x00000000	0.0
25	0x00000000	0.0
26	0x3ae969a5	0.0017807974
27	0x00000000	0.0
28	0x00000000	0.0
29	0x00000004	6e-45
30	0xba15e3d3	-0.00057178474
31	0x00000004	6e-45
32	0x00000000	0.0
33	0x00000004	6e-45
34	0x3ad94545	0.001657643
35	0x00000000	0.0
36	0x00000000	0.0
37	0x00000004	6e-45
38	0x00000000	0.0
39	0x00000004	6e-45
40	0x3afbf3ce	0.001922244
41	0x00000004	6e-45
42	0x00000000	0.0
43	0x00000000	0.0
44	0x00000004	6e-45
45	0x3ae69340	0.0017591491
46	0x00000000	0.0
47	0x00000000	0.0
48	0x00000000	0.0
49	0x00000004	6e-45
50	0x3afbeedc	0.0019220966
51	0x3aec41fc	0.0018025036
52	0x3af85407	0.001894594
53	0x00000004	6e-45
54	0x00000000	0.0
55	0x00000004	6e-45
56	0x00000004	6e-45
57	0x00000000	0.0
58	0x00000000	0.0
59	0x00000000	0.0
60	0x00000000	0.0
61	0x00000004	6e-45
62	0x3aea4f6f	0.0017876456
63	0x00000000	0.0

exp_avg_sq f4 [64]
0	0x2b38029f	6.537357e-13
1	0x00000000	0.0
2	0x2b4f6f81	7.3695916e-13
3	0x00000000	0.0
4	0x3b2b2637	0.0026115307
5	0x3b283b78	0.0025670212
6	0x00000000	0.0
7	0x246a3c00	5.0791484e-17
8	0x2a091799	1.2176231e-13
9	0x2b7ccfd5	8.981681e-13
10	0x3b39a86a	0.0028329142
11	0x29e60df5	1.0216473e-13
12	0x00000000	0.0
13	0x2b5b6daa	7.795662e-13
14	0x00000000	0.0
15	0x2715a372	2.0766508e-15
16	0x299dcb85	7.0075056e-14
17	0x2c705662	3.4154003e-12
18	0x00000000	0.0
19	0x29b77453	8.1470116e-14
20	0x2a2a3a91	1.5119352e-13
21	0x00000000	0.0
22	0x00000000	0.0
23	0x00000000	0.0
24	0x00000000	0.0
25	0x00000000	0.0
26	0x3b3bf4f3	0.0028679937
27	0x00000000	0.0
28	0x00000000	0.0
29	0x2a1e5280	1.4061842e-13
30	0x3963a8af	0.00021711247
31	0x29ec2357	1.0486636e-13
32	0x00000000	0.0
33	0x27f4030b	6.7726904e-15
34	0x3b10aace	0.0022074464
35	0x00000000	0.0
36	0x00000000	0.0
37	0x28e43f7f	2.5340622e-14
38	0x00000000	0.0
39	0x24ec7081	1.02539274e-16
40	0x3b3f8b1d	0.0029227205
41	0x26f0062e	1.665502e-15
42	0x00000000	0.0
43	0x00000000	0.0
44	0x262887c8	5.8470727e-16
45	0x3b2cc6cc	0.002636361
46	0x00000000	0.0
47	0x00000000	0.0
48	0x00000000	0.0
49	0x282b5cd0	9.512532e-15
50	0x3b41d032	0.0029573557
51	0x3b289f28	0.002572963
52	0x3b3da245	0.0028935832
53	0x24a06210	6.9555063e-17
54	0x00000000	0.0
55	0x2a9490c3	2.639053e-13
56	0x2aa9dc4e	3.0173298e-13
57	0x00000000	0.0
58	0x00000000	0.0
59	0x00000000	0.0
60	0x00000000	0.0
61	0x29ab395e	7.603877e-14
62	0x3b29a335	0.0025884632
63	0x00000000	0.0

exp_avg f4 [1, 64]
0	0x00000004	6e-45
1	0x00000000	0.0
2	0x00000004	6e-45
3	0x00000000	0.0
4	0x3aef55e4	0.001825985
5	0x3af7011f	0.0018844939
6	0x00000000	0.0
7	0x80000004	-6e-45
8	0x00000004	6e-45
9	0x00000004	6e-45
10	0x3afb6ac1	0.0019181595
11	0x00000004	6e-45
12	0x00000000	0.0
13	0x80000004	-6e-45
14	0x00000000	0.0
15	0x00000004	6e-45
16	0x00000004	6e-45
17	0x80000004	-6e-45
18	0x00000000	0.0
19	0x00000004	6e-45
20	0x00000004	6e-45
21	0x00000000	0.0
22	0x00000000	0.0
23	0x00000000	0.0
24	0x00000000	0.0
25	0x00000000	0.0
26	0x3afa1f97	0.0019082901
27	0x00000000	0.0
28	0x00000000	0.0
29	0x00000004	6e-45
30	0xbc985575	-0.018595437
31	0x00000004	6e-45
32	0x00000000	0.0
33	0x00000004	6e-45
34	0x3aeaf304	0.0017925208
35	0x00000000	0.0
36	0x00000000	0.0
37	0x00000004	6e-45
38	0x00000000	0.0
39	0x00000004	6e-45
40	0x3ae62a7d	0.001756027
41	0x80000004	-6e-45
42	0x00000000	0.0
43	0x00000000	0.0
44	0x00000004	6e-45
45	0x3aeebde1	0.0018214547
46	0x00000000	0.0
47	0x00000000	0.0
48	0x00000000	0.0
49	0x00000004	6e-45
50	0x3aebe2e6	0.0017996698
51	0x3aece6c1	0.0018074141
52	0x3ae9cb87	0.0017837145
53	0x80000004	-6e-45
54	0x00000000	0.0
55	0x00000004	6e-45
56	0x00000004	6e-45
57	0x00000000	0.0
58	0x00000000	0.0
59	0x00000000	0.0
60	0x00000000	0.0
61	0x00000004	6e-45
62	0x3af5414a	0.0018711474
63	0x00000000	0.0

exp_avg_sq f4 [1, 64]
0	0x2ba84697	1.1956711e-12
1	0x00000000	0.0
2	0x281ec001	8.812396e-15
3	0x00000000	0.0
4	0x39319ab7	0.00016937671
5	0x3935df19	0.00017344615
6	0x00000000	0.0
7	0x20041880	1.1188941e-19
8	0x2a91bab9	2.588674e-13
9	0x2b3e8164	6.7681125e-13
10	0x392552e0	0.000157665
11	0x2a95c260	2.6602592e-13
12	0x00000000	0.0
13	0x2d006354	7.298013e-12
14	0x00000000	0.0
15	0x25914fe7	2.5207634e-16
16	0x266b71cf	8.1686243e-16
17	0x2cb3b419	5.107481e-12
18	0x00000000	0.0
19	0x2617b49e	5.263343e-16
20	0x283e3fdc	1.0560966e-14
21	0x00000000	0.0
22	0x00000000	0.0
23	0x00000000	0.0
24	0x00000000	0.0
25	0x00000000	0.0
26	0x3914f0bb	0.00014204059
27	0x00000000	0.0
28	0x00000000	0.0
29	0x2b4604cb	7.035038e-13
30	0x3e4c4924	0.19949776
31	0x28ba715d	2.0699312e-14
32	0x00000000	0.0
33	0x29e5dfd8	1.02084736e-13
34	0x395f6a4f	0.0002130654
35	0x00000000	0.0
36	0x00000000	0.0
37	0x27dea19b	6.179259e-15
38	0x00000000	0.0
39	0x20343fc8	1.5267696e-19
40	0x3918bfe4	0.00014567334
41	0x27548594	2.9493323e-15
42	0x00000000	0.0
43	0x00000000	0.0
44	0x20355430	1.5359152e-19
45	0x392d4d2b	0.00016527313
46	0x00000000	0.0
47	0x00000000	0.0
48	0x00000000	0.0
49	0x285b1205	1.21608495e-14
50	0x3918c2d2	0.00014568426
51	0x3936196b	0.00017366341
52	0x391c4863	0.00014904285
53	0x1f3a59d1	3.9461326e-20
54	0x00000000	0.0
55	0x28ec5d18	2.6241636e-14
56	0x2b0ba8f7	4.9617206e-13
57	0x00000000	0.0
58	0x00000000	0.0
59	0x00000000	0.0
60	0x00000000	0.0
61	0x2857a7e4	1.1971303e-14
62	0x39398d9e	0.00017695731
63	0x00000000	0.0
